weights/old/one_piece_22_10_200.pth (torch, 929176 bytes, 7 tensors)

fc_layers.0.weight f4 [256, 132]
000000 b5 84 19 3d c7 be 3a bc 14 48 a0 3d 1e a4 5e bd
       0.037480075 -0.011398024 0.07826248 -0.054355733
000010 c1 b8 26 3d da 80 b4 bd 12 85 b1 3d cb 51 6f bd
       0.04070354 -0.08813639 0.08667959 -0.058427613
000020 86 d7 af 3d f2 ea 1e bd 53 4b bf 3d f4 f9 40 3d
       0.0858603 -0.03879828 0.09340539 0.047113374
000030 40 ff b0 3d 3b 69 83 bd 25 aa b7 3d fe df 2c 3d
       0.08642435 -0.064165555 0.08967999 0.042205803
000040 c9 da cf 3d 6c 20 77 3d 6c 76 9e 3d a7 38 32 bd
       0.10149152 0.060333654 0.07737431 -0.04351106
000050 35 c0 a9 3d a7 8c 16 3d 4d 96 00 3e 2c dc 52 3d
       0.08288614 0.03675523 0.12557335 0.051479504
000060 a3 d5 a9 3d dc 25 cb bd 45 e7 17 3e 41 61 e7 b8
       0.08292701 -0.099193305 0.14834316 -0.00011033053
000070 ac c9 dc 3d 8e 55 9b 3d 1f f1 f9 3d c4 c4 87 bd
       0.10780653 0.07584678 0.12204193 -0.06629327
000080 03 25 b3 3d aa 9f 97 3d aa 93 84 3d 83 72 f1 3a
       0.08747294 0.074035004 0.06473477 0.0018420968
000090 fd 17 50 3d 9a b5 32 bd 9d 88 08 3e 32 df 3e 3d
       0.050804127 -0.04363022 0.13333364 0.046599574
0000a0 40 23 ac 3d f3 c0 af bb 26 c9 8b 3d c7 6d 79 bd
       0.08405161 -0.0053635775 0.068254754 -0.060895707
0000b0 7e fc c5 3d ba a4 17 bc 10 5e 94 3d f6 c2 38 bd
       0.096673 -0.0092555825 0.072445035 -0.045107804
0000c0 3c 1d b1 3d b1 81 e5 bd 54 35 c4 3d a5 af 49 bd
       0.08648154 -0.11206377 0.09580484 -0.049239773
0000d0 38 99 04 3e 0c e7 ad 3b ce 40 f7 3d da f8 64 bd
       0.12949073 0.005307084 0.120729074 -0.055901386
0000e0 35 6d f6 3c 7f db 79 bc d7 1f eb 3d 42 9d 60 bd
       0.03008137 -0.015250086 0.11480682 -0.054837473
0000f0 f3 b4 13 3e ce 87 3e bd 48 a5 75 3d 92 8c 88 bc
       0.14424495 -0.046516232 0.059972078 -0.016668592
000100 22 99 0e 3e df 39 7e bc a1 c7 df 3d 0b df 72 3d
       0.13925603 -0.015516727 0.10926748 0.05929474
000110 04 5e c3 3d bd 83 69 bd ca e8 d4 3d 07 84 18 3c
       0.095394164 -0.0570104 0.103959635 0.0093088215
000120 87 c1 2c 3d bf 0a e3 3b f4 3b d3 3d ac 88 48 bd
       0.04217675 0.0069287713 0.103141695 -0.048958465
000130 e8 e8 c6 3d 6f 6c 4e 3d 03 a9 cc 3d 3b a3 42 3d
       0.09712392 0.05039638 0.09993174 0.04751895
000140 3d 3f 09 3e c4 64 41 3d ab 91 f7 3d f2 87 6b bd
       0.1340303 0.04721524 0.12088331 -0.057502694
000150 b0 a4 07 3e 85 0a 5e 3d 55 2b 92 3d 84 f3 e9 3c
       0.13246417 0.05420925 0.07137171 0.0285585
000160 b6 b6 6a 3d 51 d7 6a 3d a9 ff 0b 3e e6 ee 40 bc
       0.057303153 0.057334248 0.13671745 -0.011775708
000170 f0 c3 0f 3e da f0 14 bd 08 ce 0b 3e 97 f7 19 bd
       0.14039588 -0.036362506 0.13652813 -0.037589636
000180 7e ae 94 3d 5a 8d 98 3d 04 05 97 3d a8 dd ad 3d
       0.07259844 0.07448836 0.073740035 0.08489543
000190 5e 09 10 3e 24 0d 52 bd 19 66 db 3d cb be 5f 3c
       0.14066073 -0.051282063 0.10712833 0.013656328
0001a0 6c f4 77 3d d8 8d 50 bd 01 1e 13 3d a3 25 18 bd
       0.060535833 -0.050916523 0.035917286 -0.03714527
0001b0 74 4f 94 3d ab 0e e9 3c a9 60 7e 3d 27 1e 31 bd
       0.07241717 0.028449377 0.0621039 -0.043241646
0001c0 38 bd 04 3e 6f b6 91 bd b1 1f 1b 3d b7 c6 26 bd
       0.12962806 -0.071148746 0.03787202 -0.040716853
0001d0 7d 59 a4 3c 2f f6 ad bd dd 13 08 3d 2a 6d 73 3d
       0.020062203 -0.084942214 0.033222068 0.05943028
0001e0 ca 41 c0 3d 74 24 12 bc 00 3a 8e 3d 7e e5 17 3b
       0.09387548 -0.008919824 0.06944656 0.002317756
0001f0 fd b5 8b 3d 22 ae 30 3d 09 a2 d0 3d 17 04 52 bd
       0.06821821 0.043134816 0.10187156 -0.05127343
000200 a5 67 a5 3c ad e9 85 3d 3c 26 a9 3d f1 2f 4e 3c
       0.020191023 0.06538711 0.08259246 0.012584672
000210 cb a3 7c 3c 5d a6 fa 3b 87 81 be 3d 7d 53 a4 3a
       0.015419911 0.0076492266 0.09302049 0.0012537088
000220 42 67 fc 3d 71 7a 90 3c bd af 2e 3e 7f 01 4a bd
       0.12324382 0.01763651 0.17059226 -0.049317833
000230 4a 6b 8f 3d 63 80 5d 3d 90 3c 92 3d 2a 76 a2 bc
       0.07002886 0.054077517 0.07140458 -0.019831736
000240 95 a7 e5 3d e4 6d a2 bc a5 bf 1a 3e 05 b5 d0 bc
       0.11213604 -0.01982779 0.15112169 -0.025476942
000250 dd 1e 03 3d fb d3 d6 3c eb c7 fc 3d 24 42 6c 3b
       0.032011855 0.026224127 0.12342819 0.0036050165
000260 13 40 83 3d ec 36 70 3c fb 69 17 3e 90 e1 da 3c
       0.064087056 0.014661532 0.14786522 0.026718885
000270 f2 ba 96 3d d1 9f 86 3d f2 3e 24 bc 4a ef 8c bd
       0.07359876 0.06573451 -0.010024773 -0.06881578
000280 3d a5 0d 3e 6e b1 9e bb f5 73 fb 3d a9 b2 86 3d
       0.13832565 -0.0048429286 0.122779764 0.065770455
000290 bd 8e 46 3c c0 26 8d bd 80 9f ee 3d b5 b2 f5 bb
       0.012118992 -0.068921566 0.11651516 -0.00749811
0002a0 6b 4a 8f 3d 41 c0 91 bd 03 1e b8 3d 6c 0c f7 3b
       0.06996616 -0.07116748 0.08990099 0.0075393226
0002b0 08 be 2c 3c 22 93 fb bd 55 11 fe 3d 99 d3 67 3d
       0.010543354 -0.12283923 0.124056496 0.05659828
0002c0 7f c8 03 3d a8 85 b7 bd 24 7e 08 3d 39 c6 54 bd
       0.03217363 -0.0896104 0.033323422 -0.051946852
0002d0 fd b2 29 3d bd 89 aa 3b 7c cc fe 3c 99 4e 6a 3d
       0.041430462 0.005204408 0.031103365 0.057203863
0002e0 c1 19 ff 3d 89 2c b1 bd 56 93 16 3e 05 51 79 3d
       0.12456084 -0.086510725 0.14704642 0.060868282
0002f0 c9 dc 98 3d 7e c8 65 bc a9 67 4e 3d a1 54 92 bd
       0.074639864 -0.014024852 0.050391827 -0.07145048
000300 de d3 b0 3d 6e 99 8e 3b 23 7c f5 3d 79 a7 77 3d
       0.086341605 0.0043517863 0.11986568 0.06046245
000310 ae 10 0f 3e bb c7 7f bd 13 71 12 3d 2b 42 93 3c
       0.13971207 -0.062446337 0.035752367 0.017975887
000320 77 e7 de 3d 99 d8 11 bd b2 33 f4 3d 34 65 5a bc
       0.10883992 -0.035606954 0.119239226 -0.013329793
000330 2a 51 a9 3d d9 1d 3a bd ba 86 e7 3c 2a 58 70 bd
       0.08267434 -0.04543862 0.028262485 -0.05867783
000340 fb 1d b6 bb c4 50 13 bd 6f 84 13 3e 79 7c f6 3c
       -0.005557773 -0.035965696 0.14405988 0.03008865
000350 6b 29 64 3d b6 29 7c 3d cb 04 bc 3d 90 d0 b5 3c
       0.05570356 0.061563216 0.09180602 0.022194177
000360 a8 00 93 3d 69 a6 85 bc af ce f8 3c c9 c3 57 3d
       0.071778595 -0.016314702 0.030371992 0.05267695
000370 95 d4 8d 3c 43 a5 8b bd bc 23 95 3d 1a 41 43 3c
       0.017313281 -0.068186305 0.072822064 0.011917377
000380 cd 28 f3 3d 83 4c 49 bd 94 ab 6d 3d 6a 66 94 3d
       0.118730165 -0.049145233 0.058024958 0.072460964
000390 e7 4b 63 ba 77 6b 7e 3c ea c8 b1 3d dc 2b 75 3d
       -0.0008670673 0.015528551 0.086808994 0.05985628
0003a0 95 50 83 3d 0b 44 45 bd a3 4e 1f 3d 7d d8 c8 bc
       0.06411854 -0.048160594 0.038893353 -0.024517292
0003b0 fa 5b 03 3e c5 2c 8d 3d 83 94 92 3c 23 d5 1b 3d
       0.12828055 0.06893305 0.017893082 0.03804506
0003c0 91 39 a0 3d 3f 92 f6 bc 95 de 81 3c 08 08 7a bd
       0.0782348 -0.030099032 0.015853206 -0.061042815
0003d0 0f 9a 36 3d cb e6 00 bd d6 90 23 3e 93 e8 35 3c
       0.044580515 -0.0314701 0.1597322 0.011102813
0003e0 e2 a0 19 3e 8d 4c 8b bc 7c 64 f7 3d 37 c4 72 3d
       0.15002778 -0.017004276 0.12079713 0.059269156
0003f0 8c 5e 4b 3d dc e9 54 3d 12 09 ee 3d 17 62 4f 3d
       0.049650714 0.05198084 0.11622824 0.050630655

fc_layers.0.bias f4 [256]
000000 fd 5c 2a bd f4 76 ec bc 26 16 b6 3d 25 8c 8b bd
       -0.041592587 -0.028865315 0.08890943 -0.0681384
000010 41 5c 93 bd 07 ce 88 3c 98 bc f1 3c fc fe 83 3d
       -0.071953304 0.016699804 0.029508874 0.06445119
000020 e2 84 ed 3c 87 ff 66 bd df 7d 58 bd 55 cf 56 3d
       0.028994028 -0.056396034 -0.052854415 0.05244382
000030 52 72 ec bc ad e8 93 bd 7c fb 9b bd 0b 54 0b bd
       -0.028863106 -0.07222114 -0.07616326 -0.034015696
000040 e8 9b a1 3d c6 9f 99 bc c3 00 4f bd 7f 21 a0 3d
       0.07891065 -0.018752944 -0.050537836 0.07818889
000050 b3 33 ab bc 9e 17 8a 3d 55 c0 ab bc 9f 66 9b 3a
       -0.020898676 0.06742786 -0.020965734 0.0011856145
000060 d2 b5 8a 3c 93 d0 a6 bc 96 76 a4 bc af 5a 74 3d
       0.016932402 -0.020363128 -0.020076077 0.059656795
000070 f2 12 62 bd 6e 6c 9d 3d 24 11 8e bc e7 98 56 bd
       -0.05519385 0.07686697 -0.017342158 -0.052391913
000080 69 0d 83 3d ea 25 d0 bc 14 37 61 3d 01 9b 2e bd
       0.06399042 -0.025408704 0.054984167 -0.042628292
000090 30 83 00 3b e9 51 33 bd 1f fe 91 3a 67 df 48 3d
       0.0019609444 -0.043779287 0.0011138356 0.049041178
0000a0 ce d7 6b bd 4a 8e 05 bc 0d 79 04 bd 72 0a 7e 3d
       -0.057578854 -0.0081516 -0.032342006 0.06202168
0000b0 67 4e 49 bd c5 08 05 bd 65 0e 31 bc a8 eb 3d bd
       -0.049147036 -0.032479066 -0.010806655 -0.046367317
0000c0 a6 99 44 3d 3f 6f 75 3c 8c 3b bf bc 46 5d 48 bc
       0.047998093 0.014980136 -0.023343824 -0.012229269
0000d0 da 71 64 3d 8c 62 12 bc e0 a6 f2 bc 34 bd 7c bd
       0.05577264 -0.008934628 -0.029620588 -0.061703876
0000e0 e2 6d 88 3d 5e fb 8d 3d 70 a4 c7 3d cd cd c4 3b
       0.066615835 0.0693271 0.09748161 0.0060059787
0000f0 b6 28 5c bd f8 29 77 bd fc 96 93 bd 29 15 b1 bd
       -0.053749762 -0.06034276 -0.07206532 -0.08646614
000100 be 8b a7 bd 04 8d a9 3d 82 25 6b bd 7a 77 60 3d
       -0.081809506 0.0827885 -0.057408817 0.05480144
000110 69 a0 68 3c e1 1a 9c 3d 52 f6 4d 3c df b7 4c 3c
       0.014198401 0.07622314 0.012570934 0.01249501
000120 02 69 b2 b7 bf bb bb bd 5a 1f 6c bd 7d 3e 76 3d
       -2.1268152e-05 -0.09166669 -0.057647087 0.060118187
000130 af fa 57 3c 65 29 6c 3d 2f e7 82 bd b4 14 82 3d
       0.013182326 0.057656664 -0.06391751 0.06351605
000140 24 72 60 3d 15 9c 5e 3d 3e 1f 5c 3d 2c 68 1c bd
       0.054796353 0.05434807 0.053740732 -0.038185284
000150 ae 27 6f 3b 43 40 e5 bd 26 ae 2d bd 22 c9 2d 3d
       0.0036492157 -0.111938976 -0.04240241 0.042428143
000160 9d 33 5a 3d b1 47 04 bd 81 fd cd bc 99 91 d1 3c
       0.05327188 -0.032294933 -0.025145294 0.025582122
000170 fd 7d 6d bc d6 18 df 3c 42 eb a3 bc dd 10 cd 3d
       -0.01449537 0.027233522 -0.02000964 0.10012982
000180 09 61 8d bd 17 0e 98 bc a2 c1 bd 3d 1c 63 85 3c
       -0.069032736 -0.018561406 0.09265448 0.01628261
000190 e0 f4 a0 bc 99 f9 5f 3d b5 52 40 3d 0f 53 1a bd
       -0.019648015 0.054681394 0.046953876 -0.037676867
0001a0 54 f7 5f bd 3e 50 24 bc 43 0a 58 bd c1 a6 3d 3d
       -0.05467923 -0.010028897 -0.05274416 0.046301607
0001b0 3c 28 f2 3c 4c cf 4f 3d 08 4e 77 bd 8d b3 42 3c
       0.0295602 0.050734803 -0.06037715 0.011883629
0001c0 e4 98 3f bd b0 5c 90 bc e4 6e a8 3d e7 6e 82 3c
       -0.046776667 -0.017622322 0.08224276 0.015922023
0001d0 d3 47 02 bb 34 75 07 bd a3 3a ae bd a1 c2 a6 3d
       -0.0019879236 -0.033070758 -0.08507278 0.08142591
0001e0 2e 2e 91 3d ed 4b 9b bd 50 ee 16 3d d0 92 be 3b
       0.07088886 -0.07582841 0.036848366 0.0058158413
0001f0 b0 df ac 3c f9 51 a5 3d fa 59 60 3d 01 74 58 3d
       0.021102756 0.08072276 0.05477331 0.052845005
000200 4a ec 7d bc b0 0a 80 bd f4 70 da 3d 31 d8 bf bc
       -0.01549823 -0.062520385 0.10666075 -0.023418518
000210 47 92 43 3c cc e5 7b 3c 6a ef 67 3b 39 d8 89 3d
       0.011936731 0.015374612 0.0035390505 0.06730694
000220 e7 35 79 3d 17 2d b0 3d 56 de a8 3d 2a 88 a6 3b
       0.06084242 0.0860235 0.08245532 0.00508215
000230 20 35 d9 3d 7b 36 d5 bc 28 88 dc 3c a9 e7 0b bd
       0.10605836 -0.026026955 0.026920393 -0.034156475
000240 f3 83 02 3d 69 b6 80 3c ac e4 5a bd c2 3d 58 bd
       0.031864118 0.01571198 -0.053440735 -0.05279327
000250 5c 57 ce bd 3d f9 63 bd 3c c1 4c bd 7d 9e 57 bd
       -0.10075256 -0.055657614 -0.04998897 -0.05264138
000260 82 2b bb bc 28 06 01 3d 3f bb 2d b9 22 cd de 3d
       -0.022847895 0.03150001 -0.0001656832 0.1087897
000270 f9 7f 59 bd 55 80 a0 3d ef 1e 07 3d d8 22 1e bd
       -0.05310056 0.078369774 0.032988485 -0.03860745
000280 0f 95 4b bd 5b 3d c2 bc 96 d7 2e bd 2a cf 66 bc
       -0.0497027 -0.023710897 -0.042686068 -0.014087478
000290 67 2e 76 bd 7c 42 09 bd 05 f2 51 3d e7 3b 46 bd
       -0.060102846 -0.03351067 0.0512562 -0.04839697
0002a0 00 54 be 3d fb 3b 96 bd 7c 4d 89 3c 4b ab ba bd
       0.092933655 -0.07335659 0.01676058 -0.09114703
0002b0 a1 41 73 3d 2e 0d b4 bd 28 d1 c0 3d 4b 60 1e 3d
       0.05938876 -0.08791576 0.094148934 0.03866605
0002c0 1b 74 b5 bd 4c 5a 84 bd 6b 01 82 3d f3 10 86 bd
       -0.08860036 -0.06462535 0.06347927 -0.065462016
0002d0 03 2d 3e 3d 5e 91 c9 3d 2b 81 aa bd f5 c0 30 bc
       0.046429645 0.0984218 -0.08325418 -0.010788192
0002e0 4b f1 9a bd 1e 9a 87 3c 66 9e 64 3d c6 df cc 3d
       -0.07565554 0.016552981 0.055815123 0.10003619
0002f0 21 d4 7c bd 32 a3 28 3c 9e 44 70 3d 1c 5d 97 bd
       -0.06172574 0.010292815 0.05865919 -0.07390806
000300 c8 2e 78 bd eb c3 5b bd 60 cc 51 bd a6 1f a7 bd
       -0.06059149 -0.05365364 -0.051220298 -0.08160333
000310 7d ff 63 3b bc f8 ba bc 3e 89 9f bd e1 62 9d bd
       0.0034789734 -0.022823684 -0.07789849 -0.07684875
000320 7e fd 87 3d d4 41 5b bd 00 8e d9 bb bd 77 44 3d
       0.06640147 -0.053529575 -0.006639242 0.047965754
000330 26 03 a6 3c af 42 34 bd 87 62 2c 3c 74 72 6a 3c
       0.020265173 -0.044008907 0.010521538 0.014309514
000340 3f e1 15 bc a0 2a a3 3c 4d db 77 bc a9 58 95 bd
       -0.009147941 0.019917786 -0.015127969 -0.07292301
000350 f4 b5 a0 3d eb 4b 9b 3d 31 91 ab 3b 00 7a 64 3d
       0.07847205 0.075828396 0.005235814 0.05578041
000360 f7 cc 1b bd 33 98 b8 bd 35 31 91 bd d8 18 3a 3d
       -0.038037267 -0.09013405 -0.070894636 0.04543385
000370 1e d9 82 bd e0 78 0d bd 91 99 89 3d 8d b6 ba bb
       -0.06389068 -0.034539104 0.067187436 -0.0056980313
000380 da 5d a0 3b 4d 14 b7 3c da be 75 bb 0b 92 81 3c
       0.0048940005 0.022348547 -0.003749779 0.015816709
000390 f9 84 9e 3d e3 13 3c bd 03 65 9e 3d 5a b4 85 bd
       0.07740206 -0.045917403 0.0773411 -0.0652854
0003a0 fa 3a 90 3d bc 1e 01 bd 23 ce cf bc 72 64 4f bd
       0.07042499 -0.03152345 -0.025366848 -0.0506329
0003b0 99 88 38 3d f4 c6 a5 3d 19 e7 05 39 a8 a2 14 3d
       0.045052145 0.08094588 0.00012769959 0.036287934
0003c0 ca 4f 98 bb a4 11 1b bd 8f a3 15 3d a9 00 14 3c
       -0.0046481835 -0.03785862 0.036532935 0.0090333605
0003d0 ec 02 4f bc 65 dd 87 3d 7f d3 36 3c 06 34 05 3d
       -0.012634974 0.066340245 0.011158823 0.032520317
0003e0 18 52 8a 3d 9c 3f 8f bc 89 c3 8a bd ae b3 9f 3d
       0.067539394 -0.017486386 -0.067755766 0.07797943
0003f0 e2 d5 32 bd a1 43 c3 bc 32 4a bf 3d ad 05 41 bc
       -0.043661006 -0.023835959 0.093403235 -0.011781138

fc_layers.2.weight f4 [512, 256]
000000 cb 07 46 bd c1 94 4d bd af 21 8f 3d 8d eb 03 3d
       -0.048347276 -0.05019069 0.069888465 0.03220706
000010 2a f3 66 bd 1d 53 2b bc 2b 08 3f 3d 85 3a e4 3c
       -0.056384243 -0.0104568275 0.04663865 0.027859936
000020 ce e6 60 bc 92 73 ab 3b 96 3b 03 3d a4 90 c3 bc
       -0.013726903 0.005232283 0.032039247 -0.023872681
000030 0b ae 63 3d a5 c2 72 3c 6d 2c a7 3c ac e6 22 bd
       0.055585902 0.014816915 0.020406926 -0.039770767
000040 1f c2 12 bd 17 6b 96 3c 22 64 3f 3d ce fe 29 ba
       -0.03582966 0.018361611 0.046726353 -0.0006484807
000050 38 b7 c6 bc 5e d4 3f bc aa 74 5d 3d f8 a4 92 bc
       -0.024257287 -0.011708347 0.054066338 -0.017900929
000060 e8 21 48 3d c7 13 26 bd 72 68 8a 3d 78 e2 66 3b
       0.04886046 -0.040546205 0.067582026 0.00352302
000070 86 6e b5 3c b4 e1 f9 bc 31 fa 0a 3d be c3 b4 3c
       0.022147428 -0.030503131 0.033930007 0.022065993
000080 63 97 bb bc 79 fa b6 3b ab 6c e6 bc 11 de 38 3d
       -0.022899335 0.005584058 -0.028127989 0.045133654
000090 4f 49 ca 3c da cb 90 ba 48 a5 6f 3b 35 35 13 3d
       0.02469316 -0.0011047081 0.003656702 0.035939414
0000a0 1b 6c 98 3c 73 42 7d bc 68 e7 d2 39 e8 6b 9d 3d
       0.018606236 -0.015457737 0.00040226732 0.07686597
0000b0 63 64 47 bd f1 4f c4 3c 09 45 40 bb 75 80 4f 3c
       -0.04867972 0.0239639 -0.0029338023 0.012664904
0000c0 a1 53 85 bd 2c 75 37 3d cf 64 46 bd 6e e1 89 bb
       -0.065100916 0.04478948 -0.048435982 -0.0042077815
0000d0 00 85 28 3d 0a de 03 3c 93 bd 35 3d 52 35 96 bd
       0.041142464 0.008048544 0.044370245 -0.07334389
0000e0 b8 f6 81 3d 5a bd 74 3d 6f 7f 51 bd bf e9 65 3c
       0.06345886 0.059750892 -0.05114692 0.01403278
0000f0 6c 8f ab 3d 87 25 6f bc 5b 78 1f bd 90 4b 48 bd
       0.08376965 -0.01459635 -0.03893314 -0.048900187
000100 e2 e7 8f 3d 3a 79 75 bb 0b 14 99 3d 52 2e c7 3a
       0.0702665 -0.003745629 0.07474526 0.00151963
000110 a3 1e 70 3c dc 4a ee bb c2 c0 30 bd 02 ee 66 bc
       0.014655742 -0.0072721075 -0.04315258 -0.014094831
000120 e8 ab 10 bd b4 2a 74 3d dd 52 fd 3c aa 11 58 bd
       -0.035320193 0.059611037 0.030923301 -0.05275122
000130 21 c0 12 3d f0 85 6a bc 18 bd 00 bd 97 b9 73 bd
       0.03582776 -0.01431416 -0.031430334 -0.059503164
000140 ae 7a 3e 3d 9c 79 db bc 00 7f 81 3d 69 dd 93 3b
       0.046503715 -0.026791386 0.063230515 0.004512478
000150 57 69 25 3d 96 38 74 3d d3 40 a7 3c d8 7b 59 3d
       0.040383663 0.059624277 0.020416653 0.053096622
000160 ea 74 56 3d eb 8b 7f bd 54 e1 fe bb 90 d7 fc bc
       0.05235759 -0.062389296 -0.007778326 -0.030864507
000170 b4 91 e1 bc c2 0a 2c bd 01 0e 63 3d 9e b8 06 3d
       -0.027535297 -0.042002447 0.055433277 0.03289091
000180 c1 d8 3c 3c 8f 35 b5 bc a7 ae ee bc 34 ac 1b 3a
       0.0115262875 -0.022120265 -0.029136015 0.0005938441
000190 bc 73 f1 bc aa 07 09 3d c1 b2 e8 3c 2b dc ea 3c
       -0.029474132 0.033454575 0.028405549 0.028669437
0001a0 ee 1d 7c 3d 87 74 c4 3c 4f 0d 89 bd 89 ae b2 bc
       0.06155198 0.023981346 -0.066919915 -0.02181174
0001b0 7d 0c 71 3d 4f f5 33 3d f2 9b 00 3d a2 d9 f9 b9
       0.0588498 0.043935116 0.03139872 -0.0004765513
0001c0 21 16 26 3d e9 0b 52 bd 61 75 43 bc 92 bd 3f bd
       0.040548448 -0.05128089 -0.011929841 -0.046811648
0001d0 2a 48 33 3d 5c 1a b5 3c 97 07 30 bd 77 0d e7 b9
       0.043769993 0.022107296 -0.04297599 -0.00044069786
0001e0 d8 a0 36 bd 2d bd 12 3d 52 7d 65 3d da 8e 8e bd
       -0.044586986 0.035824943 0.056027718 -0.069608405
0001f0 16 5e 04 bd 9c b8 75 bc df 6f 94 bb 95 f2 8e 3d
       -0.03231629 -0.014997628 -0.0045299376 0.069798626
000200 b9 3d 5b 3d e3 b0 29 bd ae 36 a1 3c 04 60 32 bd
       0.05352566 -0.041428458 0.019679394 -0.0435486
000210 19 2d 2e 3d a7 a3 45 3d e3 6f 7f 3b 1e af 49 3d
       0.042523477 0.048251774 0.0038976602 0.04923927
000220 f4 c6 7e bc 66 7e a3 bc 26 fc 2b 3d 11 10 9d 3d
       -0.015550364 -0.019957732 0.041988514 0.0766908
000230 23 25 07 bc 93 5a 82 bd 24 87 41 3d d4 1f aa bc
       -0.0082486 -0.06364932 0.04724802 -0.02076713
000240 2a 59 29 3c 93 e5 c1 3c 3d 40 1b 3d 12 c2 64 bc
       0.0103362 0.02366904 0.03790306 -0.013962286
000250 83 ac 8e bc 15 d2 96 bd 1e 64 4b 3d b7 9a 9c 3d
       -0.017416244 -0.07364289 0.049656026 0.07646697
000260 7c 12 20 bd 6c 26 8e bc ce c1 1d 3c 0f c7 49 3b
       -0.039080128 -0.017352305 0.009628726 0.0030788814
000270 46 18 71 3d ff 67 42 bd 22 85 6a 3d 43 50 3d bc
       0.05886104 -0.04746246 0.05725587 -0.01155478
000280 ed ba 60 bd 54 73 98 3c e5 39 a9 3c 83 34 5a bd
       -0.054865766 0.01860968 0.02065749 -0.053272735
000290 6d 48 5d bd df bc 3f bc fa 3e 28 3d 5e a5 85 bb
       -0.05402415 -0.011702745 0.041075684 -0.004078551
0002a0 ea 20 9c bc f5 5d 1f bb d8 66 18 3d 16 76 93 3d
       -0.019058663 -0.0024317477 0.037207454 0.072002575
0002b0 c7 d4 a0 bd c5 1f 5b 3c fc ac c2 3c 9a 24 87 bc
       -0.07853084 0.013374274 0.023764126 -0.016496945
0002c0 ff 9b 6b bd f6 59 65 3d 89 f5 3f bd 16 80 8f bd
       -0.057521816 0.055993997 -0.04686502 -0.07006852
0002d0 20 02 d2 3c ed 6b 29 bd 5f 3b 28 3d 7d 56 4c 3d
       0.025635779 -0.04136269 0.041072246 0.04988717
0002e0 ee bb 5b 3c bc 4f e6 3c bd 25 5b bd fa 55 1d bd
       0.013411505 0.028114192 -0.053502787 -0.03841207
0002f0 6f 82 98 bd 21 e8 5e 3c f6 46 9b 3c 2d 7c c1 bc
       -0.07446753 0.0136051485 0.018954735 -0.023618782
000300 03 50 03 bc e2 6b 9e 3c 60 72 ef 3c 0f 91 12 3d
       -0.008014682 0.019338552 0.029229343 0.03578287
000310 c2 b3 07 3d 7b 49 ed bb 4e 42 1b 3d 2b 3a 5a bc
       0.033130415 -0.0072414256 0.03790503 -0.013319532
000320 f1 3d a3 bc aa 6a 3d 3d 1e c6 92 bd f9 54 33 bd
       -0.019926997 0.0462443 -0.07166694 -0.043782208
000330 ac a7 a0 bc e9 33 a6 3c 48 ab 29 bd 81 27 e0 bc
       -0.019611202 0.020288425 -0.041423112 -0.027362587
000340 4f d8 fe bc e4 58 d5 3c 72 bc 38 bd d2 d1 b6 3a
       -0.031109003 0.026043363 -0.04510159 0.0013948029
000350 46 e5 7a 3c d5 f5 2e 3d 88 4a 83 bc 61 dc 38 bc
       0.015313452 0.042714912 -0.01602675 -0.011283011
000360 22 8e 5e 3d 6f c6 21 bd 5b 3d 8d ba ff 60 5f 3d
       0.054334767 -0.03949588 -0.0010775732 0.054535862
000370 31 fe 00 bd 8b b6 44 3d 89 dd 58 3b 37 70 ab 3b
       -0.031492416 0.04802565 0.003309103 0.005231883
000380 87 4d 63 3c bb b5 37 3c 46 f3 f6 bc 45 f3 2e 3c
       0.013873464 0.0112127615 -0.030145299 0.010678117
000390 10 59 93 bc 3d 0f 1f 3d e9 b2 0c bd bb c3 1e bd
       -0.017986804 0.03883289 -0.03435031 -0.038760882
0003a0 49 28 82 bc 3a 2e ab 3d ce 26 f4 bc 4a 28 83 bd
       -0.01588835 0.083584264 -0.02980366 -0.06404169
0003b0 21 c0 08 bc d1 e2 10 bd e8 2d 8a bc ba 9c 8f bc
       -0.008346588 -0.03537256 -0.016867593 -0.017530788
0003c0 99 9c e6 3c db e8 93 bc 24 3e e1 3c f6 53 67 3d
       0.028150843 -0.01805537 0.027495451 0.056476556
0003d0 1e a1 ce bc f3 cc a0 bb a0 1b af bc 54 6c 20 3d
       -0.025223311 -0.0049072444 -0.021375477 0.03916581
0003e0 cc 82 35 3c 7b b9 60 3a 2c 96 1f bc 5c 4f 10 bc
       0.011078548 0.00085725606 -0.009740394 -0.008807983
0003f0 fc 7a a3 3c 35 c4 c5 bc 9b 47 fa 3c 08 9c 3b 3d
       0.019956104 -0.02414141 0.030551722 0.0458031

fc_layers.2.bias f4 [512]
000000 da 81 5f 3d ed 8a 49 3d 20 8e 8a bd a3 5d 1b bc
       0.054567195 0.049204756 -0.067653894 -0.009482774
000010 7a fa b6 bc 61 37 11 bc c3 b0 0d bd a4 be 29 bd
       -0.022336233 -0.008863301 -0.0345924 -0.041441575
000020 d8 a5 98 3c a6 f7 89 bd 61 57 a8 bd 2a 5d 51 bd
       0.018633768 -0.06736688 -0.08219791 -0.05111424
000030 3a 9b 28 bd 9f d0 4c 3d e8 f2 88 bd 59 a4 6a 3b
       -0.04116366 0.050003644 -0.06686956 0.0035803525
000040 2e 3d a4 bc 8b b4 2d 3b 20 cf fe 3b 01 b2 12 bd
       -0.020048704 0.0026505317 0.007776156 -0.03581429
000050 33 27 79 3d 5d 0c ef bc 8e b9 b5 3a 67 ba a7 3c
       0.0608284 -0.0291807 0.0013864504 0.020474626
000060 ea 6a 8c ba 83 74 57 bd bb 69 33 bc b6 65 c1 bc
       -0.0010713015 -0.05260135 -0.010950501 -0.02360807
000070 df 63 81 bd 90 cc 99 bc 7d 87 19 bd 83 58 89 3c
       -0.06317877 -0.0187743 -0.037482727 0.016765838
000080 28 ae a5 3b 29 36 50 3d 93 5f 57 3c 2f 0d a1 bd
       0.0050561614 0.0508329 0.013145345 -0.07863843
000090 47 2f fb 3b d9 8f 90 bc e5 98 1d 3c a0 bf 28 3d
       0.007665548 -0.017646717 0.009618972 0.041198373
0000a0 3f 8f 2d bd 9b 94 b5 bc 2a 4d 40 3d fb 8e 49 3d
       -0.04237294 -0.022165587 0.04694859 0.049208622
0000b0 10 73 85 bd db 78 7c bc b9 38 52 bb c5 c1 1b bd
       -0.06516087 -0.015409674 -0.0032077266 -0.03802659
0000c0 d1 1f b6 bd d1 2f 13 bd 96 5d 5c bd 00 5c 5a bd
       -0.08892787 -0.035934273 -0.053800188 -0.053310394
0000d0 28 c8 7b bd 70 41 16 bd c8 3f e4 bc 2c 66 62 bd
       -0.06147018 -0.0366835 -0.027862445 -0.05527322
0000e0 a0 4d c2 3c ba 57 55 3d c3 bb 97 bd 49 72 01 3d
       0.023718655 0.052085616 -0.074088596 0.03160313
0000f0 5a 2a 3c bd 96 ab 57 bc 2d 8f 3a 3c b3 77 4a 3c
       -0.045938827 -0.013163468 0.011386675 0.01235764
000100 80 83 29 bc ff c4 1b 3d e6 51 12 bd 5b c8 06 3d
       -0.010346293 0.038029667 -0.035722636 0.032905918
000110 78 7b 1c bc 78 5a dc bb d2 4f 7c bd 31 24 44 3d
       -0.009550922 -0.006724652 -0.06159956 0.047886077
000120 17 9f 4a bd 39 7a 5f 3d 4c ca 40 bc e2 b0 5d bc
       -0.049468126 0.05455992 -0.011766981 -0.013530942
000130 ed 49 8f bd 00 c2 90 bb 1b 7e 1f 3c d0 73 01 3d
       -0.06996522 -0.004417658 0.009734656 0.031604588
000140 92 9d a9 bb 0f 13 fe b9 95 dc d8 3c 76 63 6e bd
       -0.0051762545 -0.00048460855 0.02647237 -0.058200322
000150 60 73 b3 bd d4 bf e8 bc a8 ad d3 3b 34 ab 65 bd
       -0.087622404 -0.028411783 0.0064599104 -0.056071475
000160 20 fa 12 bd 6c 6d dd 3b ea c1 91 3c 85 25 ab bd
       -0.03588307 0.006757429 0.01779266 -0.08356766
000170 f9 1e 97 bd 44 c2 7a 3d 75 08 af 3c 62 3a 82 bc
       -0.073789544 0.061220422 0.021366337 -0.01589698
000180 44 f4 b1 3b 44 99 3e 3c b7 cf 31 3c f3 6a b2 3c
       0.00543073 0.011633221 0.010852746 0.021779513
000190 b4 9c 07 3d 13 a5 cd bc f7 78 e7 3c ba c0 af bc
       0.033108428 -0.025103128 0.028255923 -0.021454204
0001a0 ed 28 d3 bc c2 94 85 bd df 94 41 bd fc 8f 0e bc
       -0.02577635 -0.06522514 -0.047261115 -0.008701321
0001b0 19 b5 55 bd 88 08 91 bd 30 b1 91 3d ee 88 14 bd
       -0.05217466 -0.07081705 0.07113874 -0.0362634
0001c0 0f 73 0f bc b1 f0 b6 bd 2a ea 8d bd 60 91 42 bd
       -0.008755459 -0.08932627 -0.06929429 -0.04750192
0001d0 eb ea 4a bd 45 06 1b 3d fd d3 a5 bd 3c e6 43 bd
       -0.04954044 0.037847776 -0.08097074 -0.04782699
0001e0 c0 36 34 bd 7a c6 18 3d 44 fc ec 3c e8 ce 2a bd
       -0.043997526 0.037298657 0.028928883 -0.041701227
0001f0 ac f6 02 bd 01 97 a6 bc db d5 2a 3c f1 47 b6 3b
       -0.031973526 -0.020335676 0.010426964 0.0055627753
000200 45 a1 d5 bb 1a 15 17 bc f2 32 9a 3c 2e fa 79 3d
       -0.006519469 -0.00922134 0.01882312 0.061029606
000210 ab 81 34 3c dd e0 f6 3c 53 a0 b2 3c 96 91 ce 3b
       0.011017243 0.03013652 0.021804964 0.0063039763
000220 e0 76 aa 3d 65 dd 73 3d 79 96 52 3c 2d 9b b3 ba
       0.08323455 0.05953731 0.012853258 -0.0013702862
000230 a6 cb 7b 3d 85 79 17 bd 77 44 8c bd f7 7a 37 bd
       0.06147351 -0.036981124 -0.06848996 -0.044795003
000240 8d 70 52 3c 6e 39 cb 3b 96 51 03 3c f7 41 86 bc
       0.012844217 0.0062019145 0.008015057 -0.016388876
000250 4f 01 ed 3c 86 e4 fb bc 38 9a 21 3d 46 e6 7c bd
       0.028931288 -0.030748617 0.039453715 -0.061743043
000260 99 eb 0c bc a0 08 3f 3c 65 50 2a bc f9 c6 f3 bc
       -0.008601093 0.011659771 -0.010395144 -0.029757963
000270 06 85 30 bd 1f 74 dd bc 80 e8 9d bd ee ce ef bc
       -0.04309561 -0.02703291 -0.077103615 -0.029273476
000280 ff 1b 0a bd 33 06 26 bb 84 c4 c6 bc 7c 00 1a 3d
       -0.033718105 -0.0025333285 -0.024263628 0.03759812
000290 a6 e7 2e 3c 33 eb fc 3c 1b 3e 4e 3d 85 a2 90 3c
       0.0106753465 0.03087387 0.050352197 0.01765562
0002a0 f3 78 69 3d 59 2f 8f bc 20 bf a5 bb 8c 11 4e bd
       0.05700011 -0.017478632 -0.0050581843 -0.050309703
0002b0 12 d6 2b bd 51 a8 9c 3c 0e cf b4 3c 6e b0 12 3c
       -0.0419522 0.019123228 0.022071388 0.008953197
0002c0 e3 17 89 3c 0a c7 80 3d 41 dd 67 3c 7a 2a 44 bb
       0.016735023 0.06287964 0.014151872 -0.0029932545
0002d0 2f 32 76 bd 70 c8 d8 3c d5 fd 48 3c 64 3a 66 3d
       -0.060106453 0.026462764 0.0122675495 0.05620803
0002e0 0a df 52 bd b0 29 7b bc 9f 73 26 3d 8c 5a f5 ba
       -0.051482238 -0.015329763 0.04063761 -0.0018719002
0002f0 4c c2 b8 bd d6 e6 75 3d be f7 17 3d f6 b1 df 3c
       -0.09021434 0.060034595 0.0371015 0.027306538
000300 2e bd 23 3d 23 31 83 bd 1d 7b e3 bc 36 46 20 3d
       0.039975338 -0.064058565 -0.027768666 0.03912946
000310 b0 14 a3 3c 9b de ed bc 56 a6 82 bd 8e 1c 83 bc
       0.019907326 -0.02903681 -0.06379382 -0.016004827
000320 e9 7b 63 3d 06 d9 50 3c fe f5 21 bd dc 71 07 3c
       0.05553809 0.012747055 -0.039541237 0.008266892
000330 4b 9c a0 3d 15 7f 65 bd e8 ff aa 3c 5b e3 e6 3c
       0.078423105 -0.056029398 0.020873979 0.028184583
000340 0b f5 80 bd c7 ff 9a bd e2 f9 e7 bc 7d 56 9c bd
       -0.06296738 -0.07568317 -0.028317396 -0.07633684
000350 1d 78 25 bd f2 07 a4 39 26 fe 8d bd 23 e1 83 bc
       -0.040397752 0.00031286437 -0.069332406 -0.016098564
000360 50 1a e4 3c 69 dc a4 bb 35 7c 26 bd 79 37 d1 bc
       0.027844578 -0.0050311578 -0.040645797 -0.025539147
000370 ed cd 6f bd 4d 20 85 3c d1 a4 d0 3c 36 d8 80 bc
       -0.058545996 0.016250754 0.025469216 -0.015728097
000380 d4 b1 fd bc c1 49 54 bd c2 78 50 bc 1a ed 07 bc
       -0.030968584 -0.05182815 -0.012724103 -0.0082962755
000390 21 ec 5b bd 1c c0 87 bb 9e 40 9a bd df c1 8e bd
       -0.053691987 -0.0041427743 -0.07531856 -0.06970572
0003a0 7d e8 d7 3b 94 68 d1 3c 2b 56 2f 3d b4 f0 11 3d
       0.006588994 0.025562562 0.042806786 0.035629943
0003b0 9d 13 b1 bc 18 55 8f 3c b1 69 13 3c 7a f0 0a bd
       -0.021615798 0.01749663 0.008997367 -0.033920743
0003c0 f6 82 4b 3d e6 73 17 3d 3f 26 33 bc f5 2c 3a bd
       0.04968544 0.036975764 -0.010934412 -0.04545303
0003d0 93 d6 82 bd 9b 44 46 3c 6f c6 2c bd 62 90 0c bd
       -0.06388583 0.012101318 -0.04218143 -0.03431738
0003e0 92 0a 28 bd b8 bd 4f bd 9b 12 81 3d 89 de 87 3c
       -0.041025706 -0.05071804 0.06302377 0.016585605
0003f0 56 5f 9a bc 46 eb 09 bd d4 9b 27 3d 1c 81 04 bd
       -0.018844288 -0.03367164 0.040920094 -0.03234969

fc_layers.4.weight f4 [128, 512]
000000 21 e3 b5 3c 73 72 cf 3a 82 71 f4 3b 8b eb 08 3c
       0.02220303 0.0015826955 0.0074598202 0.008356939
000010 e3 06 5b bc 5e cf 2f bd 1c 28 2b bd 07 40 02 bb
       -0.013368341 -0.04292237 -0.0417863 -0.001987459
000020 af e1 38 bd 1e f9 e8 3c 4e 3e 5a bc ae 15 c1 3c
       -0.045137104 0.0284391 -0.013320519 0.023569908
000030 fe 3c b1 bc f3 0d 4d bd 5e 44 0d bc 8e c6 bc 3c
       -0.021635529 -0.05006213 -0.008622257 0.023043897
000040 44 20 d9 bc 09 f7 dc bc 8b 9f f9 3c bc 28 1f 3d
       -0.026504643 -0.026973264 0.030471584 0.038857207
000050 c9 df 85 bc bf b6 80 3c a3 4e be bc f5 9e 85 3c
       -0.01634206 0.01571214 -0.023230856 0.016311148
000060 75 9f f1 3a 4f 51 ef 3c b8 89 f0 bc 94 62 06 bc
       0.0018434363 0.029213576 -0.029362544 -0.008202214
000070 3e b8 03 bd b5 3a 8d ba ae fc 4d bc 5a 29 a6 bb
       -0.03215813 -0.0010774942 -0.012572451 -0.0050708475
000080 48 4a 1d bd 6a a9 fe bc a2 a7 a4 3c 38 c4 e9 3c
       -0.03840092 -0.031086642 0.020099465 0.028535947
000090 2e 68 f4 bc f2 d4 0c bd 10 65 d2 bc 80 ef dd ba
       -0.029834833 -0.034382768 -0.025682956 -0.0016932338
0000a0 34 ca d2 bc 3a 1d 22 bd 58 79 d9 3b f4 20 9a bb
       -0.025731184 -0.039578654 0.0066367798 -0.0047036353
0000b0 ff 25 2b bd 6a 59 2c bd a2 b7 52 bc 9e 78 66 3b
       -0.041784283 -0.04207746 -0.012861164 0.0035167108
0000c0 49 e1 ec 3a 3a 63 af 3a 8e f1 97 3c c5 69 b6 bc
       0.0018072511 0.0013381012 0.0185478 -0.022267232
0000d0 da 47 18 3c b1 5f 97 3c 46 2a 14 bd ab 03 e2 39
       0.0092944745 0.018478246 -0.036173128 0.00043108812
0000e0 5c 1b 15 3c ed 47 ea bc 87 7b 04 bd 71 c4 d3 bc
       0.009100761 -0.02859875 -0.032344367 -0.025850506
0000f0 e7 d6 bc bc 7e 9a b3 ba 62 38 e6 3c b0 15 e0 bc
       -0.023051692 -0.0013702658 0.028103057 -0.027354091
000100 ea 17 3e bd d1 c1 f5 bc f5 a8 43 3c ff 49 fb 3c
       -0.046409525 -0.029999645 0.011942138 0.030674933
000110 f5 a3 ee bc c6 a8 d8 bc 7d c0 a6 bc 6f 9f 38 ba
       -0.029130915 -0.026447665 -0.020355457 -0.00070428004
000120 be 2c 1a 3d f2 e1 9e 3c 50 b5 c1 3c c7 28 bd bb
       0.037640326 0.019394848 0.023646027 -0.0057726833
000130 7a d6 05 bd 87 48 fa 3c 70 28 08 3d 3a e5 37 bd
       -0.032675244 0.030552162 0.03324169 -0.04489634
000140 7b f4 27 bd 55 d9 e2 bc ea c8 b3 ba b2 2f f4 3c
       -0.04100464 -0.027691523 -0.0013716493 0.0298079
000150 29 4e 2d 3c 1e eb 07 3d b9 f2 29 bd 79 a8 7a bc
       0.010577717 0.03318321 -0.041491244 -0.015298956
000160 7d f3 f4 bc 49 3d 16 3d 1e 50 16 bd ad 3e bb 3c
       -0.02990126 0.03667954 -0.0366975 0.022857035
000170 44 aa c0 bc 61 7d 31 bd 83 c6 23 bd f4 58 3f bd
       -0.023518689 -0.04333246 -0.039984237 -0.04671569
000180 02 fd 0a bd f6 d0 14 3c 23 d0 e5 3a 35 c3 06 bd
       -0.033932693 0.009083023 0.0017533343 -0.032901008
000190 ca 3f 97 3c c9 64 cb bc 60 06 97 bb 36 62 0c 3d
       0.018463034 -0.024828332 -0.0046089143 0.03427335
0001a0 64 d0 93 3c 57 31 f4 bc 75 64 db bb e9 e4 c3 3c
       0.018043704 -0.029808683 -0.006695325 0.023912864
0001b0 84 c4 ac 3b 08 9d 35 bc d8 57 d7 bc 5c 6c 40 bd
       0.00527245 -0.011084802 -0.026287004 -0.04697834
0001c0 b8 5b 1c bd cd 05 80 bb 13 08 67 3c c0 53 f7 bc
       -0.038173407 -0.0039069415 0.014101046 -0.030191302
0001d0 01 2b 9c bc f0 b5 0d bd cd b0 48 bc d2 9c 48 3c
       -0.019063475 -0.034597337 -0.012249184 0.01224442
0001e0 33 ab 9d bb e5 36 2d bd d0 44 0d 3c 58 60 a9 bc
       -0.0048116683 -0.04228868 0.008622363 -0.020675823
0001f0 eb 2c 10 3d ed 4a 46 3c ff db 48 bd 1e a8 a8 3c
       0.035199087 0.012102825 -0.04903793 0.020587977
000200 83 7e 81 3c 34 fc 28 bd d0 8d 2e bd 90 36 3d 3c
       0.015807396 -0.041256145 -0.04261571 0.011548653
000210 38 f9 5a 3c 1d a0 99 ba 40 94 b8 3c 57 f6 fd 3c
       0.013365082 -0.0011720691 0.022531629 0.031001253
000220 bd 81 00 bc e1 03 c3 3c 53 b3 42 bd 84 05 df 3c
       -0.007843432 0.02380556 -0.0475343 0.02722431
000230 92 88 09 bd 34 37 a5 bc 23 02 4c 3c 7d de 05 bb
       -0.03357751 -0.020167924 0.012451681 -0.0020426803
000240 0c 3c 8b ba 73 27 9c bc 7f fb 9f 3c 60 9f f0 bc
       -0.0010622754 -0.01906178 0.019529102 -0.02937287
000250 c6 9c 0e bd d5 8b 15 bb f6 8b 3f bb 35 42 8a bb
       -0.03481748 -0.0022818942 -0.002922771 -0.0042193183
000260 ee 0f 5d 3c 49 d9 32 bd 5b a8 a2 bc 38 8d c1 3c
       0.013492567 -0.04366425 -0.019855669 0.023626909
000270 67 c2 a4 bc 6f e4 20 bd cf 65 08 bd 64 33 e6 3c
       -0.02011223 -0.03928035 -0.033300217 0.028100677
000280 7c 96 36 bd ac b3 40 bc a0 a5 e1 3c 9e bc 6a 3c
       -0.044577107 -0.011761587 0.027544796 0.014327196
000290 e6 91 3b bc 4a 3c 97 3c c7 c6 c1 bb 72 0b 9b 39
       -0.011448359 0.018461365 -0.0059135887 0.0002957243
0002a0 a3 02 2d bd b0 59 4f bd 15 73 41 bd ef 89 ca bb
       -0.042238843 -0.050622642 -0.04722889 -0.0061809937
0002b0 0b 75 f1 3c d9 82 46 3b bb ef 37 3c a7 5d d7 3b
       0.029474756 0.0030290394 0.01122659 0.0065724435
0002c0 bf 2c 97 3b 18 e1 b0 3c 72 c8 ec bb 0c d1 ae bc
       0.0046134884 0.021591708 -0.0072260434 -0.021339916
0002d0 98 ad e2 bb a4 5b 05 bd a4 51 02 3d 8e bc eb bc
       -0.0069176666 -0.0325581 0.03181614 -0.028776433
0002e0 0b bd 24 bd c3 50 5d bb 75 b4 01 bc 8a 7f 48 bd
       -0.040219348 -0.0033770062 -0.007916559 -0.048949756
0002f0 01 67 25 bd 37 57 32 bd 91 8c 0b bd a4 23 68 3c
       -0.040381435 -0.043540206 -0.0340696 0.014168654
000300 0d 92 21 bd 43 59 68 bc 46 58 53 bd 6d a1 73 bc
       -0.039445926 -0.014181438 -0.051597856 -0.01487003
000310 77 68 b8 bc 75 f1 49 bc 89 63 d0 3c b0 e7 f2 3c
       -0.02251075 -0.012325634 0.025438087 0.029651493
000320 d7 7b 49 bd a3 fa f6 bc df 3b ed bc 4d 68 a6 3b
       -0.04919037 -0.03014881 -0.028959213 0.0050783516
000330 27 90 00 bc 76 c6 df 3c 53 7a d8 3c 64 e7 ef bc
       -0.007846869 0.027316313 0.026425516 -0.02928514
000340 18 4d 1c bd e2 b3 ee b9 5f 59 fb bc 81 f1 4d 3c
       -0.03815946 -0.0004552892 -0.030682264 0.012569786
000350 4e 58 16 bc 97 4d 63 bc ee eb 03 3d 95 58 9e 3c
       -0.009176327 -0.013873479 0.032207422 0.019329349
000360 02 9d 89 bb 1a 78 e3 3c 79 38 a2 ba 0c a5 71 3b
       -0.004199625 0.02776723 -0.0012376449 0.0036872057
000370 2f 43 15 bc 82 80 fb bc 1e 87 4c 3b 30 e3 82 bb
       -0.009110256 -0.030700926 0.0031208466 -0.003994368
000380 a5 e4 f1 bc 14 41 7a bb f6 52 d0 bc 24 53 90 bb
       -0.029527972 -0.0038185762 -0.025430184 -0.0044044424
000390 c6 76 06 bd e7 6d c2 3c 91 8a b6 3c b2 51 b3 ba
       -0.032828115 0.023734046 0.02228287 -0.0013680963
0003a0 90 c3 81 bb 4c 37 df 3b 27 18 88 3c 8b 0e df bc
       -0.0039600804 0.006812012 0.01661308 -0.027228614
0003b0 5c 49 cb 3c 96 df 25 bd 75 77 80 bc d9 bb f4 bc
       0.024815254 -0.04049643 -0.015681962 -0.029874729
0003c0 c1 44 0c bc 9a 60 62 bc d1 63 3c bd 8c e4 00 3c
       -0.008561314 -0.013816977 -0.04599363 0.00786699
0003d0 a3 35 92 bc 65 4d e6 3c 32 42 35 bd 24 5d 2a 3c
       -0.017847842 0.028113076 -0.044252582 0.010398183
0003e0 2e 82 a8 bc 15 5c f4 3c 6a 42 89 ba c0 60 a9 3c
       -0.020569887 0.029829064 -0.0010472063 0.020676017
0003f0 04 1f 68 bb 05 ed 44 3c 01 b4 f6 bc f5 3f a4 3b
       -0.0035418877 0.0120194005 -0.03011513 0.005012507

fc_layers.4.bias f4 [128]
000000 ec 9b f8 3c 26 55 2f bc c7 c5 11 bd 57 9a f5 3a
       0.030347787 -0.010701453 -0.035589006 0.0018738013
000010 6e 7a 22 3d 89 ad a6 bb ed bf 49 bd b5 09 81 bd
       0.03966754 -0.005086605 -0.0492553 -0.063006796
000020 43 30 8f 3c 1f 14 19 3d 54 50 1f 3d 86 f9 8d 3d
       0.017479068 0.037372705 0.038894966 0.069323584
000030 16 04 ac 3c 95 59 aa bb da 72 8b 3c 3b 98 b9 bb
       0.020998042 -0.0051986673 0.017022539 -0.0056638992
000040 d8 c6 8d ba 96 c3 59 3d 48 cd 1b 3c b3 17 2b 3d
       -0.0010816706 0.05316504 0.009509392 0.04177065
000050 b9 19 1a 3d 3c a1 6a bc c0 fa 2f 3d c6 4d 82 bc
       0.037622187 -0.014320668 0.042963743 -0.015906226
000060 39 0a 66 3d 8f 41 2d bc cf 64 60 bd 68 39 06 bd
       0.056162093 -0.010574712 -0.05478364 -0.03276959
000070 75 a2 4b bc 1b 41 87 3d 0f 41 7a bc ae c1 0e 3d
       -0.0124288695 0.06604215 -0.0152743 0.034852676
000080 74 9e 6d 3b 68 8d 66 3d a8 7f d5 3c 7d c9 f4 bc
       0.0036257776 0.0562872 0.026061848 -0.029881233
000090 e8 5a 90 3c e4 c5 0b bd af 76 75 bd 0c cd 2c 3d
       0.017621472 -0.03412427 -0.05992764 0.042187735
0000a0 5b 7f 01 3d ea db 1f 3d a9 6b 82 3c 91 c8 38 3d
       0.031615596 0.039028086 0.015920477 0.04511315
0000b0 02 c1 35 3a b9 d1 55 bd 92 57 bc bb 8c a0 90 3d
       0.00069333625 -0.05220196 -0.005747744 0.07061872
0000c0 02 b7 aa bc 52 9b 6d 3c ab bf 63 bb e3 45 11 3d
       -0.020839218 0.014502363 -0.0034751694 0.03546704
0000d0 5f db b9 3c 94 db 53 3c ee 72 04 3d 4d 1b 8f 3d
       0.022687612 0.0129307695 0.032336168 0.06987629
0000e0 5e 96 1d 3d a8 55 35 3d 0f 63 65 3d 8c 8f 70 bc
       0.03847348 0.04427114 0.056002673 -0.014682662
0000f0 9f ca 02 bb 16 d9 60 3d 24 a7 52 3d 30 5b 93 3d
       -0.0019957197 0.05489453 0.05142893 0.07195127
000100 c9 53 1b 3c f4 74 92 bd 05 85 90 bc ba 3a fa 3c
       0.009480425 -0.07151213 -0.017641554 0.030545581
000110 86 63 6c bd f6 a5 fb bb 21 dc 3b 3b 25 2b 88 bc
       -0.0577121 -0.007679696 0.0028665143 -0.016622135
000120 f7 8a 0c 3d bc 36 4b 3c b4 4c 89 bc 5e b9 50 3d
       0.034312215 0.012403186 -0.016760208 0.05095803
000130 f4 32 08 bd 50 0b 00 bd 4c 69 90 3c 05 57 0d 3d
       -0.033251718 -0.03126079 0.017628334 0.034506816
000140 ab cc 34 3d a6 f0 1c 3d e9 b2 f5 bc 7c 7b 80 3c
       0.0441405 0.038315438 -0.029992538 0.015683882
000150 c0 b4 02 3c d7 9a 8a 3c c3 a7 1f bd cd f9 f0 bc
       0.0079776645 0.016919537 -0.03897835 -0.02941599
000160 8e c2 0a ba 43 a4 fd bc 6c 63 73 bd 9d ac 7d 3c
       -0.0005293273 -0.030962115 -0.059420988 0.015483049
000170 22 cb a3 bc fd e1 d5 bc 5a 2e 47 3c 76 06 ff 3b
       -0.019994322 -0.026108736 0.012157047 0.0077827526
000180 d6 2d ae 3c 5e ea 98 bc 04 bb 7e bd e1 e1 85 3b
       0.02126209 -0.018666442 -0.06219007 0.0040857648
000190 7d 4c ca 3b 82 19 c6 3c 5d ed 37 3d 3a bd 30 3d
       0.006173669 0.024182085 0.0449041 0.04314921
0001a0 e2 2b cf bc d2 0d 78 bc b7 ee 29 bd 26 fd 84 3c
       -0.02528948 -0.015140014 -0.04148742 0.016233992
0001b0 4d f8 57 3c 7c bf 8c 3d 5f 78 08 3c 22 3e 69 3c
       0.013181758 0.0687246 0.00832948 0.014236005
0001c0 94 da 85 3c 67 67 cf bc 10 94 4f 3d 29 c7 aa 3c
       0.016339578 -0.02531786 0.050678313 0.02084692
0001d0 dd b9 7c 3c 1a 26 71 3c 04 0d de 3c 4d 03 88 bd
       0.015425173 0.014718557 0.027105816 -0.066412546
0001e0 2d 85 2e bd 15 1b 08 3d d6 a3 30 3d 43 15 58 3b
       -0.042607475 0.033228952 0.043124996 0.0032971657
0001f0 71 7c 60 bd b7 a8 9f bb 7e a9 2c bd 96 d9 74 bd
       -0.054806177 -0.0048724073 -0.042153828 -0.05977782

classification_layer.weight f4 [1, 128]
000000 dc 08 84 3c e8 2f 34 3e a6 ea 40 3d 70 37 07 3e
       0.016117506 0.175964 0.04709878 0.13204741
000010 34 43 db 3d 29 2d c6 3d a0 ac 58 bd 15 a3 dc bd
       0.10706177 0.09676582 -0.052899003 -0.10773293
000020 64 f5 1e 3d 97 e8 8e 3d 23 bc 05 3e df cb 1c 3e
       0.03880824 0.06977957 0.1306005 0.15312146
000030 62 eb d5 3d 00 fc 49 bd 67 0b 93 bd 75 fe 98 bd
       0.10445286 -0.04931259 -0.07179909 -0.07470409
000040 a3 c2 c3 bd ed 21 b9 3d e1 25 38 bd 83 2f 21 bd
       -0.095586084 0.09039674 -0.044958 -0.03935195
000050 71 f4 bc 3d 44 a2 d7 bc 98 94 ef 3d c0 54 1f bd
       0.09226311 -0.026322491 0.11698264 -0.038899183
000060 f5 c8 07 3e 74 31 1f 3e 5f e4 33 be f3 5b 3f 3e
       0.13260253 0.15546209 -0.17567585 0.1868742
000070 25 dd 0d 3e 15 1d ff 3d 12 2a 0b 3e cb a0 16 3e
       0.13853891 0.12456719 0.13590267 0.14709775
000080 5b 5a 29 3e 26 ad 20 3e de 83 1e 3e a7 7a 7b bd
       0.16538374 0.15691051 0.15479991 -0.061396267
000090 9c 7c 8b 3d d2 6e 28 3e 6f 65 09 be 41 21 4e 3e
       0.06810877 0.16448525 -0.134176 0.20129873
0000a0 af 33 07 3e 45 3c 9c 3d 7b e3 80 bd 04 b4 23 3e
       0.1320331 0.07628683 -0.062933885 0.1598664
0000b0 db 93 8c bd 4c e9 6a bd 93 a8 84 3d 17 02 f2 3d
       -0.06864139 -0.057351395 0.064774655 0.11816805
0000c0 40 d1 c7 bd 4c 4f 0e 3e f8 1f 28 3e c8 22 06 3e
       -0.09756708 0.13897437 0.16418445 0.13099205
0000d0 20 d5 be 3d ea d6 da bd 21 74 f6 bd 65 3c 25 3e
       0.09317994 -0.10685523 -0.120338686 0.1613632
0000e0 6f 72 08 3e 2a f3 5a 3e 94 9b 11 3e a3 a2 08 be
       0.13324903 0.21381822 0.14219505 -0.13343291
0000f0 bc f5 7e bd cc 74 ea 3d 98 dd 21 3e c0 95 db 3d
       -0.06224607 0.114480585 0.15807188 0.10721922
000100 2b df 99 bd 76 a2 02 be 13 df df be aa bb e0 bd
       -0.07513269 -0.12757286 -0.4372488 -0.10973294
000110 41 96 c5 bd 49 9f 2b 3e fb 60 1a be 1e 7d 96 bd
       -0.09647799 0.16759981 -0.15076058 -0.07348083
000120 ea e0 1d 3e b9 ed 2a 3e 1d c0 cd bd bf 00 f7 3d
       0.15417829 0.16692246 -0.10046408 0.12060689
000130 e7 26 04 3e 20 ee 3a be 1a ca 7d bd fc 96 8f 3d
       0.12905465 -0.182549 -0.061960317 0.0701122
000140 ac 8f 19 3e 57 ea 66 3e eb b6 f9 3d 1a 8c e0 bd
       0.14996213 0.22550331 0.12193092 -0.10964222
000150 29 40 a2 3d e9 ec 01 3e e8 d8 7a bd 82 06 01 be
       0.07922394 0.1268803 -0.061242014 -0.12600139
000160 83 49 a0 bd b7 0e 5f be 37 0b c7 bd 00 aa 2a 3e
       -0.07826521 -0.21782957 -0.09718936 0.16666412
000170 84 93 2e bd 49 4a 4b bd eb 0c 17 be 7c 70 00 be
       -0.04262115 -0.04963139 -0.14751022 -0.1254291
000180 52 32 90 3d 5e 53 40 3e c5 c4 89 bd 86 10 25 bd
       0.07040848 0.18781802 -0.06726984 -0.04029896
000190 ed ba 93 bd 33 b0 80 be ab 57 55 3e dd 9f 88 3d
       -0.07213388 -0.2513443 0.20834224 0.066711165
0001a0 f2 c2 08 be 46 f8 a0 bd 2f 3f 30 bd 96 76 cd bd
       -0.13355616 -0.078598544 -0.043029007 -0.10032384
0001b0 c5 15 ed 3d 09 a2 d6 3d f9 40 e5 bd 20 27 15 bd
       0.11576418 0.104801245 -0.11194033 -0.036414266
0001c0 85 55 a0 bd 10 e6 b5 bd 53 06 28 3e 4e 0c b6 bd
       -0.078288116 -0.088817716 0.16408662 -0.08889066
0001d0 47 ad cf 3d 6c 91 07 bd 74 97 a2 bd 26 9f 28 be
       0.10140472 -0.03309767 -0.07939044 -0.1646696
0001e0 38 19 ef bd b9 eb ca 3d d1 d0 21 3e a9 50 88 3d
       -0.11674732 0.09908242 0.15802313 0.0665601
0001f0 fa 9d 48 bd 60 7c 1f 3e 76 02 f8 bd 05 52 26 bc
       -0.048978783 0.15574789 -0.121098444 -0.010151391
