weights/old/one_piece_22_10.pth (torch, 929176 bytes, 7 tensors)

fc_layers.0.weight f4 [256, 132]
000000 b8 72 a0 3c 7b b6 4f bc 33 1a 8a 3d 07 0c 5e bd
       0.019585952 -0.012677784 0.06743278 -0.05421069
000010 ee bb 0a 3d 95 89 b7 bd 98 06 7d 3d 16 5b 75 bd
       0.03387063 -0.089617886 0.061773866 -0.05990132
000020 d5 7d b4 3d 00 f2 26 bd da f7 7d 3d c1 9b 43 3d
       0.08813063 -0.040758133 0.062003948 0.04775596
000030 ac bd 83 3d a1 c2 89 bd 46 75 a5 3d 43 8c 2a 3d
       0.064326614 -0.06726576 0.08079009 0.04163767
000040 f0 5b bc 3d 38 05 7e 3d 81 fd 7e 3d d7 66 3d bd
       0.09197223 0.062016696 0.06225348 -0.046240654
000050 79 df 8f 3d 28 46 1b 3d 86 32 f5 3d a2 97 51 3d
       0.07025046 0.037908703 0.11972527 0.05117
000060 ad c3 8e 3d 19 91 c0 bd 4d e5 0c 3e d8 3c a7 39
       0.06970916 -0.09402675 0.13759346 0.00031898054
000070 5e da ac 3d cb c6 9c 3d 73 6d 02 3e c3 f9 85 bd
       0.08440088 0.07655104 0.12737064 -0.06541779
000080 05 fb a4 3d 94 1b 98 3d 71 08 2f 3d d5 a7 96 3b
       0.08055691 0.07427135 0.04273266 0.004597644
000090 35 d8 b1 3c d2 f9 45 bd 57 24 f3 3d de b4 3c 3d
       0.02170954 -0.04833395 0.11872166 0.046070926
0000a0 22 b1 8e 3d 26 84 a0 bb 2a 7e 62 3d a6 5d 84 bd
       0.06967379 -0.004898566 0.0552961 -0.064631745
0000b0 45 5f 8b 3d 86 b8 51 bc 44 d7 91 3d 5a b4 4a bd
       0.068052806 -0.0128003415 0.07121137 -0.049488403
0000c0 3f fd d1 3d a9 04 d5 bd bd 02 b5 3d 49 73 48 bd
       0.10253381 -0.104012795 0.08838413 -0.04893807
0000d0 62 4a f9 3d ae 05 de 3b 03 f5 d5 3d fe 21 6a bd
       0.121723905 0.0067755794 0.10447123 -0.057161324
0000e0 4d 81 85 3a a3 ad 84 bc a5 55 db 3d b4 33 5d bd
       0.0010185629 -0.016196078 0.10709695 -0.054004386
0000f0 e6 20 10 3e fd a2 48 bd f4 d6 26 3d 26 26 8a bc
       0.1407505 -0.048983563 0.04073234 -0.016863894
000100 24 f7 04 3e 18 35 c8 bc 34 19 c3 3d 70 82 7a 3d
       0.12984902 -0.02443938 0.095262915 0.06115955
000110 6b a6 8b 3d 18 bc 71 bd a6 b7 cb 3d 6c 43 50 3c
       0.06818851 -0.05901727 0.099471375 0.012711387
000120 42 75 8a 3c 6d 88 c9 3b 16 5f a6 3d 18 8d 54 bd
       0.016901616 0.0061502964 0.08123605 -0.05189237
000130 24 1d b0 3d 6f c3 4c 3d 92 6e bd 3d 98 ee 3e 3d
       0.08599308 0.049991067 0.09249605 0.04661426
000140 ba 69 f7 3d 93 d4 42 3d 27 82 d3 3d 23 90 67 bd
       0.120807126 0.047566008 0.10327559 -0.056533944
000150 2d e8 e4 3d 71 61 67 3d 72 9c 70 3d c1 7b eb 3c
       0.111770965 0.05648941 0.058742948 0.028745534
000160 b9 fe 2f 3d 77 16 6f 3d 73 4e 15 3e e8 dc 5f bc
       0.04296753 0.058371034 0.14580707 -0.013663508
000170 dc 50 24 3e 11 5f 24 bd 74 19 0d 3e 60 ba 25 bd
       0.1604647 -0.040129725 0.13779241 -0.040460944
000180 3f db 41 3d 39 36 98 3d 13 c8 41 3d 59 cf ad 3d
       0.04732823 0.07432217 0.047309946 0.08486814
000190 fa 90 07 3e 7e d9 56 bd ff 05 d0 3d 1c 04 63 3c
       0.13238898 -0.05245351 0.10157394 0.01385596
0001a0 98 e2 33 3d 2c d8 54 bd 66 45 cd 3c 18 65 28 bd
       0.04391727 -0.05196397 0.025057506 -0.041112036
0001b0 84 83 18 3d 73 84 cf 3c 87 ac 60 3d 92 8b 43 bd
       0.037234798 0.025331711 0.054852035 -0.047740526
0001c0 94 39 10 3e 86 04 8d bd c7 0b b1 3c 2a 63 24 bd
       0.14084464 -0.068856284 0.021612061 -0.040133633
0001d0 4d cd e7 3a ba f9 a8 bd 5e f7 58 3c c8 65 7a 3d
       0.0017685086 -0.082507566 0.013242571 0.061132222
0001e0 50 27 88 3d f2 74 19 bc 9e 96 82 3d 99 bf 9f 3b
       0.06648123 -0.009366261 0.06376384 0.004875135
0001f0 63 a9 73 3d 8e b6 32 3d b0 df 9a 3d 36 69 48 bd
       0.05948771 0.04363113 0.07562196 -0.048928462
000200 25 2c ab 3c f5 1e 81 3d 10 89 93 3d 89 27 0e 3c
       0.020895073 0.06304733 0.07203877 0.008676418
000210 b0 47 96 3b b1 cb 4f 3c 20 8a a3 3d f7 7c 08 3b
       0.0045861825 0.012682841 0.0798533 0.0020826438
000220 57 72 fa 3d 98 6c a4 3c cc 2e 26 3e 4d 81 57 bd
       0.1222884 0.020071313 0.16228789 -0.052613545
000230 46 a2 4c 3d 81 34 61 3d 71 5a 87 3d 94 9f bf bc
       0.049959444 0.054981712 0.06609047 -0.023391522
000240 f9 c5 d7 3d 48 05 a3 bc 06 f9 18 3e 1b 29 0b bd
       0.10535807 -0.01989998 0.14938745 -0.033974748
000250 26 02 9a 3c 3a 7c ec 3c 10 30 ee 3d 56 fe e6 3a
       0.018799853 0.02886783 0.11630261 0.0017623405
000260 25 9a 6a 3d 96 99 68 3c e4 69 0d 3e 22 7e d8 3c
       0.05727591 0.014196774 0.13809925 0.026427332
000270 96 0f 83 3d 38 89 85 3d d6 07 fa bc 96 d3 85 bd
       0.06399457 0.06520313 -0.030521315 -0.065344974
000280 22 92 05 3e e2 d9 27 ba 06 6c fb 3d c5 2e 89 3d
       0.13044026 -0.00064030115 0.12276463 0.06698374
000290 b1 97 b4 3a 3e 63 8e bd c8 cd e2 3d 90 44 20 bc
       0.0013778118 -0.06952523 0.11074406 -0.009781972
0002a0 bf 60 4c 3d ae f1 96 bd c9 9f 8f 3d 18 4e b2 3b
       0.04989695 -0.073703155 0.070128985 0.0054414384
0002b0 e5 3d 1d bb c0 44 e3 bd 45 fd d4 3d ab 6c 62 3d
       -0.002399319 -0.110970974 0.1039987 0.055279415
0002c0 76 aa 95 3c 19 0d aa bd 35 cf 14 3c f6 5e 65 bd
       0.018269759 -0.083032794 0.009082605 -0.055998765
0002d0 98 68 0e 3d 25 57 01 3c b3 df 96 3b 8d a9 76 3d
       0.034767717 0.007894312 0.0046043037 0.06022029
0002e0 08 30 ec 3d 5d 94 a0 bd f6 55 0a 3e 31 de 7a 3d
       0.11532599 -0.07840798 0.13509354 0.061247054
0002f0 8e 4a 1d 3d c6 96 86 bc 0a 03 19 3d 71 26 87 bd
       0.03840118 -0.016429316 0.037356414 -0.06599129
000300 32 e0 8b 3d d7 6d 64 3b 18 bc f4 3d 5c 39 74 3d
       0.06829871 0.0034855509 0.119499385 0.059625015
000310 77 01 0b 3e bd c9 81 bd c4 3b cd ba fa 23 a0 3c
       0.13574778 -0.06337307 -0.001565807 0.019548405
000320 7a ba c8 3d 45 2f 37 bd 9d 8c d4 3d da e0 5c bc
       0.098011926 -0.044722814 0.10378382 -0.013481343
000330 2e d4 a9 3d 66 d8 3d bd a8 ed 8e 3c 9b c1 68 bd
       0.08292423 -0.04634895 0.017447308 -0.05682526
000340 fc 81 e9 bc 25 87 13 bd 6d 84 0e 3e 95 20 f7 3c
       -0.028504364 -0.036017556 0.13917704 0.030166904
000350 00 76 02 3d 4c 40 80 3d c7 99 8f 3d 75 6a c5 3c
       0.031850815 0.06262264 0.070117526 0.024098614
000360 60 11 5b 3d af ec a8 bc 7c a8 22 3c 44 90 5f 3d
       0.053483367 -0.020620672 0.009927865 0.05458094
000370 fe 50 66 bb 8f 19 8c bd 4e 7e 76 3d fc 62 7a 3c
       -0.003514349 -0.068408124 0.060179047 0.015282389
000380 00 36 f7 3d 40 c7 47 bd db be 10 3d 83 6e 97 3d
       0.120708466 -0.048774004 0.035338264 0.07394125
000390 05 f8 1b bc b5 9d 84 3c e6 e2 81 3d 8b ae 71 3d
       -0.009519582 0.016188482 0.063421056 0.059004348
0003a0 e6 36 53 3d aa a6 49 bd 39 3e d9 3c 3d 4b d6 bc
       0.051566027 -0.04923121 0.026518928 -0.026158923
0003b0 73 0a f0 3d 49 af 8e 3d fc 6a 57 3c ae 70 22 3d
       0.11720743 0.06967027 0.013148066 0.03965824
0003c0 bd 06 49 3d e6 30 0c bd 05 a3 07 bc 54 87 91 bd
       0.04907869 -0.03422632 -0.008278613 -0.0710589
0003d0 c3 5b 91 3c ba 0c e0 bc db 29 13 3e ab 5d 18 3c
       0.01774395 -0.027349818 0.14371435 0.009299676
0003e0 90 24 15 3e 14 a5 7d bc 28 2c c9 3d 9c a1 78 3d
       0.14564729 -0.015481252 0.09822875 0.060700998
0003f0 fc c3 dd 3c f1 ea 51 3d 46 1b d2 3d 83 34 4b 3d
       0.027070992 0.05124945 0.10259108 0.049610626

fc_layers.0.bias f4 [256]
000000 57 b0 25 bd 9a b2 d9 bc 1a f2 ad 3d 6c da 94 bd
       -0.040451374 -0.026574422 0.08493443 -0.07268223
000010 ce 38 98 bd 8c fb 8e 3c 17 c2 cc 3c 39 7c 8c 3d
       -0.0743271 0.017453931 0.024994893 0.06859631
000020 c6 8c ce 3c 03 bd 79 bd 35 86 6a bd 77 32 64 3d
       0.02521361 -0.06097127 -0.057256896 0.05571219
000030 4d d6 05 bd 09 0a 8b bd e2 05 9b bd d7 18 02 bd
       -0.032675076 -0.067890234 -0.075694814 -0.03176197
000040 0a 1f a2 3d f4 0d c8 bc f6 15 4b bd d0 c0 a3 3d
       0.079160765 -0.024420716 -0.04958149 0.079957604
000050 40 cd af bc 0e 32 93 3d 9d 7a ae bc 3f 9e 90 bb
       -0.021460176 0.071872815 -0.021298701 -0.0044133957
000060 70 d7 9d 3c 69 67 cb bc a7 12 c8 bc c5 31 72 3d
       0.019267768 -0.024829583 -0.024422957 0.059129495
000070 b1 1d 64 bd 16 91 9e 3d c6 64 89 bc d8 ed 1f bd
       -0.05569238 0.07742517 -0.016771685 -0.039045185
000080 08 30 86 3d 61 b7 71 bc 80 d7 57 3d 51 66 23 bd
       0.0655213 -0.014753194 0.05269575 -0.0398925
000090 f1 00 c1 3b 09 c9 32 bd 85 74 0c ba 99 22 3e 3d
       0.005890005 -0.043648753 -0.0005357939 0.046419714
0000a0 62 5d 69 bd 76 05 f9 bb af bf 01 bd a9 f5 68 3d
       -0.056973822 -0.007599528 -0.031676944 0.056874905
0000b0 ee c3 31 bd 32 66 1b bd 6b 5a 76 bc 5a 5e 4d bd
       -0.043399744 -0.037939258 -0.015036206 -0.05013881
0000c0 ed 8d 47 3d fb 85 0a 3c d6 4d 82 bc 21 c3 0d bc
       0.048719335 0.008454795 -0.015906256 -0.008652479
0000d0 c4 31 5b 3d 22 31 f2 bb 44 02 e6 bc c6 46 70 bd
       0.053514257 -0.007391111 -0.028077252 -0.058661245
0000e0 dc 1d 80 3d 0b bf 85 3d 82 24 cb 3d d9 1f 45 3b
       0.06255695 0.06530579 0.09919073 0.0030078797
0000f0 f5 8f 72 bd ab 8f 68 bd 60 e4 96 bd b9 bc ab bd
       -0.05921932 -0.056777637 -0.07367778 -0.08385605
000100 2f 5c ae bd 6e 92 a5 3d 83 20 7f bd f0 48 55 3d
       -0.085136764 0.0808457 -0.062286865 0.05207151
000110 49 77 80 3c 21 b1 9a 3d a0 05 31 3c 9f 8c 49 3c
       0.01568188 0.07553316 0.010804564 0.012301593
000120 25 61 6e bb d9 5c a3 bd f8 52 68 bd 5e 47 7a 3d
       -0.003637382 -0.07976694 -0.05671975 0.061103217
000130 f2 b4 7e 3c 4d ef 64 3d a9 ed 7b bd 4d 3b 88 3d
       0.01554607 0.055892278 -0.061505947 0.06651936
000140 61 10 5f 3d 57 5e 64 3d 0a 98 53 3d d4 ea 1b bd
       0.05445898 0.055754032 0.051658668 -0.038065746
000150 f2 2d df 3b 92 f4 da bd fd fb 25 bd aa f0 23 3d
       0.006810897 -0.10691179 -0.040523518 0.040024437
000160 bb fb 67 3d d1 03 ff bc 85 8d e9 bc be 01 d1 3c
       0.056636553 -0.03112975 -0.028509865 0.025513526
000170 04 55 8f bc e0 65 e4 3c 2d 17 99 bc 8a 44 cb 3d
       -0.017496593 0.027880609 -0.018687809 0.09925182
000180 f1 07 89 bd bc 5a a9 bc 71 e6 be 3d 1f 25 88 3c
       -0.06690968 -0.020673148 0.09321297 0.016619263
000190 0b e2 cb bc 8e b0 54 3d 25 4c 34 3d 69 72 30 bd
       -0.02488806 0.05192619 0.04401793 -0.04307786
0001a0 11 67 6c bd a7 0c 08 bc 59 d3 49 bd 7a 3e 40 3d
       -0.05771548 -0.008303798 -0.049273822 0.046934582
0001b0 8e b9 cc 3c 9f b7 6d 3d e3 e2 73 bd c8 4e 13 3c
       0.024990823 0.058036443 -0.059542548 0.008990951
0001c0 68 eb 4f bd 53 ad 71 bc 1c 1a a6 3d 0e ea 89 3c
       -0.05076161 -0.014750796 0.08110449 0.016835239
0001d0 65 5e 9f 3b 51 f2 17 bd 9f c2 a5 bd d1 07 a9 3d
       0.0048635476 -0.037096325 -0.08093762 0.08253444
0001e0 eb 97 98 3d d7 45 a2 bd 65 14 0b 3d 86 2c fa 3b
       0.07450851 -0.07923477 0.033954997 0.007634702
0001f0 a5 57 b2 3c b5 58 ad 3d 1e 49 69 3d ac b8 4c 3d
       0.021770308 0.08464185 0.056954496 0.049980804
000200 43 7f 98 bc d9 4e 86 bd eb e5 dd 3d 04 03 ca bc
       -0.01861537 -0.06558008 0.10834869 -0.024659641
000210 67 a1 5a 3c 22 c3 a4 3c bf 92 69 ba d5 a6 86 3d
       0.013344145 0.020112578 -0.00089101115 0.065747894
000220 a3 7d 82 3d 81 c0 a8 3d e0 ae aa 3d 73 77 0a 3a
       0.063716196 0.08239842 0.08334136 0.00052820815
000230 6b c1 dc 3d bf 10 cb bc 99 64 f0 3c db ea e2 bc
       0.10779079 -0.024788259 0.029344844 -0.027699878
000240 d4 12 0c 3d ff 08 41 3c 7a 85 69 bd 9a b2 35 bd
       0.034197643 0.01178193 -0.05701206 -0.04435978
000250 6b 5a c5 bd 36 2a 52 bd 06 80 3e bd 40 dc 6b bd
       -0.096363865 -0.051309787 -0.04650881 -0.057583094
000260 b0 be bb bc 75 95 e5 3c 4f 6a 07 bc 16 76 db 3d
       -0.022918075 0.028025368 -0.008265092 0.107158825
000270 43 3b 6b bd e4 d9 a5 3d 4c 4b e4 3c 62 46 32 bd
       -0.057429563 0.080982 0.027867936 -0.043524154
000280 c2 1c 4b bd fa 39 ae bc 83 f7 2c bd 52 3c 18 bc
       -0.049587972 -0.02126788 -0.042228233 -0.009291725
000290 b0 49 73 bd d2 e7 1a bd b9 07 42 3d d5 55 51 bd
       -0.059396446 -0.037818737 0.047370646 -0.051107246
0002a0 78 be c1 3d 5e fe 9d bd d0 e7 45 3c 28 7a aa bd
       0.09460157 -0.07714532 0.012079194 -0.08324081
0002b0 eb 4e 74 3d 09 4d b2 bd 38 3c c4 3d a9 da 22 3d
       0.059645575 -0.087060995 0.09581798 0.03975931
0002c0 36 f7 b1 bd 1b 2c 87 bd c9 3d 8d 3d 42 77 83 bd
       -0.0868973 -0.06600209 0.0689655 -0.06419231
0002d0 32 22 32 3d b6 db c6 3d 47 05 a5 bd 7b ab 43 bc
       0.043489642 0.09709875 -0.08057647 -0.01194274
0002e0 7b 1d a3 bd c8 32 94 3c f9 33 6a 3d 51 4a cf 3d
       -0.07964607 0.01809062 0.05717847 0.101215966
0002f0 4c f5 72 bd 5e bd bf 3b b0 1c 77 3d c3 b4 86 bd
       -0.059315965 0.0058514317 0.060330093 -0.06577446
000300 2c 45 73 bd 5b 45 51 bd 4a bb 34 bd 4d 24 9e bd
       -0.05939214 -0.051091533 -0.044123925 -0.077217676
000310 91 56 62 3b 5a fa ad bc 91 43 99 bd f2 0c 9c bd
       0.003453646 -0.021237541 -0.074835904 -0.076196566
000320 c5 83 8d 3d c3 e5 69 bd 9c 58 0f bb 3e 51 50 3d
       0.06909899 -0.057103883 -0.0021872884 0.05085873
000330 1d 86 95 3c 2b b5 32 bd 3c 4e 8a 3c 14 38 26 3c
       0.018252427 -0.043629806 0.016883008 0.010145206
000340 15 19 c2 bb ac f4 d3 3c 65 e1 6c bc 21 35 9c bd
       -0.0059234 0.025873505 -0.014458035 -0.07627321
000350 78 a5 9a 3d 1f e8 8f 3d e5 e1 40 b9 fd 78 4f 3d
       0.07551092 0.070266955 -0.00018394699 0.050652493
000360 03 d6 28 bd 5b bc bc bd 76 2e 96 bd e0 e3 1e 3d
       -0.041219722 -0.092156135 -0.073330805 0.038791537
000370 a5 2f 80 bd 0a 08 11 bd 75 e5 81 3d a5 5d 7b ba
       -0.062590875 -0.035408057 0.063425936 -0.0009588844
000380 c9 ca db 39 a2 f6 b5 3c 23 80 eb bb cf 5c 6a 3c
       0.00041922022 0.02221233 -0.007186906 0.014304354
000390 e5 69 b9 3d 70 f7 22 bd 8d cb 95 3d 64 83 83 bd
       0.09053401 -0.039786756 0.07314215 -0.06421545
0003a0 02 38 89 3d 66 9b 1c bd fb c1 c8 bc a8 89 25 bd
       0.06700136 -0.038234137 -0.02450656 -0.040414482
0003b0 2b ac 3b 3d f2 8c a6 3d d7 8a 60 3b 74 37 03 3d
       0.04581849 0.08132352 0.0034262442 0.032035306
0003c0 9d 6e 96 ba 0c 3d 0f bd 20 e0 11 3d 61 6f cd 3b
       -0.0011477057 -0.03497033 0.035614133 0.006269381
0003d0 86 14 1e bc 9d 89 7f 3d dd a0 3a 3c db 93 ed 3c
       -0.009648448 0.062387098 0.011390892 0.029001167
0003e0 19 c2 8c 3d 4f 2b 71 bc ca d9 91 bd ae 82 a6 3d
       0.06872959 -0.014719798 -0.07121618 0.08130394
0003f0 7b 01 2d bd fc f6 d1 bc 2d 1b c3 3d 3e c0 0e bc
       -0.04223774 -0.025630467 0.09526668 -0.008712826

fc_layers.2.weight f4 [512, 256]
000000 af 90 3f bd 26 f1 4e bd 84 02 89 3d db 37 e8 3c
       -0.04676884 -0.050522946 0.06689933 0.028346946
000010 10 62 78 bd 9e 52 02 bc 39 46 2a 3d 3b 59 f2 3c
       -0.060640395 -0.007954268 0.041570876 0.029583564
000020 3a 8a 86 bc 80 de af 3a a3 21 f2 3c 31 ff ac bc
       -0.016423333 0.0013417751 0.029557055 -0.021117778
000030 e8 45 53 3d 84 92 88 3c 5f 51 b0 3c 5b 77 1e bd
       0.05158034 0.016671427 0.021523176 -0.038688045
000040 d0 b6 05 bd 12 ae 68 3c b0 35 41 3d 9c f1 75 3a
       -0.032645047 0.014201658 0.04717034 0.0009382011
000050 30 14 b6 bc 66 27 24 bc ed e8 5b 3d 9b 9f be bc
       -0.022226423 -0.010019159 0.053688932 -0.023269465
000060 f3 23 5b 3d 13 1d 27 bd 1c 8b 84 3d 2f 82 6c 3b
       0.05350108 -0.04079921 0.064718455 0.0036088338
000070 61 47 af 3c 59 f6 e8 bc 1b 60 10 3d d2 d0 ca 3c
       0.02139634 -0.02843778 0.035247903 0.024757776
000080 aa f1 a1 bc 4f 88 3e 3b 0c b3 e8 bc 04 fd 3d 3d
       -0.019768555 0.0029072945 -0.028405689 0.046383873
000090 ed a8 d8 3c 9b 09 1c b9 c7 dc ed 3a c1 14 0c 3d
       0.026447738 -0.00014880898 0.0018147462 0.03419948
0000a0 78 38 c4 3c e5 7c 5e bc 8a 28 8f 3b a0 fc 8f 3d
       0.023952708 -0.013579582 0.0043688463 0.07030606
0000b0 5a fa 3c bd d3 8d 9d 3c ad 56 d7 bb 68 98 25 3c
       -0.04613719 0.019232666 -0.006571612 0.010107137
0000c0 90 08 84 bd 20 7c 2b 3d ab 99 37 bd 31 9a 9e bb
       -0.06446946 0.04186642 -0.044824284 -0.0048401584
0000d0 6e 6e 26 3d 97 24 65 3c f7 4c 44 3d 03 5a 90 bd
       0.040632658 0.0139857745 0.047924962 -0.070484184
0000e0 a0 50 84 3d ed 5b 6d 3d a3 36 4a bd 80 43 50 3c
       0.064606905 0.057948995 -0.049368512 0.012711406
0000f0 40 ef 9d 3d 3d 53 61 bc 5b bc 2a bd d9 7c 3a bd
       0.07711649 -0.013752756 -0.041683536 -0.04552922
000100 df ad 8e 3d 90 1d a3 bb 2b e4 94 3d 06 98 26 3a
       0.06966757 -0.0049778894 0.07270082 0.0006355051
000110 2c 1b 73 3c 9b 23 f8 ba 0c aa 3e bd 75 ef 30 bc
       0.014838021 -0.001893151 -0.046548888 -0.0107992785
000120 14 54 1b bd 96 8b 79 3d a7 91 0a 3d 48 8a 58 bd
       -0.03792198 0.060924135 0.03383031 -0.05286625
000130 3f 7c 23 3d 20 28 90 bc 92 c3 01 bd 24 01 79 bd
       0.039913412 -0.017597258 -0.03168065 -0.060792103
000140 e6 05 4e 3d af be b5 bc 6f 7c 7c 3d ed 0a a9 3b
       0.050298594 -0.022185652 0.061642107 0.005158773
000150 e1 dd 32 3d 75 e7 75 3d fa e8 bd 3c 03 11 5a 3d
       0.04366863 0.060035188 0.023182381 0.05323888
000160 bf 93 60 3d f7 47 74 bd 88 5b 1d bc 88 68 d4 bc
       0.0548284 -0.059638944 -0.009604342 -0.02592875
000170 ce 49 08 bd 22 a4 21 bd 49 33 64 3d e9 56 16 3d
       -0.03327351 -0.03946317 0.05571297 0.036703978
000180 b2 0d 6a 3c 92 40 d0 bc 04 51 dd bc 09 13 3b 3b
       0.014285492 -0.025421415 -0.02701617 0.0028545281
000190 25 93 0b bd 9d d3 05 3d 64 ad c7 3c 7b bf c9 3c
       -0.034075875 0.032672513 0.024374671 0.024627438
0001a0 7d f5 6b 3d e1 c4 da 3c 7b 66 82 bd b3 23 ac bc
       0.057607163 0.026705207 -0.06367203 -0.021013116
0001b0 0d b3 64 3d 1e e3 38 3d 74 f5 11 3d 9d 5b 82 bb
       0.05583482 0.04513847 0.035634473 -0.0039782063
0001c0 17 07 18 3d 3d 96 56 bd 06 05 f6 bb ad 40 43 bd
       0.037116136 -0.052389372 -0.007507923 -0.0476691
0001d0 8b d3 3d 3d f5 7b a1 3c 77 99 33 bd db 66 45 3b
       0.04634432 0.019712428 -0.043847527 0.003012112
0001e0 c3 23 33 bd 11 96 0d 3d 2d 63 60 3d 55 bf 89 bd
       -0.043735277 0.034566943 0.05478208 -0.06725947
0001f0 3c 22 ef bc 95 d0 29 bc 1f ec 18 ba 95 22 8b 3d
       -0.029191129 -0.010364671 -0.00058335246 0.067937054
000200 26 45 58 3d 72 6c 2f bd b0 6a a9 3c 90 56 2b bd
       0.05280032 -0.04282803 0.020680755 -0.0418306
000210 3f 6b 46 3d 10 0c 4e 3d bb 3d 9c 38 8c 89 43 3d
       0.04844212 0.050304472 7.450158e-05 0.047738597
000220 00 55 60 bc 9d 70 e7 bc 66 5e 36 3d 0b a2 9b 3d
       -0.013692141 -0.02825194 0.04452362 0.075992666
000230 01 e0 bc bb 8c e8 7b bd 82 09 52 3d 04 6d a2 bc
       -0.005764008 -0.06150107 0.0512786 -0.019827373
000240 31 0a 7d 3c d4 05 9f 3c 92 fa 0a 3d fb 55 67 bc
       0.015444324 0.019411959 0.03393037 -0.01411962
000250 14 14 80 bc f3 73 94 bd 4e ee 4d 3d 1a 2d 98 3d
       -0.015634574 -0.07248678 0.050276093 0.074304774
000260 cb 82 11 bd e8 4c 94 bc 1c 59 b9 3a 71 19 94 3a
       -0.035525125 -0.018103078 0.0014140937 0.0011299086
000270 22 79 60 3d 11 ad 38 bd 43 bf 63 3d 4f 13 89 bc
       0.05480302 -0.045086924 0.055602323 -0.01673284
000280 fe 46 4f bd 7e bb b6 3c 44 76 af 3c 87 79 59 bd
       -0.050604813 0.0223062 0.021418698 -0.053094413
000290 32 41 57 bd 19 d4 7c bc 78 a4 18 3d 39 ac 76 bb
       -0.05255241 -0.015431427 0.037266225 -0.0037639274
0002a0 b9 77 88 bc c7 c2 6b bb 6e 8a fc 3c 45 f8 94 3d
       -0.01665865 -0.003597425 0.030827727 0.07273916
0002b0 18 b4 92 bd 2b dc 6b 3c 02 df d5 3c 44 28 2a bc
       -0.071632564 0.014395754 0.026107315 -0.010385577
0002c0 00 ac 6e bd 69 49 5a 3d 20 c2 37 bd 3a 97 8d bd
       -0.0582695 0.053292666 -0.044862866 -0.0691361
0002d0 b3 c2 c6 3c 16 03 22 bd 52 ff 34 3d cd 4d 4e 3d
       0.024262762 -0.039553724 0.044188805 0.050367165
0002e0 c7 42 11 3c 73 b5 fc 3c 2a 68 57 bd 5a 20 16 bd
       0.008866019 0.03084824 -0.052589573 -0.036651947
0002f0 37 9c 94 bd 88 eb 3f 3c 11 bb b3 3c 55 35 bf bc
       -0.07256358 0.01171387 0.021939786 -0.02334086
000300 d4 f3 a8 bb f2 12 9f 3c 50 24 06 3d fc 34 1a 3d
       -0.0051560197 0.019418214 0.032749474 0.037648186
000310 81 73 0e 3d 90 fe e1 bb cd 76 1b 3d f1 dd 67 bc
       0.03477812 -0.0068968013 0.037955094 -0.014152036
000320 97 87 9b bc 71 00 39 3d ed 04 8c bd 96 ef 33 bd
       -0.018985553 0.045166437 -0.06836877 -0.04392966
000330 62 af b2 bc 04 d4 b1 3c b9 bb 37 bd 05 dd f8 bc
       -0.021812145 0.021707542 -0.04485676 -0.030378828
000340 55 25 ff bc 73 3d dc 3c 97 59 33 bd 75 ae fa ba
       -0.031145731 0.02688477 -0.04378661 -0.0019125479
000350 35 47 62 3c 3a df 29 3d 84 39 a6 bc 3f 6d 7c bc
       0.013810922 0.04147265 -0.020291097 -0.015406906
000360 bc 3c 5c 3d 8c 3d 28 bd 23 04 47 bb 3d 62 4c 3d
       0.05376886 -0.04107432 -0.0030367456 0.049898375
000370 41 60 f7 bc 9f 36 3f 3d 7f 6a 60 3a dc 18 e3 3b
       -0.030197265 0.04668295 0.0008560791 0.0069304537
000380 df 6f 09 3c fb ad 80 3c 25 97 04 bd b5 63 3b 3c
       0.008388489 0.01570796 -0.032370705 0.011437346
000390 26 7a 96 bc f2 48 27 3d 46 48 12 bd 32 39 0b bd
       -0.018368792 0.04084105 -0.035713457 -0.033990093
0003a0 2d 6b 96 bc ef d8 a2 3d da f7 cf bc 82 49 82 bd
       -0.018361652 0.07951533 -0.02538674 -0.06361677
0003b0 31 cb b7 bb e2 2f 0c bd 53 52 7e bc aa 7b b1 bc
       -0.005608939 -0.034225352 -0.015522557 -0.021665413
0003c0 d2 4a f7 3c 28 1f 8c bc 2e 2c dd 3c 13 46 5b 3d
       0.030187044 -0.0171047 0.026998606 0.053533625
0003d0 b5 4f c2 bc 34 66 ef bb fe 55 a5 bc 5d 27 14 3d
       -0.023719648 -0.0073058847 -0.020182606 0.036170352
0003e0 18 68 5f 3c c2 70 a2 3b ac 27 57 bc 4e bb a7 bb
       0.013635658 0.0049572894 -0.013132017 -0.005118764
0003f0 0f 3a ac 3c 77 e4 c7 bc e8 00 0e 3d d0 0f 46 3d
       0.021023778 -0.024400933 0.034668833 0.048354924

fc_layers.2.bias f4 [512]
000000 5e 9f 56 3d 84 e9 46 3d 27 04 8d bd cf ea e1 bb
       0.05239808 0.04856254 -0.068855576 -0.0068944464
000010 bc 62 9f bc ba 5a 20 bc 83 7f ec bc ab 2b 14 bd
       -0.01945626 -0.009787256 -0.028869396 -0.036174458
000020 d4 d2 6a 3c 4e a9 84 bd cd ae a1 bd 90 15 61 bd
       0.014332492 -0.06477605 -0.07894669 -0.054952204
000030 3b 6c 31 bd 75 e8 4b 3d 24 63 89 bd 1d fb 04 3c
       -0.043316107 0.049782235 -0.06708363 0.008116511
000040 6a 00 a4 bc 9c df 3e 3b e0 34 09 3c 02 97 1a bd
       -0.020019729 0.002912498 0.008374423 -0.03774167
000050 85 33 7e 3d 8c 07 da bc 67 f1 18 3b 17 63 bf 3c
       0.06206085 -0.026614927 0.0023337246 0.02336268
000060 a4 e9 70 39 47 3a 64 bd c9 c5 75 bc a9 cd b8 bc
       0.00022975222 -0.05571964 -0.015000769 -0.022559004
000070 85 42 71 bd b1 26 a9 bc cc 66 15 bd 04 62 93 3c
       -0.05890133 -0.020648332 -0.036474988 0.017991073
000080 aa 4b ea 3b 18 3c 47 3d 38 65 85 3c 40 66 93 bd
       0.007150133 0.048641294 0.016283616 -0.07197237
000090 20 8a 7c 3b 4b 3f 27 bc ff 57 6e 3c f7 b0 2a 3d
       0.0038534477 -0.010207961 0.014547347 0.041672673
0000a0 e5 24 26 bd 2e c1 a9 bc 64 6b 41 3d b4 79 3d 3d
       -0.04056253 -0.020721998 0.047221556 0.046258643
0000b0 21 c7 87 bd f1 99 66 bc 15 00 fc ba 0c 92 08 bd
       -0.06629778 -0.014074788 -0.0019226099 -0.033342406
0000c0 3e af ab bd 1b f8 0e bd a1 d7 4e bd d3 a4 4a bd
       -0.08383034 -0.03490458 -0.05049861 -0.049473595
0000d0 22 94 70 bd 1b 6b d3 bc 58 32 cf bc 71 da 4e bd
       -0.05873502 -0.025807908 -0.02529256 -0.05050129
0000e0 b4 f5 d2 3c 50 3a 4f 3d 77 d9 97 bd 9f 41 1b 3d
       0.025751926 0.05059272 -0.07414525 0.037904378
0000f0 b3 34 34 bd bd 3f 8f bc 77 49 5e 3c 65 a8 6e 3c
       -0.04399557 -0.017486447 0.01356732 0.014566516
000100 5f 22 4a bc 1f 59 1d 3d 2c 50 08 bd 2f 1b 10 3d
       -0.012337296 0.03841507 -0.033279583 0.035182174
000110 bf bb fd bb f3 6c b8 bb ec ba 83 bd ad f0 63 3d
       -0.0077433283 -0.005628222 -0.06432137 0.05564945
000120 67 0d 48 bd 3f e5 68 3d de 4b 3f bc 4c d0 6a bc
       -0.048840906 0.05685925 -0.011675803 -0.014331888
000130 b5 f2 8c bd 0f 5b 52 bb 16 f1 15 3c 03 b7 f9 3c
       -0.0688223 -0.0032097732 0.009151718 0.030482775
000140 79 20 c6 bb b5 db 41 3b 95 15 f0 3c 7d e5 68 bd
       -0.0060463515 0.0029580418 0.029307166 -0.056859482
000150 5a 88 ab bd 99 59 dc bc b3 d8 23 3c 9f fa 58 bd
       -0.08375616 -0.026898192 0.010000396 -0.052973386
000160 e7 97 0e bd fa 02 1b 3c 86 ee 7b 3c 53 18 a6 bd
       -0.034812834 0.009461159 0.015376693 -0.08110108
000170 78 fb 8d bd 34 58 7d 3d da 33 b9 3c c0 20 94 bc
       -0.069327295 0.061851695 0.022607733 -0.018082023
000180 14 55 f9 3b b0 7a 9a 3c bb 72 42 3c 8a 30 bb 3c
       0.007609019 0.01885733 0.011868174 0.022850294
000190 18 49 2b 3d e9 1e e7 bc 4e 67 07 3d 7f 97 a9 bc
       0.041817755 -0.028212981 0.033057503 -0.020702122
0001a0 56 d5 dd bc 1d d1 7c bd 6f 65 4e bd 90 3a df bb
       -0.027079266 -0.061722863 -0.050389703 -0.006812401
0001b0 c1 a7 51 bd b8 8b 93 bd 7e de 95 3d 4a f0 12 bd
       -0.051185373 -0.072043836 0.07317828 -0.03587369
0001c0 a7 30 1a bc fd da b1 bd db be 8c bd df db 49 bd
       -0.009411014 -0.08684347 -0.0687234 -0.04928195
0001d0 83 e6 68 bd ec 07 1d 3d 10 f4 9f bd d3 6d 3c bd
       -0.056860458 0.038337633 -0.07810223 -0.046003174
0001e0 80 f0 2c bd 42 70 1d 3d 06 4d ff 3c b9 02 30 bd
       -0.042221546 0.038437136 0.031164657 -0.042971347
0001f0 9e 93 0a bd 9e d8 97 bc 70 43 27 3c 8b 5f fe 3b
       -0.033832185 -0.018535908 0.010208949 0.0077628545
000200 d5 8b 98 bb 3a 2d c7 bb 80 46 9d 3c b9 47 7a 3d
       -0.004655341 -0.0060783895 0.019198656 0.061103556
000210 78 39 3b 3c b8 ef 03 3d a6 db cd 3c 8d 64 f8 3b
       0.011427276 0.032211035 0.02512915 0.007580346
000220 eb 28 af 3d ad 9c 67 3d a0 79 87 3c ba 81 b3 3a
       0.08552726 0.056545902 0.016537488 0.0013695278
000230 7f 20 6c 3d dc e8 13 bd 8a 46 86 bd ce d5 3c bd
       0.05764818 -0.036110744 -0.06556423 -0.046102338
000240 9d bb 6d 3c c9 ab 31 3c 19 96 21 3c cd 86 8b bc
       0.0145100625 0.010844179 0.009862446 -0.017032051
000250 eb fc f3 3c 9d 0f b2 bc e6 ad 18 3d 75 d8 70 bd
       0.029783687 -0.02173596 0.037275217 -0.05880018
000260 70 56 28 bc 56 96 8e 3c 13 38 14 bc 68 dc d0 bc
       -0.010274515 0.01740567 -0.009046572 -0.025495723
000270 7c 43 3f bd 32 07 c5 bc 34 ec 92 bd 24 ce e4 bc
       -0.046695217 -0.024051283 -0.071739584 -0.027930327
000280 fa d4 d7 bc f8 ae 05 bb 97 cd ab bc 98 ad 1b 3d
       -0.026346672 -0.002039848 -0.020972056 0.03800735
000290 1c d0 09 3c 9e 77 08 3d a4 27 44 3d 44 73 97 3c
       0.008411434 0.0333172 0.047889367 0.01848758
0002a0 ed 37 66 3d 13 62 8a bc 89 20 56 bb 71 ba 40 bd
       0.05620568 -0.016892469 -0.00326732 -0.047052804
0002b0 a2 bd 30 bd f6 9d 96 3c d7 00 ba 3c 4a 1b 69 3c
       -0.043149598 0.018385869 0.022705479 0.014227698
0002c0 53 3f 52 3c 5e 30 84 3d ec 09 46 3c ba e7 e1 bb
       0.0128324805 0.06454538 0.0120873265 -0.006894079
0002d0 c8 13 64 bd 1e 31 d5 3c 5f fc 76 3c d5 01 80 3d
       -0.055682927 0.026024397 0.015074818 0.062503494
0002e0 9c dd 46 bd 3e aa 7c bc c1 86 26 3d 8f 51 e9 ba
       -0.048551187 -0.015421448 0.040655855 -0.0017800796
0002f0 85 95 a7 bd a2 fd 75 3d 41 6e 1a 3d b5 9a c1 3c
       -0.081828155 0.060056336 0.037702803 0.02363334
000300 c8 ba 1e 3d e0 52 80 bd aa b6 d4 bc 8d fd 25 3d
       0.038752347 -0.06265807 -0.025966007 0.040525008
000310 20 1b bd 3c 13 a6 e6 bc 44 e6 7b bd 17 a6 75 bc
       0.023084223 -0.028155362 -0.061498895 -0.014993212
000320 3b 23 72 3d 6b 7e 94 3c 4f 91 09 bd fb 59 bb 3b
       0.05911563 0.018126687 -0.033585843 0.0057175136
000330 53 61 a5 3d 4c 79 65 bd d1 71 c6 3c 4c 29 e9 3c
       0.08075204 -0.05602388 0.024224194 0.028462075
000340 35 9d 7f bd 96 86 94 bd c6 60 fd bc 5c 0a 97 bd
       -0.062405784 -0.07252233 -0.030929934 -0.07375023
000350 45 cd 29 bd bc a6 33 bb 69 cb 90 bd c0 64 9a bc
       -0.041455526 -0.0027412614 -0.070700474 -0.01884687
000360 c4 7a ad 3c 0e 25 6c 3b e1 69 1b bd cd ce c5 bc
       0.021176703 0.0036032829 -0.03794277 -0.024146462
000370 89 2b 61 bd 0e 2b 26 3c 06 fb d9 3c dc 16 4b bc
       -0.05497316 0.010142101 0.026608955 -0.012395587
000380 44 60 f7 bc ff 0f 58 bd 1e b0 3d bc ea 95 f3 bb
       -0.03019727 -0.05274963 -0.011577634 -0.0074336426
000390 66 f1 65 bd c9 8c 5a bb 97 c7 95 bd a9 d4 7f bd
       -0.05613842 -0.0033348075 -0.07313459 -0.062458668
0003a0 5e f6 d4 3b 47 70 e2 3c 84 52 2e 3d c6 fe 02 3d
       0.006499096 0.027641429 0.04255916 0.031981252
0003b0 f5 3e ba bc 41 49 c8 3c c5 45 03 3c 1f 55 18 bd
       -0.022735098 0.024448993 0.00801224 -0.037190553
0003c0 f3 52 54 3d 77 59 22 3d 7a df 4d bc 5a e0 0a bd
       0.05183692 0.0396361 -0.012565488 -0.033905365
0003d0 fe cf 7c bd 20 f7 67 3c ea fc ef bc b8 43 0b bd
       -0.061721794 0.01415804 -0.029295404 -0.03400013
0003e0 7f 78 32 bd 57 9a 53 bd 69 a5 86 3d fe 6d 93 3c
       -0.043571945 -0.05166086 0.06574518 0.017996784
0003f0 17 e2 80 bc 38 e1 04 bd ca 10 32 3d df 20 cc bc
       -0.015732808 -0.032441348 0.043473043 -0.024918018

fc_layers.4.weight f4 [128, 512]
000000 41 a1 b0 3c 08 07 ea 3a 38 bb f4 3b ba 58 03 3c
       0.021561267 0.0017854879 0.0074686073 0.0080167595
000010 b8 09 5a bc 93 3e 2f bd b8 6b 29 bd 96 0d fb ba
       -0.013307981 -0.042784285 -0.041362494 -0.0019153829
000020 0f 07 3b bd 66 e7 ee 3c 68 18 59 bc dd 85 c1 3c
       -0.04566103 0.029163074 -0.013250448 0.023623401
000030 69 0a b4 bc ea 61 4d bd 25 f5 06 bc ca 55 bd 3c
       -0.02197762 -0.050142206 -0.008237158 0.023112196
000040 3b e9 d9 bc d5 d8 dc bc d6 6d f2 3c b7 7c 1d 3d
       -0.02660047 -0.026958862 0.02959339 0.038449015
000050 ad be 86 bc ad 0c 81 3c 34 b7 bc bc 23 a4 85 3c
       -0.016448343 0.015753115 -0.023036577 0.016313618
000060 81 f7 07 3b c6 b5 ea 3c dc 04 f9 bc bb e1 09 bc
       0.002074689 0.02865113 -0.030397825 -0.008415635
000070 1b 99 02 bd 2f f7 a7 ba 6f 2f 55 bc 53 c1 a7 bb
       -0.031884294 -0.0012814755 -0.013011797 -0.0051194816
000080 db 7f 1d bd ba c3 00 bd fe bc a4 3c fb 6d e9 3c
       -0.03845201 -0.03143666 0.02010965 0.028494826
000090 59 a5 f9 bc c2 de 0c bd b2 6d d2 bc 7d ca 09 bb
       -0.030474352 -0.034392126 -0.025687072 -0.0021025233
0000a0 6a 3a d2 bc 19 13 22 bd 57 11 cb 3b b1 20 92 bb
       -0.02566262 -0.039568994 0.0061971354 -0.0044594635
0000b0 fb 12 2b bd 62 55 2c bd 2f 62 57 bc 49 4a 7f 3b
       -0.041766148 -0.042073615 -0.013145967 0.003895419
0000c0 cc f8 e2 3a 75 31 43 3a 25 2b 98 3c 45 bf b5 bc
       0.0017316579 0.00074460293 0.01857526 -0.022185931
0000d0 31 fa 18 3c e0 5b 97 3c 87 d8 15 bd 1b 6c ca 39
       0.009336994 0.018476427 -0.03658345 0.00038608987
0000e0 ef 7a 1d 3c 28 60 ec bc 20 85 04 bd 7c af d3 bc
       0.009611829 -0.028854445 -0.03235352 -0.025840513
0000f0 6d 14 bd bc f1 55 0b bb 26 5c e6 3c 1b ae e7 bc
       -0.023081029 -0.0021260942 0.028120112 -0.028281262
000100 f6 d0 40 bd 02 85 fb bc 48 09 47 3c 8b 50 fb 3c
       -0.04707428 -0.030703072 0.012148209 0.030678054
000110 a0 6f e9 bc 1b ee d7 bc 55 41 a9 bc 1c 9f 38 ba
       -0.02849561 -0.026358655 -0.020661036 -0.0007042752
000120 a5 65 19 3d 36 75 9a 3c f4 19 c5 3c ed cc cf bb
       0.03745045 0.018854719 0.024060227 -0.0063415677
000130 c4 ca 05 bd 2f 35 f5 3c b2 40 05 3d 60 42 37 bd
       -0.032664075 0.029932586 0.0325324 -0.044741035
000140 95 c0 28 bd 0c 6f e3 bc 10 8a ce ba 2e 90 f0 3c
       -0.041199286 -0.027762912 -0.0015757699 0.029365625
000150 72 5a 2d 3c cf eb 07 3d c7 57 29 bd 01 93 7c bc
       0.010580646 0.03318387 -0.041343477 -0.015415908
000160 1d 3f f8 bc 61 27 16 3d ec 13 19 bd f8 63 bb 3c
       -0.030303532 0.03665865 -0.037372515 0.022874817
000170 fa 36 c0 bc 33 a6 32 bd b4 43 24 bd 2d 1b 3e bd
       -0.023463715 -0.04361553 -0.04010363 -0.046412636
000180 66 87 0a bd 56 b4 15 3c 05 05 ea 3a 9e e2 07 bd
       -0.033820532 0.009137234 0.0017854279 -0.033175103
000190 11 c8 92 3c f4 a8 d2 bc 0e 7d 97 bb f5 ff 0b 3d
       0.017917665 -0.025715329 -0.004623062 0.034179647
0001a0 87 03 92 3c 01 9f f3 bc 65 a1 dc bb 84 b8 c3 3c
       0.017823948 -0.029738905 -0.006733107 0.023891695
0001b0 73 d4 ae 3b 57 e9 37 bc 61 d0 db bc 6e 25 3f bd
       0.0053353845 -0.011225066 -0.026832761 -0.046666555
0001c0 ee f5 1e bd d0 a1 7b bb 28 e7 62 3c 54 93 01 bd
       -0.038808756 -0.0038396008 0.013849057 -0.031634644
0001d0 b3 f3 a1 bc 62 11 0e bd f1 29 49 bc 08 f8 3f 3c
       -0.019769525 -0.034684546 -0.012278066 0.01171685
0001e0 72 b9 9d bb 02 aa 30 bd 79 36 0d 3c d6 8b ad bc
       -0.0048133666 -0.043130882 0.008618944 -0.021184843
0001f0 32 73 0f 3d 77 d7 41 3c 88 94 48 bd d7 f3 a8 3c
       0.03502197 0.011831156 -0.048969775 0.020624084
000200 60 c8 81 3c 48 85 2b bd 80 77 2d bd eb 0f 3e 3c
       0.015842617 -0.041875154 -0.042350292 0.011600475
000210 f9 6c 57 3c b3 79 98 ba 07 c3 b8 3c f6 37 01 3d
       0.01314854 -0.0011632949 0.022553934 0.03154751
000220 18 39 02 bc 9f 72 c0 3c d8 42 42 bd ad 41 df 3c
       -0.0079481825 0.023492156 -0.04742703 0.027252996
000230 f0 36 0d bd f9 c1 a4 bc e8 ac 51 3c 42 0f 04 bb
       -0.03447622 -0.020112025 0.012797572 -0.0020150696
000240 74 04 8f ba a1 7c 91 bc 2a 50 a0 3c eb 98 f2 bc
       -0.0010911361 -0.017759623 0.019569475 -0.029613933
000250 e3 42 0c bd 87 66 18 bb 4a 64 6b bb f9 91 8d bb
       -0.034243476 -0.002325447 -0.0035917931 -0.00432038
000260 51 15 5d 3c 49 d9 32 bd 9c 4e a2 bc d5 cf c3 3c
       0.013493852 -0.04366425 -0.019812874 0.023902813
000270 ba 74 ac bc 1e ae 20 bd 08 66 08 bd 26 66 e3 3c
       -0.021051753 -0.03922855 -0.03330043 0.02775867
000280 44 76 36 bd 34 78 44 bc 1d 96 e1 3c 10 ce 69 3c
       -0.04454638 -0.011991549 0.0275374 0.014270321
000290 a0 2b 48 bc b0 71 97 3c f7 fd da bb 81 fc 14 3a
       -0.012217432 0.018486828 -0.006683107 0.0005683378
0002a0 a4 59 2f bd 79 a4 4e bd b5 77 41 bd 16 84 ca bb
       -0.042810097 -0.050449822 -0.047233302 -0.0061802967
0002b0 50 be f2 3c 96 da 53 3b 52 5e 2f 3c 41 71 d7 3b
       0.029631764 0.0032326332 0.01070364 0.00657478
0002c0 e4 d4 8a 3b 53 8d b1 3c a0 f9 fd bb d2 62 b7 bc
       0.0042368043 0.021673834 -0.007750705 -0.022385988
0002d0 f2 5c e1 bb 05 01 04 bd 32 5a 02 3d 03 00 ea bc
       -0.006877535 -0.032227535 0.0318243 -0.028564459
0002e0 c7 b4 24 bd 90 b6 75 bb c0 b8 04 bc a6 9d 48 bd
       -0.040211465 -0.003749285 -0.008100688 -0.04897847
0002f0 5d 5e 26 bd ee ae 2f bd a5 d7 0e bd eb fd 5a 3c
       -0.040617336 -0.042891435 -0.034873623 0.013366203
000300 60 3b 23 bd c7 a8 69 bc 02 3f 53 bd 18 b1 71 bc
       -0.039851546 -0.014261431 -0.05157376 -0.014751695
000310 81 32 b8 bc c3 b0 4b bc d7 0b d0 3c a1 31 ed 3c
       -0.02248502 -0.01243228 0.02539627 0.028954329
000320 13 6d 49 bd e0 e0 f6 bc 84 c5 ec bc cd fb 8e 3b
       -0.049176287 -0.030136526 -0.028902777 0.004363513
000330 8e 30 0a bc 37 ca df 3c 05 71 d8 3c fa b9 ec bc
       -0.008434428 0.027318103 0.02642108 -0.028897274
000340 b6 bd 1b bd 0e 93 f3 b9 f5 3c fa bc 1a 1b 4e 3c
       -0.03802272 -0.00046458136 -0.030546645 0.012579704
000350 0d d1 1c bc 96 16 61 bc 08 33 05 3d 07 e4 9a 3c
       -0.009571326 -0.013738295 0.03251937 0.01890756
000360 da 8b 98 bb c2 82 e3 3c 6b 7c a2 ba 13 76 61 3b
       -0.0046553435 0.027772311 -0.0012396699 0.0034402653
000370 31 52 15 bc ac ff fd bc a1 b2 4c 3b 91 d2 82 bb
       -0.009113834 -0.031005703 0.00312344 -0.0039923866
000380 4d 85 f9 bc 5b 4a 69 bb 0d a0 ca bc 22 75 8a bb
       -0.03045907 -0.0035597298 -0.024734521 -0.004225389
000390 de ef 06 bd 7a 3b c1 3c a6 da b6 3c 80 94 84 ba
       -0.0329436 0.023587931 0.022321057 -0.0010115057
0003a0 06 d8 91 bb cb cc da 3b a5 6d 83 3c 2e 65 e4 bc
       -0.004450801 0.0066772453 0.016043494 -0.027880277
0003b0 81 7d c7 3c 4c e8 25 bd 3c 9d 7f bc 7b ac f5 bc
       0.024351837 -0.04050474 -0.015601452 -0.029989472
0003c0 2a 6e 1a bc d1 bf 61 bc 04 1f 40 bd 22 ee 00 3c
       -0.009425679 -0.013778643 -0.04690458 0.007869275
0003d0 6f b2 92 bc 95 dc e6 3c 8a b1 35 bd 1a 6d 31 3c
       -0.01790735 0.028181354 -0.044358768 0.0108292345
0003e0 8b 7f af bc a4 8c f3 3c 98 59 a8 ba 0f bd a9 3c
       -0.021423122 0.029730149 -0.0012844084 0.020720033
0003f0 2d 7b 63 bb 96 70 43 3c 8d 8d f7 bc b1 59 a1 3b
       -0.003471087 0.011928698 -0.030218864 0.004924022

fc_layers.4.bias f4 [128]
000000 b6 2b f7 3c 03 e3 21 bb e9 01 dd bc 16 d3 25 3b
       0.03017221 -0.002470196 -0.02697845 0.002530282
000010 03 0b 24 3d 42 a2 3d 3b 91 57 6a bd 2c 73 89 bd
       0.040049564 0.0028935825 -0.057212416 -0.067114204
000020 96 1a 9b 3c 19 22 1d 3d 8e 49 41 3d f3 fa 8e 3d
       0.018933576 0.038362596 0.047189288 0.069814585
000030 b5 9c ae 3c 6f 70 53 bc 76 5f 91 3c 84 6c 5b 39
       0.021314958 -0.012905224 0.017745715 0.00020925893
000040 cc 4e 8d 39 63 c6 5c 3d 36 05 83 3c 13 97 1a 3d
       0.00026952324 0.053900134 0.015993696 0.03774173
000050 50 56 1c 3d c0 74 31 bc ae 60 32 3d cf 43 76 bc
       0.03816825 -0.010831058 0.043549232 -0.015030815
000060 7e f3 68 3d 2b 6c 24 bc 68 e6 5b bd 0a ee cd bc
       0.056872837 -0.010035555 -0.05368653 -0.02513792
000070 ba c8 a3 bb 51 55 88 3d bd a4 71 bc 83 c6 10 3d
       -0.0049982937 0.06656898 -0.014748749 0.035345566
000080 b3 9d 82 3b 0b 5e 69 3d fc 22 0e 3d 91 bf ef bc
       0.0039860844 0.056974452 0.034701332 -0.02926615
000090 e9 75 98 3c 02 55 d3 bc 20 31 73 bd ab ae 52 3d
       0.018610911 -0.02579737 -0.05937302 0.051436108
0000a0 57 de 03 3d 86 92 22 3d 8b 02 47 3c ca 06 3b 3d
       0.03219446 0.039690517 0.012146602 0.04566077
0000b0 5c fb ee 3a 34 d6 50 bd 88 93 a4 bb 09 ea 91 3d
       0.001823287 -0.05098553 -0.00502247 0.07124717
0000c0 cf b3 cc bc 45 fb 74 3c 2a a8 49 bb 6c 6b 13 3d
       -0.024988083 0.014952485 -0.00307704 0.035991117
0000d0 67 1b fe 3c f9 1e 98 3b 66 53 96 3c 22 fe 8f 3d
       0.031018926 0.004642364 0.018350314 0.07030894
0000e0 43 4c 20 3d 88 a0 57 3d 30 80 68 3d c6 31 68 bc
       0.03913523 0.05264333 0.056762874 -0.014172023
0000f0 83 bb a0 ba 72 fd 63 3d 17 ab 6f 3d 13 9a 94 3d
       -0.0012262914 0.055661626 0.058512773 0.0725595
000100 c1 e9 dc 3a ae 25 91 bd db 4a 26 bc ef 6e ba 3c
       0.0016854332 -0.07087265 -0.010149683 0.022757975
000110 1d 39 68 bd 25 80 08 bb 62 91 59 3b 78 95 97 bc
       -0.056695092 -0.0020828333 0.0033198227 -0.01850389
000120 42 95 2f 3d 17 11 ae 3c 6c 6d c8 bc 9d 72 52 3d
       0.042866953 0.021248383 -0.024466239 0.051378835
000130 31 28 d3 bc 95 d2 0b bd ec 8e b5 3c fb 17 10 3d
       -0.025776 -0.034136374 0.022162877 0.03517912
000140 6f 89 42 3d 78 38 3f 3d e4 ff b8 bc f1 43 5e 3c
       0.04749435 0.046684712 -0.022582956 0.013566003
000150 bc 25 85 3c db 93 8e 3c 01 f5 3e bd 06 d4 07 bd
       0.016253345 0.017404487 -0.046620373 -0.033161186
000160 2f cc f4 ba 39 e0 07 bd 9e af 70 bd a0 47 83 3c
       -0.0018676574 -0.03317282 -0.05876123 0.016025364
000170 57 49 87 bc 99 fd b1 bc 6e cc 4f 3c a2 8b 0a 3c
       -0.016514463 -0.02172737 0.012683017 0.008456143
000180 20 ed b3 3c 28 0f 39 bc 05 ea 79 bd 92 12 06 3c
       0.021963656 -0.011295117 -0.061014194 0.008183138
000190 ca 0b f0 3b 65 a6 b2 3c 0c 10 56 3d 76 0e 4f 3d
       0.007325624 0.021807859 0.052261397 0.0505509
0001a0 e9 26 ca bc c9 89 73 bc bd a2 28 bd fb ed 43 3c
       -0.024676757 -0.0148643935 -0.041170824 0.011958594
0001b0 c3 59 60 3c c3 0c 8e 3d eb 9a 16 3c 2d 30 9c 3c
       0.013693276 0.06936028 0.009192209 0.01906594
0001c0 62 d5 8c 3c a9 29 c7 bc 6a ef 70 3d 47 4a 58 3c
       0.017191593 -0.024311857 0.058822073 0.013201303
0001d0 d9 15 66 3c e1 d9 e7 3b d3 60 9b 3c 9a 35 87 bd
       0.014043295 0.0070755337 0.018967068 -0.066020206
0001e0 b2 28 2c bd 90 04 0a 3d 21 6d 4f 3d d0 03 81 3b
       -0.042030998 0.033695757 0.050641183 0.003937222
0001f0 0c 44 67 bd a6 a7 89 bb a9 09 29 bd 72 6d 88 bd
       -0.05646138 -0.0042008935 -0.04126898 -0.066615

classification_layer.weight f4 [1, 128]
000000 3c 63 62 3c 8b 03 40 3e 9f 62 33 3d 68 89 07 3e
       0.013817605 0.18751352 0.043795224 0.1323601
000010 07 6f db 3d 35 75 e8 3d bb d4 63 bd 9a 35 e2 bd
       0.10714536 0.113504805 -0.055622797 -0.1104538
000020 92 fa 2f 3d 5a 6e 91 3d bc 1e 06 3e 68 f8 1c 3e
       0.04296357 0.07101126 0.13097662 0.15329134
000030 26 c2 d5 3d 27 73 53 bd 4d 51 8f bd 02 c6 a2 bd
       0.104374215 -0.05162349 -0.06997929 -0.07947923
000040 19 d8 d6 bd 07 c1 bc 3d 54 06 54 bd 9d 6d 6e bd
       -0.10490436 0.092165045 -0.051763847 -0.058210004
000050 15 42 bc 3d 00 9e f2 bc 3f 3d f0 3d a5 21 1e bd
       0.09192292 -0.029616356 0.11730432 -0.038606305
000060 e0 d5 07 3e 6a 83 1f 3e 2c 09 32 be 8a 77 4f 3e
       0.1326518 0.15577474 -0.17386311 0.20260444
000070 ec da 14 3e b9 79 ff 3d c8 af 0b 3e e6 11 17 3e
       0.14536637 0.12474389 0.13641274 0.14752921
000080 e9 63 29 3e 1d 7f 20 3e 4f 64 19 3e a4 17 7c bd
       0.16542019 0.1567349 0.14979671 -0.061545983
000090 7a e5 8c 3d d8 91 21 3e d6 57 05 be e6 ae 48 3e
       0.06879707 0.15778291 -0.13021788 0.19597968
0000a0 f7 18 07 3e f4 53 9b 3d 9c 68 84 bd 1b d9 23 3e
       0.13193117 0.07584372 -0.06465265 0.16000788
0000b0 cf 62 8c bd 80 6c 6e bd 14 ed 86 3d 67 e2 f1 3d
       -0.06854784 -0.058208942 0.06588188 0.11810761
0000c0 8d 3f ce bd 20 1e 0e 3e 0a f0 28 3e 04 13 06 3e
       -0.10070715 0.1387868 0.16497818 0.13093191
0000d0 9d b7 b1 3d 1b e6 df bd 99 df ed bd 27 21 25 3e
       0.086775996 -0.10932561 -0.116149135 0.16125928
0000e0 9d 6b 09 3e e9 a3 52 3e 70 d1 12 3e 7a 07 06 be
       0.13419957 0.2057034 0.14337707 -0.1308879
0000f0 18 80 76 bd cd 33 ee 3d 8e 77 40 3e 23 63 db 3d
       -0.060180753 0.11630974 0.18795606 0.10712268
000100 c5 10 9e bd 9c 31 01 be 9f 98 39 be 93 47 e4 bd
       -0.07718042 -0.1261658 -0.18124627 -0.11146464
000110 de a8 bf bd f2 14 27 3e c0 b0 17 be 4b cf 9b bd
       -0.09358381 0.16316584 -0.14813519 -0.07607897
000120 1d 38 19 3e 46 fc 24 3e ba 8a d1 bd 29 3e f8 3d
       0.14962812 0.1611186 -0.10231538 0.12121231
000130 04 75 2f 3e 33 cd 9d bd 7b b9 85 bd 3f 63 91 3d
       0.17134482 -0.07705154 -0.06529518 0.07099008
000140 ea f0 f1 3d 71 3e 5d 3e ec 57 0f 3e 82 2b e8 bd
       0.11813529 0.21605851 0.13998383 -0.113364235
000150 c7 c3 e6 3d 8f 1c 02 3e 37 de 81 bd a6 ea 02 be
       0.1126781 0.12706207 -0.06341212 -0.12784824
000160 eb e8 a7 bd 44 fb e3 bd 62 13 c0 bd f3 93 2b 3e
       -0.081987225 -0.111319095 -0.09378697 0.16755657
000170 b1 df 3b bd ce ef 5a bd b4 7e 15 be 8a 9a fd bd
       -0.045867626 -0.05345135 -0.14599115 -0.123829916
000180 00 74 93 3d ec f5 4b 3e 64 0b 8a bd 2a 48 33 bd
       0.071998596 0.1991803 -0.06740454 -0.043769993
000190 0a 41 90 bd 87 33 f5 bd 04 bc 57 3e 10 f4 88 3d
       -0.07043655 -0.11972719 0.21067816 0.06687176
0001a0 fe 0f 0b be f4 c3 95 bd ff 2a 31 bd 75 30 d3 bd
       -0.1358032 -0.07312766 -0.043253895 -0.10311977
0001b0 ed 60 ed 3d ca 31 d8 3d 89 5d e6 bd a1 dc 28 bd
       0.11590753 0.105563715 -0.11248309 -0.041226033
0001c0 68 01 a2 bd 95 4f b5 bd 6b 9f 47 3e 2d 8a bb bd
       -0.079104245 -0.0885307 0.19494407 -0.09157214
0001d0 8c 45 d6 3d ce 7a 13 bd b4 99 a6 bd 8d b9 25 be
       0.10462484 -0.036005788 -0.08134785 -0.16184063
0001e0 d7 0a ec bd 12 4e cb 3d 3f 7d 38 3e 41 39 8b 3d
       -0.11525505 0.09927 0.18016528 0.0679803
0001f0 f0 74 51 bd 52 0f 1f 3e 07 4a ee bd 9a a3 4f bc
       -0.05113691 0.15533188 -0.11635213 -0.012673283
