weights/new/900_plus_1500.pth (torch, 929249 bytes, 7 tensors)

fc_layers.0.weight f4 [256, 132]
000000 67 38 34 bb bb 40 96 b9 ff d0 71 bb f4 65 ba ba
       -0.0027499439 -0.00028658457 -0.0036898253 -0.0014221058
000010 a9 71 23 bb 3d a5 e8 ba 73 bc 51 bb f9 c0 2d b9
       -0.0024939573 -0.001774944 -0.0032003194 -0.00016570454
000020 c8 a8 46 bb 78 25 06 3b 0c 83 0c bb d8 84 cc 39
       -0.0030313004 0.002046911 -0.0021440415 0.00039008888
000030 a8 c2 34 bb a7 5a b4 ba ed 01 40 bb 8c 90 32 ba
       -0.0027581844 -0.0013759927 -0.0029298023 -0.00068117003
000040 4f 38 ac bb e4 3a 09 3b db 92 6b bb 4f 5e c2 39
       -0.005255736 0.0020939643 -0.0035945687 0.0003707283
000050 25 5b 12 bb c3 04 40 3b 8c c4 01 bb 90 f3 20 b8
       -0.0022332158 0.0029299713 -0.001980099 -3.8373808e-05
000060 4b aa 03 bb 12 2a 25 ba 6b e3 21 bb fe 56 76 ba
       -0.0020090516 -0.00063005195 -0.0024702202 -0.0009397118
000070 94 fb 12 bb b8 3d 33 3b 4b b4 41 bb 76 43 5b ba
       -0.0022427784 0.002735002 -0.0029556926 -0.00083642395
000080 73 49 3d bb a1 62 06 ba 87 c7 3f bb f4 39 b1 3a
       -0.002888289 -0.0005126391 -0.0029263215 0.00135213
000090 14 41 8e bb 82 fb b2 39 d2 50 01 bb 8e 02 1c 3b
       -0.004341254 0.00034138194 -0.001973201 0.0023805234
0000a0 11 fd 21 bb 00 6a 9b 39 01 71 12 bb 7e 09 5b 3a
       -0.002471749 0.0002964288 -0.0022345188 0.00083556015
0000b0 45 d2 4a bb 79 4c 8f ba f1 06 f4 ba 77 5c a9 3a
       -0.0030948084 -0.0010932825 -0.0018617791 0.0012921233
0000c0 1a 6f 30 bb e8 60 6d b9 9c 4f 88 bb 61 2d 59 3b
       -0.002692169 -0.00022638182 -0.004159881 0.003313862
0000d0 7e 02 14 bb 56 a7 14 bb a8 be 9a bb 83 99 e7 3a
       -0.0022584493 -0.0022682748 -0.004722435 0.0017669651
0000e0 1b b6 0f bb f8 a8 e7 ba c8 c9 2c bb a2 9d 61 b9
       -0.0021928612 -0.0017674258 -0.0026365388 -0.00021516395
0000f0 eb 98 fc ba 3e 9c e0 3a ec e9 7e bb 80 b4 3d bb
       -0.0019271647 0.0017136408 -0.0038896753 -0.0028946698
000100 fe 97 4e bb bb af 59 b8 ac 52 81 bb cf 3c e9 3a
       -0.00315237 -5.1900493e-05 -0.003946623 0.0017794612
000110 32 66 a6 bb 90 a5 9d 3a 4a 2f 1c bb 3a d2 38 bb
       -0.0050781006 0.0012027491 -0.0023831897 -0.0028201477
000120 95 13 cb ba f7 4b 46 3a d2 4e bb ba 7b ed b4 b9
       -0.0015493507 0.000756442 -0.0014290458 -0.00034509212
000130 e8 d1 14 bb 5e 18 e6 3a 60 cb 89 bb 54 b9 2c 3b
       -0.0022708122 0.0017554869 -0.0042051524 0.0026355581
000140 87 e9 78 bb 5d 8e 8f 3a dd e2 42 bb 25 48 d8 ba
       -0.003798099 0.0010952462 -0.0029737272 -0.0016500993
000150 2d fa 25 bb 65 7f a8 b8 f6 98 46 bb 2e 82 1c 38
       -0.0025326118 -8.034593e-05 -0.0030303574 3.7314538e-05
000160 49 9a 80 bb 0c ac 18 3b 70 6b bf ba c9 ef 66 3a
       -0.003924642 0.0023295907 -0.0014604162 0.00088095345
000170 96 a4 27 bb 26 b2 74 3a 13 82 33 3a 71 db 92 3b
       -0.0025580279 0.00093344075 0.00068476907 0.004481726
000180 77 0c 39 ba 66 9d 05 ba 49 e6 3b bb 02 c6 39 3a
       -0.00070590473 -0.00050970016 -0.0028671196 0.00070866954
000190 8d 18 43 bb 39 0a 30 b9 ce 5f 8c b9 c6 dd f8 ba
       -0.0029769272 -0.00016788476 -0.0002677426 -0.0018986992
0001a0 ca 22 f5 ba ee dd 32 ba 3b 9a 0f bb f6 4e 11 bb
       -0.0018702385 -0.0006823231 -0.0021911997 -0.0022172309
0001b0 cc 49 5d bb 7c 7f a3 ba 7f 51 59 bb 7f 1e fa 39
       -0.003376591 -0.0012473906 -0.0033160148 0.00047706437
0001c0 63 99 61 bb 40 c6 fc ba 75 90 d5 3e 4a 20 12 bf
       -0.00344237 -0.0019285157 0.41711774 -0.5708052
0001d0 10 68 6f bb 57 ec 1b 3a dc 9c 87 bb e2 4d 88 37
       -0.0036530532 0.0005947998 -0.004138572 1.624873e-05
0001e0 02 76 58 bb 87 92 15 bb ff 9e 02 bb 2f 36 95 b9
       -0.0033029323 -0.0022822933 -0.0019931195 -0.00028459865
0001f0 27 2f 5d bb f1 60 28 bb c2 11 0d bb 4c b4 66 ba
       -0.0033750029 -0.0025692547 -0.0021525477 -0.000880067
000200 88 0b 99 bc 91 07 9b bc cc 67 a2 bc 3b 03 a0 bc
       -0.018682256 -0.018924506 -0.019824885 -0.01953279
000210 70 48 c3 3a 22 c0 89 3a f5 a1 cf ba 3e 46 82 3a
       0.0014898907 0.001050953 -0.0015841114 0.0009939147
000220 8d 51 cd 3a 6c 9a c5 ba 6b a3 91 3b d2 39 48 bb
       0.0015664563 -0.0015075929 0.00444453 -0.0030552042
000230 2b 56 e1 3a 07 c2 46 bb e7 d5 a2 3a 18 b4 27 39
       0.0017191818 -0.0030328052 0.0012423367 0.00015993451
000240 26 ef 07 3b cf 28 8e ba f5 20 a0 3a 2c a2 95 bb
       0.0020741909 -0.0010845902 0.0012216853 -0.0045664515
000250 ac 6a 45 bb 58 a3 09 3c 2e 56 68 3a b0 bc 9c b8
       -0.0030123396 0.008400761 0.00088629394 -7.4738055e-05
000260 d3 8b 6d 3b 77 e4 15 3b a3 1d 23 bb 3f 68 d7 ba
       0.0036246672 0.0022871771 -0.002488949 -0.0016434266
000270 b4 1e da 3b 06 3e 8c 3b 1c 85 af 3b ff 8e b1 3b
       0.006656492 0.0042798547 0.005356444 0.005418658
000280 93 66 fe ba 61 72 c6 3b 42 60 d9 b9 bd 55 da 3a
       -0.0019409232 0.0060561155 -0.00041461183 0.0016657632
000290 1b 26 3e 3b ce 30 83 bb f9 5f b4 3b d8 7a 80 3b
       0.0029014412 -0.0040036207 0.005504605 0.003920894
0002a0 34 5b c0 bb bc 10 d9 3b a7 8f b6 3b 42 52 2b 3b
       -0.0058702473 0.0066243093 0.005571324 0.0026141559
0002b0 fe f5 2a 3b 34 1e 55 3b a2 e0 e8 3b 65 85 a3 3b
       0.0026086564 0.0032519223 0.0071068564 0.004990267
0002c0 d1 f5 62 3b 18 75 e0 3a c7 8e 55 3b 48 0e 88 3a
       0.0034631381 0.001712474 0.0032586323 0.0010380233
0002d0 4e 1a 80 3a 0e 3e cf ba 16 df a2 bb 11 a4 5a 3b
       0.0009773464 -0.001581134 -0.0049704416 0.0033361951
0002e0 ae e9 8d 3a 75 04 a3 b9 97 b1 9d bb ed 0a 93 3b
       0.0010827088 -0.00031093103 -0.00481243 0.0044873864
0002f0 fb 26 5d bb da c2 93 3b fb ac eb 3b 2b f1 54 3b
       -0.0033745158 0.004509312 0.0071922517 0.003249238
000300 ff e6 87 3b e8 ba 3b 3b 94 7e df 3a d7 39 02 ba
       0.00414741 0.002864534 0.0017051273 -0.0004967725
000310 7f 0f c9 3a 67 8f 23 bb 6a 43 98 bb 7b 8d 05 3b
       0.0015339701 -0.00249573 -0.0046467083 0.0020378518
000320 94 8b 99 bb f0 ea 43 3b 9e 7c 5d 3b c0 13 81 3b
       -0.0046858285 0.0029894672 0.0033796201 0.003939122
000330 2b ae b4 3a 73 c6 99 39 15 34 91 3b 18 6d 65 3b
       0.0013784816 0.0002933029 0.0044312575 0.0035007652
000340 cc 2c 81 3b 30 9f 16 3b bc d0 aa bb 2f 62 c4 3b
       0.003942108 0.0022983067 -0.0052128714 0.0059931497
000350 14 eb 5c bf 47 48 5b 3f c5 86 66 3b 32 9e c3 bb
       -0.862962 0.8565716 0.0035175544 -0.005969786
000360 71 fe 5e 3a 0c b2 31 ba 57 77 bb ba ac 24 42 3b
       0.00085065427 -0.0006778545 -0.0014302534 0.002962391
000370 17 ef 85 bb 2f 76 7c 3b 23 45 6f 3b 85 88 f3 b9
       -0.0040873396 0.0038522591 0.0036509715 -0.00046450287
000380 24 f7 94 3a 8a da d4 39 cc fd 88 3b 73 85 60 3b
       0.0011365158 0.00040598615 0.0041806456 0.003425923
000390 d4 01 4d 3b 68 a9 14 bb 87 4c b2 bb 79 89 ae 3b
       0.0031281607 -0.0022683982 -0.0054412517 0.0053264466
0003a0 23 b6 49 bb a0 c2 69 3b 2c 4d ec 3b 5e db b4 3b
       -0.0030778728 0.0035668984 0.007211348 0.0055193147
0003b0 4c a5 53 3b 2f 2c 05 3b 60 8b bf 3b e5 0b 56 3b
       0.003229457 0.0020320525 0.005845472 0.0032660898
0003c0 bc f5 8f bb 05 ab 5c 3b 45 7b 30 3b 19 bc 00 bb
       -0.0043933075 0.0033671272 0.0026928943 -0.0019643365
0003d0 74 b6 03 bb 44 18 1e bb fb 22 98 bb 44 d8 af 3b
       -0.0020097764 -0.002412335 -0.004642842 0.005366357
0003e0 62 f2 17 bb 91 0f 4c 3a 40 0a 4b ba 8a 17 46 bb
       -0.0023185243 0.0007784302 -0.0007745363 -0.0030226433
0003f0 0c 12 09 bb ce df 47 3b f5 67 e2 b8 f6 81 0a 3a
       -0.0020915298 0.0030498388 -0.00010795883 0.0005283648

fc_layers.0.bias f4 [256]
000000 f8 45 3a bf c2 2f 9c 3d 1d 37 0c 3e 81 0b 8d be
       -0.72763014 0.076262966 0.13692899 -0.2754784
000010 74 9a 83 bd 20 56 55 bf 20 eb fb bf a0 eb c1 3f
       -0.06425944 -0.8333454 -1.968113 1.5150032
000020 fe f9 c9 3c ed 1f ab bd 36 34 1e c0 a1 cc d2 be
       0.024655338 -0.08355699 -2.4719367 -0.41171744
000030 f5 11 3c bd 5a 39 4f bf e4 76 a7 bf 30 e7 a5 bf
       -0.045915563 -0.80946887 -1.3083158 -1.2961178
000040 37 2a c7 3f 6b 38 48 bd e5 f0 8e 3f 31 f9 16 bf
       1.5559758 -0.04888193 1.1167265 -0.58973986
000050 0f 29 03 be 67 4f 40 3c f0 06 82 be 30 13 03 c0
       -0.12808631 0.011737681 -0.25395918 -2.048046
000060 0c 69 67 be 78 f7 04 bd ac 5f 10 be c8 9f 0d c0
       -0.22598666 -0.032462567 -0.14098996 -2.2128773
000070 72 8c 9c bf 36 45 f6 be b7 44 be bd f3 10 a3 be
       -1.223036 -0.4809968 -0.0929045 -0.3184887
000080 cf 72 29 be e4 b5 c1 be 87 a3 35 bf 69 7f 3b bf
       -0.16547702 -0.37834084 -0.7095265 -0.7324129
000090 b2 d0 a2 3f cf f7 85 be 0f ec 56 bf c7 08 5b be
       1.2719939 -0.26165625 -0.83953947 -0.21390067
0000a0 28 3c 79 bf a3 0f cb be f4 66 2f bd c8 df 88 3f
       -0.97357416 -0.39660367 -0.042822793 1.0693293
0000b0 3c 79 05 c0 0a 25 60 3c 52 cd b3 bf 58 f3 41 be
       -2.0855246 0.013680706 -1.4047034 -0.18940485
0000c0 01 99 d8 bd 49 92 b6 bc 14 0d 8d be 60 d3 c2 bf
       -0.10576058 -0.022286551 -0.2754904 -1.5220757
0000d0 05 2d e5 bf 34 ad 0a c0 18 cb cf bd 66 e6 03 bf
       -1.7904364 -2.1668215 -0.10146159 -0.51523435
0000e0 d7 bb 00 bf 1e 85 13 c0 d5 9b c4 bb fc e3 a6 bd
       -0.5028662 -2.3049998 -0.006000022 -0.08148953
0000f0 86 11 70 be 93 e5 1b bf 58 0e 72 bf 9b 6b d4 be
       -0.23444185 -0.6089718 -0.94553137 -0.41488346
000100 57 82 08 be 25 c5 a0 be b0 fe 85 be 8e 2e 00 bf
       -0.1333097 -0.3140041 -0.26170874 -0.50071037
000110 cc ac 1a bf c2 b4 4f bd e0 2a 0e c0 6b c8 81 be
       -0.6041992 -0.050709493 -2.221367 -0.2534822
000120 2e c7 58 be c8 43 82 bf 5a e3 33 bf e6 fc a0 be
       -0.21169731 -1.0176935 -0.70268786 -0.31442946
000130 bb e8 8d bf 2d 2a 5f be f7 32 29 bf 0d e9 e1 bf
       -1.1086649 -0.21793433 -0.6609339 -1.7649246
000140 bb a7 01 c0 25 6b 4a be e7 9e 07 bf 76 74 94 3d
       -2.0258625 -0.19767435 -0.5297684 0.07248776
000150 4e b8 3d bf d3 d4 f5 be f8 b2 12 bf 13 e9 31 be
       -0.7410935 -0.48013934 -0.57304335 -0.17374067
000160 48 3b 16 bf b5 3f e8 bd 4b 1d 84 bf 72 88 14 c0
       -0.58684206 -0.11340276 -1.032144 -2.320828
000170 98 44 8b bf 5f db 56 bf 62 99 24 bf 81 d5 ef 3e
       -1.0880308 -0.83928484 -0.64296544 0.46842578
000180 91 16 11 bf 4c e9 28 be 28 62 40 bf 10 cf ba bd
       -0.5667506 -0.16495246 -0.75149775 -0.09121525
000190 09 8a c3 bd 77 b4 01 c0 43 56 82 be 62 29 06 3f
       -0.095478125 -2.0266397 -0.25456437 0.52406895
0001a0 34 37 46 be 17 5a a7 be ee 1d 4b be 15 21 62 3f
       -0.19356996 -0.3268592 -0.19835636 0.8833173
0001b0 af b7 41 3f 5a 07 2d bd ed 10 c5 be 73 84 27 be
       0.75670904 -0.04224334 -0.38489476 -0.16359119
0001c0 30 5b c5 bf 79 85 10 c0 41 c4 ad be e3 a1 e8 bf
       -1.5418453 -2.2581465 -0.33938792 -1.8174404
0001d0 87 55 2b bf e7 ae 8f bf ee 99 13 3f d0 0c 27 be
       -0.6692738 -1.1225251 0.57656753 -0.16313481
0001e0 89 f4 18 be a1 4c f4 3d 8f f1 dd bf 83 db 6c bf
       -0.14937033 0.11928678 -1.7339343 -0.9252245
0001f0 c0 74 7e bf cb 60 aa be 04 c8 d8 bf 69 6d 9c be
       -0.99396896 -0.33276972 -1.693604 -0.30552223
000200 54 fb 3a bd ca 4c 0d c0 9c f2 40 3c dc 6d 1c bf
       -0.04564984 -2.2078118 0.011776593 -0.6110513
000210 65 f8 bc bf 68 fc 63 be c1 8e 27 bf c7 87 10 c0
       -1.4763304 -0.22264254 -0.654522 -2.2582872
000220 27 a7 06 c0 00 75 d3 3d e3 80 1d c0 87 30 87 be
       -2.1039522 0.1032505 -2.4609916 -0.2640421
000230 b7 5f 79 3e 8b f2 80 bf ce 14 9c 3f 26 09 a5 be
       0.24352919 -1.0074018 1.2193849 -0.32233542
000240 9c 4e bd bf 13 76 58 bf 02 0d 08 c0 3d 86 2d 3e
       -1.4789615 -0.84555167 -2.125794 0.16945739
000250 d3 07 45 be 94 d3 b4 bf 50 66 0d c0 cb ff 2c bd
       -0.19241266 -1.4127069 -2.2093697 -0.04223613
000260 92 d5 d4 be ae 78 dc 3e dd 64 08 bf 9a 82 6b be
       -0.4156919 0.4306082 -0.53278905 -0.2299904
000270 db 79 5b bf 12 d2 50 bf 52 f0 b4 3d 09 7d 9d 3e
       -0.8573281 -0.8157054 0.088349 0.30759457
000280 ee a6 f1 be 65 79 be bf 2d 27 3c bf 30 5b 27 bf
       -0.4719767 -1.4880797 -0.7349728 -0.65373516
000290 8e fa cf 3f 2b 29 c0 be 15 53 9f 3d 7a 23 92 bf
       1.6248338 -0.3753141 0.077795185 -1.1417077
0002a0 5e 7a c1 bf d2 ff a6 be 14 49 cd 3d 07 97 3a bf
       -1.5115469 -0.3261705 0.10023704 -0.728867
0002b0 84 a5 4c be 7e 35 76 bf 57 32 e8 bf 42 1d 42 bf
       -0.19985014 -0.9617537 -1.8140363 -0.75825894
0002c0 39 4b c1 bf fa 28 c1 bf b1 2d 18 3e 6c c5 0b c0
       -1.5101081 -1.509063 0.1486118 -2.1839247
0002d0 ea 4c 11 c0 70 fa 17 be 36 54 9b 3d ea 2d 8a be
       -2.2703195 -0.14841628 0.07584421 -0.26988155
0002e0 f4 15 15 bf 8b 0a b6 be c4 1d ab be 77 c6 ec 3e
       -0.5823662 -0.3555492 -0.33421147 0.46245167
0002f0 2a 75 25 be 13 2e 9a 3f 75 0e da bf c0 ac 83 be
       -0.16157976 1.2045311 -1.7035662 -0.25717735
000300 74 3d 08 c0 63 12 87 bd 42 b2 1e bf 6a e2 6a bf
       -2.1287508 -0.06595304 -0.6199075 -0.9175173
000310 41 61 eb bd 0a 6b 87 be f7 ca 97 3f 23 cc 8f be
       -0.11493159 -0.26448852 1.1858815 -0.2808543
000320 2a da 9e be 97 c5 ba bf ce 1d f9 bf 04 0b a1 be
       -0.3102582 -1.459155 -1.9462221 -0.31453717
000330 4d 35 97 3e 99 81 22 bf 44 6c d6 be 02 2b b7 be
       0.29532853 -0.63479 -0.41879475 -0.35775
000340 8a 70 2c bd d6 4b 37 be 41 ad d3 3f 4a 56 89 be
       -0.042099513 -0.17900023 1.6537248 -0.26823646
000350 a3 05 13 c0 0f 31 7d be 7b 01 c9 bf 6f bd 8d bf
       -2.297219 -0.24725746 -1.5703577 -1.1073436
000360 a8 29 81 bc 2e 94 9c bb 57 e1 14 bf 90 23 bc 3d
       -0.015766934 -0.0047784066 -0.5815634 0.091864705
000370 76 fc 97 be 55 23 d2 be 3f 6e 0f c0 12 ae 8d 3f
       -0.296848 -0.4104258 -2.241104 1.1068747
000380 fb e9 15 c0 cf 66 13 c0 7f ed 9a be 84 79 14 bf
       -2.342406 -2.30315 -0.3025932 -0.5799792
000390 bf 79 ed bd f1 52 2f be 06 26 a4 bf b2 35 9d be
       -0.11595487 -0.17121483 -1.2824104 -0.3070503
0003a0 b0 93 33 bf 3f a5 69 bd ad b0 c8 be 2a f9 b3 bf
       -0.7014723 -0.057042357 -0.39197293 -1.4060414
0003b0 ab 39 0c be 31 53 5e bd ad b7 ad bd 66 f7 08 bf
       -0.13693874 -0.054278556 -0.08482299 -0.535025
0003c0 3e a5 c8 be b1 de d2 bf 62 ac 00 c0 7c 93 7e bc
       -0.3918857 -1.647421 -2.0105214 -0.015538093
0003d0 c1 93 d6 be 8d 7f 97 bc 8f 84 23 c0 93 db 96 bd
       -0.41909602 -0.018493438 -2.5549657 -0.07366099
0003e0 26 81 cd bd fc d0 5c bf 04 8f 01 bf e6 4b 99 bf
       -0.10034399 -0.86256385 -0.5060885 -1.1976287
0003f0 4c 99 11 bf 02 24 9e bd db a1 cc bf 5a 72 0b be
       -0.5687454 -0.07721712 -1.5986894 -0.1361784

fc_layers.2.weight f4 [512, 256]
000000 40 ca ca 3d 0b 47 51 3d 4b 10 5f 3e 03 f6 a2 3c
       0.099018574 0.051093142 0.21783559 0.019892698
000010 e1 74 8c bc b2 86 ee bd 8c c7 38 3d 59 8c 59 be
       -0.017145576 -0.11646785 0.045112178 -0.21244945
000020 33 3e ad bd f4 13 6d bc bc c8 37 be df 4e 4b bd
       -0.08459129 -0.014470089 -0.17947668 -0.049635764
000030 27 dd 81 bd e7 c0 60 3c 70 15 7a ba 23 60 ce bd
       -0.063410096 0.0137178665 -0.00095399376 -0.100769304
000040 77 34 da bd d5 aa a5 3c 4a 5e 92 3b a0 22 f8 3d
       -0.10654538 0.02022306 0.0044668065 0.12115979
000050 7c a6 fc bc d7 88 5b 38 93 30 78 be 1f b5 1c 3e
       -0.030841105 5.234111e-05 -0.2423728 0.15303467
000060 07 6f 30 3d 4f 61 f0 3a d3 3a 90 bd 70 b0 24 be
       0.043074634 0.0018339547 -0.0704247 -0.1608293
000070 49 60 be 3e 55 46 99 bd 82 c6 2b bd 61 74 16 bd
       0.37182835 -0.07484118 -0.04193736 -0.03673208
000080 ed c1 c6 3d d1 43 d1 3c 4a 3d d2 bc 57 68 b8 bc
       0.09704957 0.025545033 -0.02566399 -0.02251069
000090 cf 36 8f 3e f9 0d 8e bc 14 f0 0a 3e 63 84 2b 3d
       0.27971503 -0.017340647 0.13568145 0.0418743
0000a0 78 94 e0 bd 6a 3c 9b bc ed 60 03 3e c5 a1 cc 3d
       -0.10965818 -0.018949706 0.12829943 0.099917926
0000b0 de 62 45 be 97 02 04 3d d6 19 69 3e e0 eb 0d bb
       -0.19275996 0.032229032 0.22763762 -0.0021655485
0000c0 d0 5c 0e bc 6b 5e 1a bd eb ba 91 bc fe 19 75 bd
       -0.00868912 -0.0376877 -0.017789325 -0.05983924
0000d0 63 7f 15 bd 28 82 1a 3e 74 af 40 3a e0 e0 c2 3d
       -0.03649844 0.15088713 0.00073503633 0.09515548
0000e0 0a eb 08 3d a0 dc ed bd 66 61 88 3c ed 75 e0 bd
       0.033427276 -0.116143465 0.016648006 -0.109599926
0000f0 ba 55 56 bc 44 ea af bc d4 59 52 3d a8 c4 d1 bd
       -0.013081962 -0.021474011 0.051355198 -0.10242587
000100 3c a9 72 3e 58 29 bc bd 16 ca 83 3c 3a 14 1d 3e
       0.2369737 -0.09187573 0.016087573 0.15339747
000110 8e 31 81 bc 2b 6a 71 bd 67 8a 07 3e 7f 39 e4 3c
       -0.0157707 -0.05893914 0.1323639 0.027859448
000120 7e aa 36 bd ef 79 7f 3e 30 0d 01 3e b1 a7 10 3b
       -0.044596188 0.24948858 0.12602687 0.0022072608
000130 04 96 b7 3d 38 57 b9 bc a5 1a 07 bc 15 6c c1 3c
       0.0896416 -0.022624597 -0.008246099 0.023611108
000140 9c d2 9e bd 31 21 01 bc b7 53 bc 3d 44 35 a1 3d
       -0.07755014 -0.007881449 0.09195655 0.07871488
000150 e0 79 4e 3d f5 61 43 3e d3 bd 41 bd ff 53 80 bc
       0.050409198 0.19080336 -0.04730017 -0.015665052
000160 f4 94 7d bd d8 c8 cf 3d 56 ed 5d bd 71 3b 66 be
       -0.06190963 0.1014573 -0.05418142 -0.22483613
000170 cc a2 df 3d 2f 19 39 3d 40 59 5e 3d d3 fd e9 3d
       0.10919723 0.045190033 0.054284334 0.11425366
000180 dd 3d 3c 3d 50 89 6f bc ae 79 aa bc 9f f7 89 3c
       0.045957435 -0.01462014 -0.020809975 0.016841708
000190 c6 45 e8 3c d4 53 74 3e 24 48 a6 3c 34 0c 8c 3e
       0.028353583 0.23860103 0.020298071 0.2735306
0001a0 1a 8f 30 be dc 22 f8 3c 0c e1 81 bd 0f d2 39 3e
       -0.17242089 0.03029006 -0.063417524 0.18146537
0001b0 9b dc 59 3d fc 55 14 3d a5 54 ab 3c 39 b0 df bb
       0.0531889 0.036214814 0.020914385 -0.0068264273
0001c0 ed 88 cc bd 9f 74 67 3d 07 87 c9 3d e7 3c b6 3a
       -0.09987054 0.056507703 0.098402075 0.0013903648
0001d0 d4 62 b0 bd 74 a2 ff 3d db 3f e0 bd e2 72 8c bd
       -0.086126 0.12482157 -0.109496795 -0.0685785
0001e0 0c 1c 10 3d eb 1b 3d bc a1 cb 88 3e bc 38 f7 bd
       0.035182998 -0.011542301 0.26717857 -0.12071368
0001f0 a5 f8 d7 bd 89 d9 7a bd d3 1f 53 bd cc cf 29 3d
       -0.10545472 -0.061242614 -0.05154402 0.041457936
000200 01 3b ac 3b 84 ca b0 bd 39 42 8a 3c 9e b7 eb 3d
       0.0052560573 -0.08632377 0.01687728 0.115096316
000210 a3 9e 41 bd 25 b3 0b 3d 2a d0 1d bd a3 7b a4 3e
       -0.04727043 0.034106392 -0.0385286 0.32125577
000220 b9 16 06 be cd c8 ae 3c 56 a2 13 be d6 17 36 bd
       -0.13094606 0.021335984 -0.14417395 -0.044456325
000230 8c 62 71 3c 63 87 40 3d 9c 32 39 be 6a 34 60 bc
       0.014732968 0.047004115 -0.18085712 -0.0136843715
000240 4e 74 ee 3d 8d 37 8c bd 84 66 a5 3d 6c 8b 5b bd
       0.11643277 -0.06846533 0.08076194 -0.05359976
000250 e5 6f 3b 3d 35 c2 4e 3d 77 c1 e1 bc 68 b7 7a bc
       0.045761008 0.05047818 -0.027558072 -0.0153025165
000260 5c 33 75 bc 7c db 1b be 7b 91 ad 3e d4 0b f4 bd
       -0.014965858 -0.15220445 0.33900055 -0.119163185
000270 12 5e 39 3c 8c 34 bc 3d 57 77 fb bd 04 6e 86 bd
       0.011313932 0.0918971 -0.12278622 -0.065639526
000280 18 66 e0 3c 5e 35 17 bd fb 50 11 3d 34 b1 b7 bc
       0.027392432 -0.03691613 0.03547762 -0.022423364
000290 08 76 ab 3d d9 84 74 bc df 65 73 3c 1a f8 31 bd
       0.08372122 -0.0149242515 0.014855831 -0.0434495
0002a0 bc 01 42 bd c7 20 ce bc cb 3d 7d bc 1e 6d f9 3c
       -0.047364935 -0.025162114 -0.015456627 0.030447539
0002b0 97 bd 9f 3c 3e 75 5d 3c f6 8c 57 3d 82 a9 4d bd
       0.019499583 0.013516722 0.052624665 -0.050210483
0002c0 eb 8c 0d 3e ad 16 9c bc 9b 80 6b bb 62 a5 37 be
       0.13823287 -0.019053781 -0.003593481 -0.17934182
0002d0 ec 37 2b 3e 3f 02 d1 3c 3a ae 1e bd d2 ea c6 bd
       0.16720551 0.025513766 -0.038740374 -0.09712757
0002e0 3d b8 d1 39 c2 c4 97 3c a4 f0 af bc 36 00 23 bd
       0.00040000855 0.018526439 -0.021477051 -0.039795123
0002f0 a0 41 aa 3c 93 4a a4 3e d5 58 f4 bd 5f ce 5f bc
       0.020783246 0.32088146 -0.11931006 -0.013660043
000300 63 c0 04 be 21 50 31 bc f1 f4 00 3d 19 99 b4 3c
       -0.12964015 -0.010822327 0.031483594 0.022045659
000310 15 0f 91 bc 53 98 c2 bc a9 af 86 bd 02 f8 cc 3d
       -0.017707387 -0.023754274 -0.06576473 0.10008241
000320 c9 70 74 bc a8 df 9b 3d 62 1a ef 3d 76 54 30 bd
       -0.014919468 0.076110184 0.11674954 -0.0430493
000330 4c 38 b0 3c 1e 21 bd 3c 6c c4 b0 3d a1 44 98 3d
       0.02151122 0.02308708 0.086312145 0.07434965
000340 43 6c 9f bd 60 45 b9 3d dd 78 c9 3d a9 73 6f 3d
       -0.07784321 0.09046435 0.09837506 0.05845991
000350 de 4b 8c bd 0c 25 54 3e 67 4f 01 3e bc fb 8a 3c
       -0.06850408 0.20717257 0.12627946 0.01696574
000360 12 b8 34 3c de 3d 6f bc 94 e7 88 3c 80 05 71 bc
       0.011030214 -0.014602153 0.016711988 -0.014710784
000370 8b b0 3b 3d c1 75 00 be e8 4c 4d 3e a6 c5 ba bd
       0.04582266 -0.1254492 0.20048869 -0.0911973
000380 04 39 87 be 65 0b a4 3e 32 17 e4 bd 58 b4 b6 bd
       -0.26410687 0.32039943 -0.11137237 -0.089211166
000390 63 8b ba 3d 87 df 06 3d f8 21 c8 bd 83 47 59 3d
       0.09108617 0.032928016 -0.09772104 0.053046715
0003a0 78 20 1c 3d 75 4d 45 bd e0 76 12 bc d4 99 ab 3d
       0.038116902 -0.048169572 -0.008939475 0.0837895
0003b0 e1 3f 08 bc ae 01 1e bc 75 84 54 bc df cd 80 3d
       -0.008316011 -0.009643955 -0.012971033 0.06289267
0003c0 83 62 be bd 5a 11 2d 3e 68 01 2c be 39 8f ee bc
       -0.09296133 0.1690115 -0.16797411 -0.029121028
0003d0 11 56 ce 3d 12 d1 fc 3c fb 12 84 3e 78 e9 d8 bc
       0.100750096 0.030861411 0.2579573 -0.026478514
0003e0 8d 02 35 bc 4e 6a 74 3e ef 14 c9 3b 55 b5 9c bd
       -0.011047971 0.23868677 0.0061365287 -0.07651774
0003f0 41 91 ae 3d 96 a3 c5 bc 71 df b3 bc 20 6d 8b 3a
       0.08523799 -0.024125855 -0.021957131 0.001063738

fc_layers.2.bias f4 [512]
000000 24 8c 73 bd 88 04 01 bf 44 07 40 bf 06 7c 90 be
       -0.05945982 -0.5039754 -0.75011086 -0.28219622
000010 99 e8 fc be de 81 75 be 11 06 28 be a4 9a 7b be
       -0.49396208 -0.23975322 -0.16408564 -0.2457071
000020 2e 89 40 be 2f df 80 be 55 ab d9 3e 46 77 80 be
       -0.1880233 -0.25170276 0.42513528 -0.25090998
000030 6c ca 1e bd 18 61 bc bc f4 e5 29 bc f0 63 76 be
       -0.038767263 -0.022995517 -0.0103697665 -0.2406156
000040 ef 97 37 be 54 99 93 bd 19 9e 1c bf 22 1f 0f 3e
       -0.17929052 -0.072069794 -0.6117874 0.1397672
000050 09 14 10 bd b4 0e 0e 3e f5 d9 0a bf 45 ef 15 3f
       -0.035175357 0.13872796 -0.54238826 0.5856822
000060 b3 b9 ac 3f fa 0b 9b bc 27 2d 17 bf 63 65 14 be
       1.3494171 -0.01892661 -0.5905327 -0.14491801
000070 37 b1 96 be 50 47 a6 be c1 66 1f bf a4 38 1e 3e
       -0.2943208 -0.32476282 -0.62266165 0.15451294
000080 95 46 4c be 15 bb 67 3e 9c 60 7f be 7e ad 82 be
       -0.199488 0.2262996 -0.24939197 -0.2552299
000090 be 2d cf be 1e 53 9d be 3a a8 64 bf 26 8f 85 be
       -0.40464586 -0.30727476 -0.89319193 -0.26085776
0000a0 03 90 52 be 3b 99 cd 3d 41 97 25 be 44 27 26 be
       -0.20562749 0.10038992 -0.1617098 -0.16225916
0000b0 c4 28 d3 3b 88 8f 83 be 52 bf 66 be 56 4b 5b 3e
       0.0064440686 -0.25695443 -0.2253392 0.21415457
0000c0 07 54 b1 be be ef 6c be 08 bd 1c 3c 8e 37 17 3d
       -0.3463442 -0.2313833 0.009566553 0.036918215
0000d0 4f 16 28 be 6f 4e ca bd 15 26 74 bd 49 14 e5 bd
       -0.1641476 -0.09878241 -0.05960663 -0.1118551
0000e0 a4 19 87 be 35 c9 8f bd 9a b0 15 3d 22 0e 47 be
       -0.2638675 -0.07020799 0.036545373 -0.19438985
0000f0 7e bb ce be c2 37 80 be 5e dc 78 be 12 be bb 3d
       -0.4037742 -0.2504254 -0.24302813 0.091671124
000100 32 45 af be 95 a5 55 be 05 65 96 3e e6 7f 52 be
       -0.3423248 -0.20863946 0.29373947 -0.20556602
000110 d2 55 05 3e 4a 0c 9a be 47 d2 2f 3f c9 cb 7c be
       0.13021019 -0.300875 0.6868023 -0.24687113
000120 f2 8f dc 3d 3d 47 8d be 6b 89 7d be 40 fb 0b bf
       0.10769643 -0.27593413 -0.24759452 -0.5468025
000130 22 ab 40 be dc f1 37 3f 85 ff 4a 3f 28 ed 80 3f
       -0.18815282 0.71853423 0.7929614 1.0072374
000140 e4 cc 87 bd f1 52 90 be c6 d0 bc be 2f 29 76 bd
       -0.06630877 -0.2818828 -0.36878031 -0.06009787
000150 63 43 01 3e da 0e 47 3d 55 6b 2e be 55 66 63 be
       0.12623362 0.048598148 -0.17033131 -0.22207005
000160 4b 50 27 be 28 69 a9 3d 48 76 0f bf fc 14 71 bd
       -0.16339223 0.0827201 -0.5603986 -0.058857903
000170 a3 ff ed be 6a 17 9b be cd 68 80 3e fe 9c 8e 3f
       -0.46484098 -0.302913 0.25079957 1.114166
000180 66 6f d4 be 92 08 98 be 5b ff a4 be b4 b5 e2 be
       -0.4149124 -0.2969404 -0.3222607 -0.44279253
000190 02 0a bd be 0a 10 a2 3d bb a6 c2 be 54 4b a5 be
       -0.36921698 0.079132155 -0.3801783 -0.32284033
0001a0 10 f7 17 bf 43 2d 2b be f6 11 98 be bf f6 66 3e
       -0.5936136 -0.16716485 -0.29701203 0.22555064
0001b0 64 36 86 bf 59 ef f4 3d dc f3 e1 be d1 af c0 be
       -1.0485349 0.119597144 -0.44131362 -0.37634137
0001c0 c0 f1 c0 be 88 22 16 3d 67 78 73 bf 08 07 1d be
       -0.3768444 0.036654025 -0.95105594 -0.15334713
0001d0 2c 38 1b be c0 c4 a3 be 96 2f ef be 72 3e 8d be
       -0.15158147 -0.31986046 -0.46715993 -0.27586704
0001e0 1c e7 d9 be e3 c4 b1 be d1 ad 28 3d 53 6c 29 be
       -0.42559135 -0.34720525 0.04118139 -0.16545229
0001f0 8c 4a be be 0f fe 99 3d b3 0d dc 3c 41 c3 9c be
       -0.3716625 0.07519161 0.026862001 -0.30617717
000200 14 e6 eb bd 3e b0 cb bb 86 7e 1c 3e a6 9a 94 bd
       -0.11518493 -0.006216078 0.1528264 -0.07256059
000210 37 83 eb 3d 7a d3 72 be b3 02 4c be 20 04 97 be
       0.114996366 -0.23713484 -0.19922905 -0.29495335
000220 60 35 f9 bd a9 1b 68 be 19 9d c3 be 9c 71 ed be
       -0.121683836 -0.22666802 -0.38205793 -0.4637574
000230 25 c7 6b 3f f3 85 50 3f e4 4c 5f bf 08 a9 a9 be
       0.92100745 0.8145439 -0.872267 -0.33136773
000240 88 5e b4 bd c1 64 ed 3c f9 5b aa be f1 f2 52 bf
       -0.08807093 0.028978707 -0.33273295 -0.8240195
000250 49 69 f4 bd 3d 96 a1 be 01 f1 c0 be 5f e4 58 be
       -0.11934144 -0.31559935 -0.3768387 -0.21180867
000260 ce 1e 96 3e ee 4c 16 bf 42 e8 bf 3d de 17 6d bf
       0.29320377 -0.58711135 0.093704715 -0.92614543
000270 18 6b 33 be 55 5b d5 be 62 bd 41 3e 82 7a 8d 3e
       -0.17521322 -0.41671243 0.189199 0.2763253
000280 b1 2a b6 be 76 d3 09 3f ef bd a8 bd cb 33 f0 bd
       -0.35579446 0.5383829 -0.08239352 -0.11728629
000290 68 1e 4e 3d bd ff cc 3e 3e 7f bd be e6 fa 79 3f
       0.050321966 0.40038863 -0.3701114 0.97648466
0002a0 b3 2c 05 3e 61 c7 03 be 01 64 86 3f 82 c4 3d be
       0.13005333 -0.12869026 1.0499269 -0.18531993
0002b0 8b ef 33 3e ae d4 d0 3b 7f d3 9f be b3 e5 26 3d
       0.17571847 0.0063730096 -0.31216046 0.040746402
0002c0 b1 d8 08 be ef ac 09 3f 12 cc 82 bf a7 60 68 3f
       -0.13363911 0.537795 -1.0218527 0.9077248
0002d0 12 d0 37 be 4b 75 91 be 8e 7e 2e be eb c4 be be
       -0.17950466 -0.284098 -0.17040464 -0.3725961
0002e0 c7 14 8a be 4c f5 e0 be 65 d9 d2 be b7 57 92 be
       -0.26968977 -0.43937147 -0.41181484 -0.28582546
0002f0 71 2b 8e 3e bc 88 5f ba 28 3d c7 be 6b dd bb be
       0.27767518 -0.000852715 -0.38913846 -0.36692366
000300 ab 09 e3 3c 6c 40 e5 3d 2d 59 09 bf 7e d8 0a be
       0.027714571 0.11193928 -0.53651696 -0.13559148
000310 c4 ba 0b be bb d8 b7 be 36 30 a0 be ae ff 1b be
       -0.13645464 -0.3590754 -0.31286782 -0.15234253
000320 cc 70 f3 bc 2a 92 57 3e bf f1 1c be 8c c7 ba be
       -0.029716872 0.21051851 -0.15326594 -0.36480367
000330 5e 98 88 3f f8 69 3c be e2 5b bd be 60 66 b7 3d
       1.0671499 -0.18399799 -0.36984164 0.08955073
000340 bb e9 44 be e2 28 a1 3e b7 22 51 be 86 86 ec be
       -0.19229786 0.31476504 -0.20423399 -0.46196383
000350 c6 e4 d2 3e df c2 01 be 1a 99 5e be 23 cf 9a 3d
       0.41190165 -0.12671994 -0.21738091 0.075590394
000360 cc a2 ac 3d c0 86 c5 be 9d 8a 17 bf 9a c1 1f bf
       0.084294885 -0.3857937 -0.5919588 -0.6240479
000370 39 ec 95 be 6c b5 59 be b7 5a 0a 3e 00 b2 46 3d
       -0.29281786 -0.21260613 0.13511167 0.048509598
000380 b7 06 02 be 8a 3f 57 3e a5 ab 3c be a9 be 77 be
       -0.12697874 0.21020332 -0.18424852 -0.24193825
000390 6d fc 19 bf 15 2f 09 bd 41 7e c2 be 11 1c 49 be
       -0.60150796 -0.033492167 -0.3798695 -0.19639613
0003a0 22 93 28 bf e0 35 0b bf 9f 7c 39 3f 91 2e 2a be
       -0.65849507 -0.5437908 0.7245578 -0.16619326
0003b0 43 48 88 3e 4c 6d f3 3d 02 7c 60 bd f9 44 cb bd
       0.2661763 0.11886081 -0.054805763 -0.09925265
0003c0 0b 97 91 bd 61 cb 77 be 0e a7 1f bf 94 54 c4 be
       -0.07108887 -0.24198677 -0.6236428 -0.38345778
0003d0 cf 0e 8e be 18 d1 29 bf be f2 a0 be 73 94 3b be
       -0.27745673 -0.66334677 -0.31435198 -0.18318348
0003e0 81 28 2e bf f4 b5 6f 3e 55 d5 75 bf d6 05 19 bf
       -0.68030554 0.23409253 -0.96028644 -0.5977453
0003f0 dc 57 b4 be 4f a0 0a bf 10 ce 05 bf 1e 1b 9c be
       -0.3522328 -0.5415086 -0.5226755 -0.3048944

fc_layers.4.weight f4 [128, 512]
000000 1a 6c 6a 3c a0 8b ae bc a6 23 65 bf d4 86 c4 bc
       0.014308 -0.021306813 -0.8950752 -0.023990072
000010 55 b4 bd 3c 9a 12 48 bb db 75 bd 3b c5 bd 1b 3d
       0.023157278 -0.0030528666 0.0057818717 0.038022775
000020 4d 29 19 3d d3 68 08 3c 62 29 bc 3c 8b fe 76 bd
       0.037392903 0.008325773 0.022968952 -0.060301345
000030 09 49 ae bd a7 50 b3 3c 7e 1f 8d bc 1a 05 3c bc
       -0.08510024 0.021889044 -0.01722693 -0.011475826
000040 e6 76 36 3c ca d7 14 bc f6 d0 ee bd 8e 99 f2 3c
       0.011136746 -0.009084651 -0.1166095 0.029614236
000050 bd 40 42 bd 5c ad a5 bb d7 fb d3 3c f1 9d 04 3e
       -0.04742502 -0.0050560664 0.025876923 0.12950875
000060 04 55 94 bd 45 3e a0 bb 24 58 f7 3c 02 5e e7 bc
       -0.07242778 -0.0048902356 0.030193396 -0.028243069
000070 e6 46 9f 3c 9c d2 0c 3c 2f a3 37 bf dd 28 4e 3c
       0.019442987 0.008595135 -0.71733373 0.012582985
000080 fc 36 17 3d 7f 4a 35 3d 8b d9 49 3b 27 f5 4c bc
       0.03691767 0.044260498 0.0030799832 -0.012509621
000090 6d 92 43 3c 75 11 a2 bc 24 7b c0 3d db b6 60 3b
       0.011936766 -0.019783715 0.09398487 0.0034288678
0000a0 22 5c 95 3c 02 1c 30 bc 35 65 cc 3d 1d 0e a6 bc
       0.018232409 -0.010748865 0.09980241 -0.020270402
0000b0 e8 7c 6d 3b 13 23 ca 3c 1e 8c 01 3d 58 2a a4 bb
       0.003623778 0.024674928 0.031627767 -0.0050099306
0000c0 8f 05 f0 3b ad 05 95 bb b0 28 e2 3c db 0e 0e 3b
       0.0073248814 -0.0045477957 0.027607292 0.0021676335
0000d0 13 c1 d7 bf 36 df 07 bc ff 42 f9 bb 3b 87 f2 b9
       -1.6855797 -0.008292964 -0.0076068635 -0.00046258591
0000e0 f2 0c 7d 3c 62 33 2a bc d3 4a 19 bc 1d 97 31 3c
       0.015444981 -0.010388227 -0.009356218 0.010839251
0000f0 59 e8 44 bc 91 50 62 bc ed 10 92 3c ec 9f f2 3c
       -0.012018287 -0.013813154 0.017830336 0.029617272
000100 5c d7 cf bc 6c 19 3d 3c 78 e5 a3 3e 82 00 f5 b9
       -0.025371246 0.011541706 0.32011008 -0.0004673042
000110 23 b9 8a 3c 64 d8 48 bc fc 79 91 bd 96 59 b9 3c
       0.016933983 -0.012258623 -0.07103345 0.022625726
000120 a6 c5 3d 3c 6a c1 1c bc 5a 58 65 be 69 1a 12 bc
       0.011582768 -0.009567598 -0.22396985 -0.0089174295
000130 fb 3e 7e bb 4b d8 89 be 19 ad 8f be fe 00 c9 bd
       -0.0038794864 -0.2692283 -0.2806175 -0.09814642
000140 41 86 9f bc 1c b9 c9 3b ba 28 f3 3b ec 16 a4 ba
       -0.019473197 0.0061561 0.0074206265 -0.0012519038
000150 55 3c 8f 3c 8a 10 9d 3b 4b 45 52 3b 8e 75 f8 3c
       0.017484823 0.0047932314 0.003208476 0.030329492
000160 3f c1 0a 3e 57 20 35 ba 2d 24 07 3d 68 85 e0 bb
       0.1355028 -0.0006909421 0.032993484 -0.0068518408
000170 73 b3 9d 3d 97 52 9c ba 73 7f be 3d b7 bf 3a bd
       0.07700243 -0.0011926469 0.09301653 -0.04559299
000180 7c f1 c9 3c 49 4f ab 3c 5a 6b 91 3c a2 ab 9a 3c
       0.024651282 0.02091183 0.017751385 0.018880669
000190 fc c3 3c 3d c7 2d 5e bc ea 37 23 3d 40 dd 90 3d
       0.046085343 -0.013560719 0.039848246 0.0707345
0001a0 d7 2f 39 3b 4a 54 19 bb 63 e5 14 3d 26 ad 18 bc
       0.0028257275 -0.0023396187 0.036351573 -0.009318626
0001b0 2e 22 27 3d 15 e2 38 3e b6 87 e0 3c 76 9f 7e 3b
       0.04080408 0.18054993 0.027408462 0.003885237
0001c0 8b 44 18 bc 43 e3 cd b9 2b f0 90 3d e2 39 31 3a
       -0.009293686 -0.0003926997 0.070770584 0.00067606394
0001d0 df 26 ce 3c 32 92 a6 3b 10 dc 5a 3c 77 f4 ea 3c
       0.02516502 0.005083346 0.013358131 0.028681023
0001e0 f5 0e 2c 3c 01 31 a9 bd a8 1e 46 3c ec 99 1e 3b
       0.010501613 -0.082613 0.01209227 0.0024200631
0001f0 17 1e 8b 3c c9 e8 5c 3c 87 95 ad be 79 b1 b0 3b
       0.016982121 0.013483235 -0.33903143 0.00539225
000200 94 c3 76 3c d1 d1 9e 3c 1e cb 6e 3d 63 a3 c5 bb
       0.015061278 0.019387158 0.058299176 -0.00603144
000210 3d 05 32 3c 36 18 36 bc d0 22 54 bb cc ea c6 3b
       0.010865507 -0.011114171 -0.0032369383 0.0060704704
000220 3f e8 ae bb 87 1b 3d 3d 23 0b 6f 3c b1 d8 e7 3c
       -0.0053377445 0.04616883 0.014590058 0.028301569
000230 ec cb 93 bd c8 59 f5 bc e2 a4 da 3c e1 7c 66 bc
       -0.072166294 -0.029950038 0.02668995 -0.014067859
000240 02 02 d7 bb 5a 14 bc 3c 7f 41 15 3d 0d 52 95 be
       -0.0065615186 0.022958923 0.036439415 -0.29164162
000250 a4 22 cd bc fd 11 00 3c dc c4 9c 3c b4 65 af bc
       -0.025040932 0.007816789 0.019136839 -0.0214108
000260 38 6c ac bb 34 1c 7f bb 68 55 e7 3c 76 7f 9b 3d
       -0.005261924 -0.0038926722 0.028238967 0.075926706
000270 2e 01 ba 3b cf 4f d9 3c 79 2b 7c bd 93 6b 0d bc
       0.00567641 0.026527314 -0.061564896 -0.008631605
000280 90 b9 24 3d 96 96 6f bc 89 e3 a0 bb 0d 9c 82 3d
       0.04021603 -0.014623305 -0.004909937 0.063774206
000290 76 dd 51 bc 92 1b cf 3c 4e 21 14 3d 97 97 6d bd
       -0.012809148 0.025281701 0.036164574 -0.058005895
0002a0 8b c5 72 3c 03 5f 0d 3d 5c 43 8e bc 84 10 1a 3d
       0.014817606 0.03451444 -0.017366104 0.037613407
0002b0 1e e5 b6 3c e5 ae 80 bd e2 1d 13 bc 8e 60 4d bb
       0.022326048 -0.062833585 -0.008979293 -0.0031338069
0002c0 e0 74 18 bc d0 21 58 bf 13 57 8c 3d b9 36 37 bf
       -0.009305209 -0.84426594 0.068525456 -0.71567875
0002d0 eb 3f 0b bb 70 23 c5 3c b1 fe 0e 3c 1d e5 3a 3e
       -0.0021247815 0.02406475 0.008727715 0.18251462
0002e0 6c a7 67 3d c8 bd 7d 3c cf 2f f1 bb ff e4 7a bb
       0.05655615 0.015487142 -0.0073604356 -0.0038283465
0002f0 d0 08 b3 3c 9e 63 3c 3c b5 7d 8b 3c 4c 4f 05 3c
       0.021854788 0.01149836 0.017027715 0.008136582
000300 cd 96 81 3b 08 19 fc bc 15 92 ec 3c cc 54 f5 3c
       0.0039547444 -0.030773655 0.028878251 0.02994766
000310 8d 03 97 bc e6 77 2a be e6 c8 03 3d 2e ee 53 bd
       -0.01843431 -0.166473 0.032174014 -0.051740818
000320 0b a2 af bc f6 9b 69 bd 8c e7 86 bd 3b 45 7b 3d
       -0.021439573 -0.0570335 -0.06587133 0.06134532
000330 b8 ce 16 bd 5d 39 ab 3c b9 c6 3a bd 17 89 54 3b
       -0.036818236 0.020901376 -0.045599673 0.0032430345
000340 ed 9b 7d ba a9 ad ca bb 4c 6b 6b 3b ec 47 9f 3b
       -0.0009674419 -0.0061852527 0.0035922108 0.0048608687
000350 b8 c3 9f bc 22 03 e3 3b f0 ed 7a bd 3e 40 56 3b
       -0.019502506 0.0069278637 -0.06126207 0.00326921
000360 99 f4 cc 3d 4d b3 60 bb 56 c4 55 3c ee 94 b3 bd
       0.10007591 -0.003428656 0.013047298 -0.087686405
000370 c1 8d ae bc 56 76 a4 3c 67 23 1a 3c 54 75 2d 3c
       -0.021307828 0.020075958 0.009407855 0.010587055
000380 39 d8 36 3b c8 9e 25 b9 2e 76 dc bb 7f c4 a1 3a
       0.0027899875 -0.00015794777 -0.0067279553 0.0012341886
000390 0b ac 25 bf 6a 76 b7 3c 2f 4f 7d 3c 50 2c 1e 3c
       -0.6471564 0.022395331 0.015460773 0.00965412
0003a0 11 24 02 3c 45 da ff 3c 40 eb 7e 3c 20 d6 d6 bc
       0.007943169 0.031232009 0.015559018 -0.02622515
0003b0 4f 3c d2 bd 3d 8a a8 3c c8 59 3e bd c0 ee 6f 3b
       -0.10265409 0.02057373 -0.04647234 0.0036610812
0003c0 1a 6f da bc 4b 44 6e 3b 31 e3 66 bf 0c 61 42 3b
       -0.026664305 0.0036356624 -0.90190417 0.0029659895
0003d0 b0 73 df 3c 66 d4 89 3d d2 8b a7 3c c5 fe e3 3c
       0.027276844 0.06729965 0.020452414 0.027831445
0003e0 09 24 78 bd ea 64 e8 bc 50 61 0c 3d af e9 7d 3c
       -0.06058124 -0.028368432 0.034272492 0.015497609
0003f0 9f 51 c4 3a 4b 34 30 3d 42 07 65 3d 5b 9a 81 bb
       0.0014977938 0.04301862 0.055915125 -0.003955168

fc_layers.4.bias f4 [128]
000000 25 56 3e 3e 73 ab ee be 50 4c 85 be e0 d9 92 3c
       0.18587549 -0.4661518 -0.26034784 0.017926157
000010 05 a7 27 be 54 1e 1f 3e 24 c3 3c 3b 8c 24 31 bf
       -0.16372307 0.15538913 0.0028802836 -0.6919639
000020 ad fb a0 be 5f 7d cb bc 24 a7 ed 3d 0b 41 b7 bd
       -0.31442013 -0.024840055 0.11604145 -0.08947953
000030 19 51 f1 be 8d 2a 97 be 83 da 6c be b8 d8 df 3d
       -0.47132185 -0.2952465 -0.2313023 0.10930008
000040 d3 e0 e5 bb 5d e6 27 be 3f fa 47 bf 9a 51 66 3d
       -0.0070153265 -0.1639647 -0.7811622 0.056230165
000050 9b 6e 1c bd 90 44 09 3d 42 ca 68 be 47 ca ff bd
       -0.03819142 0.033512652 -0.22733405 -0.12489753
000060 94 27 a7 3b ae f0 ec ba f2 7a 97 bd 50 79 0e bf
       0.0051011536 -0.0018077099 -0.07396497 -0.5565386
000070 c4 87 14 3e 91 ee 1c 3e 25 b0 92 3c 35 36 1a 3e
       0.14504915 0.15325381 0.017906258 0.15059741
000080 c8 33 a7 be d3 23 a9 be c8 6b 02 bd 88 8d 8d 3d
       -0.32656693 -0.33035144 -0.03184107 0.069117606
000090 c5 01 a7 bd 6a ed 10 3e 92 a1 f0 3d c5 03 8f be
       -0.081546344 0.14153066 0.11749567 -0.27932563
0000a0 47 ec a2 be 57 0c 70 3e 72 09 e2 3d 59 22 bc 3d
       -0.3182089 0.23442207 0.11036958 0.09186239
0000b0 b0 d1 27 bf ef 82 2a be 7b 92 2f be d7 22 be 3d
       -0.6555433 -0.1665151 -0.17145722 0.09283989
0000c0 3a d7 2d 3e b7 db 8e 3d 3b 8c 6f 3e c4 4d 30 3e
       0.16976634 0.06975501 0.23393337 0.17217165
0000d0 e5 a1 3d 3c bf c2 72 3d ef d7 99 3d f7 ef f1 bb
       0.011574243 0.059267756 0.07511889 -0.0073833424
0000e0 38 00 8e 3d e9 4d f0 be 86 8c 2d 3e 14 53 1f be
       0.069336355 -0.4693444 0.16948137 -0.15559036
0000f0 62 11 ef be 1a bf 66 3c f9 08 ea be ac 49 5c be
       -0.4669295 0.014083648 -0.4570997 -0.21512479
000100 bc 69 5a 3d c2 27 ea 3d f5 c6 10 bc 1d 9c c8 3d
       0.053323492 0.114333645 -0.008836498 0.09795401
000110 5e 79 19 bf a9 e1 31 bf f0 1b 78 be 50 4f 27 3e
       -0.59950817 -0.69484955 -0.24229407 0.16338849
000120 6c ce ab be 8d fc 11 3d 4e 6f 3e bf cc 47 98 bd
       -0.33555925 0.03564124 -0.7438859 -0.07435569
000130 a5 5e cf ba 77 4b 92 3d dc 88 9d be 5d 8b 02 bc
       -0.0015821053 0.071433 -0.30768478 -0.007967797
000140 bf 27 c3 3e 96 c4 f3 3b f5 b0 07 bf d1 51 2c bf
       0.3811626 0.0074392064 -0.5300439 -0.6731234
000150 22 3e e9 3d ea 30 0a 3c 37 fa df 3b 9b c2 30 bf
       0.11388804 0.008434514 0.006835248 -0.69046944
000160 f7 b4 76 3e f1 91 10 be ee b7 28 bc f3 e8 2f 3c
       0.2409247 -0.14118172 -0.0102977585 0.010736692
000170 08 ed c8 bc 85 f1 86 be 42 57 3f 3d 10 63 14 bf
       -0.024527088 -0.2635614 0.046714075 -0.5796366
000180 c7 e9 6c be bd bc 93 be 41 e2 43 bf ff 8a 5b 3e
       -0.23136054 -0.28854933 -0.7651711 0.21439742
000190 64 ab 37 bf 05 72 08 bf 56 47 c4 3e 26 7f 0d bf
       -0.71745896 -0.5329898 0.38335675 -0.5527214
0001a0 04 b4 0d 3e 56 18 13 bf 91 25 83 bd eb fd b4 be
       0.13838202 -0.5745901 -0.064036496 -0.35349974
0001b0 0c ca 19 bc 8d 80 00 bc cb f3 dc 3d c0 94 2a bf
       -0.009386551 -0.007843149 0.10788687 -0.66633224
0001c0 be 21 d2 be c7 63 4c 3e 3c 58 41 3e 5e 36 20 be
       -0.41041368 0.19959937 0.18881315 -0.1564574
0001d0 4a 59 43 3e 51 f7 05 bf b1 68 f1 3d 65 20 3d be
       0.1907703 -0.523305 0.117875464 -0.18469389
0001e0 77 74 06 be af 2b 04 3e 81 cf cf 3c 27 c8 82 3d
       -0.13130365 0.12907289 0.0253675 0.06385832
0001f0 a6 a3 07 bd bf 92 89 3d ae 17 9c 3c de da 3f bd
       -0.03311505 0.06717443 0.01905426 -0.046839587

classification_layer.weight f4 [1, 128]
000000 60 78 e2 3f d5 92 cf be 01 1f 48 c0 0c f5 09 3e
       1.7692986 -0.4054171 -3.1268923 0.13472384
000010 12 b7 65 be 29 20 42 c0 10 af 5a c0 05 40 d4 3e
       -0.22433117 -3.033213 -3.416935 0.41455093
000020 4d cf 76 be f9 be 99 bf 50 dd 00 c0 27 9c b4 be
       -0.24102516 -1.2011405 -2.0135078 -0.35275385
000030 bd a5 10 3f fb b3 9a 3f bb 64 99 40 f2 0d 2c 3e
       0.56502897 1.2086176 4.793546 0.16802195
000040 62 15 82 c0 f5 89 a8 be ec 94 f6 be f4 d5 42 be
       -4.06511 -0.32917753 -0.48160493 -0.19026929
000050 89 81 9a 3f a8 c3 5d bf a8 f7 ab be 39 42 87 c0
       1.2070781 -0.8662667 -0.33587384 -4.226834
000060 65 1b 59 be 52 31 13 40 cd 34 77 3e 47 ec c7 bf
       -0.21201856 2.2998853 0.24141236 -1.5618981
000070 31 db 55 c0 f6 de 27 c0 c5 2e 26 3e e0 a1 5a 40
       -3.3415034 -2.6229835 0.16228779 3.41613
000080 50 0e f9 be db e9 85 3f b7 cc c6 be 6d 90 20 be
       -0.48643732 1.0461992 -0.3882806 -0.15680094
000090 fc d8 6f 40 9f f6 d5 3e dc 86 34 3e c8 ef 2c 40
       3.7476187 0.4178972 0.1762957 2.702135
0000a0 ef 3d 44 be 65 34 60 40 14 21 d8 bf 62 42 6d 3e
       -0.19164251 3.503198 -1.6885095 0.23169854
0000b0 77 a4 9c bf 02 03 83 c0 31 8a ab be d1 1f 63 40
       -1.2237691 -4.094117 -0.3350387 3.548817
0000c0 21 6a bb 3e cb d1 de 3f c4 d2 bd 3f dd 37 6f c0
       0.36604407 1.7407774 1.4829946 -3.7377846
0000d0 48 ed 2c be 70 d0 64 3e 66 21 3d c0 24 8e 18 be
       -0.1688739 0.22345138 -2.9551635 -0.14897972
0000e0 64 59 3f 3e 89 df 0f 3f 15 33 36 40 b5 37 6b 3e
       0.18686444 0.5620046 2.8468678 0.2297047
0000f0 a9 ae 97 be 88 c9 5e be ea 13 92 3f a7 39 01 3f
       -0.29625443 -0.21756566 1.1412327 0.50478595
000100 ce e9 57 40 de ce 42 40 15 92 ae be 65 73 3b 40
       3.3736453 3.0438762 -0.34095827 2.9289181
000110 74 38 c0 bf 69 d4 d2 3e dc 48 1b 40 b9 26 ff bf
       -1.5017228 0.4117768 2.426322 -1.9933692
000120 0c ae 9c c0 e4 06 94 3e b2 fe 0b bf 69 65 44 3e
       -4.896246 0.28911507 -0.5468551 0.1917931
000130 ba 63 d0 3e 46 fd 07 be ad 36 75 40 69 75 3b 40
       0.40701085 -0.1328021 3.8314621 2.9290411
000140 73 a0 b3 bf 02 e6 1b be a8 5e aa be 2a 34 1f 3f
       -1.403334 -0.1522446 -0.33275342 0.6218897
000150 47 a9 45 40 76 bf df 3e 86 c7 39 40 10 59 78 be
       3.0884569 0.4370076 2.902803 -0.24252725
000160 82 c4 ea bf 9b 21 a8 be 37 63 a2 3f ca 02 25 be
       -1.834122 -0.3283814 1.2686528 -0.16114345
000170 b4 ce 34 40 8d ae de bf a6 e4 d2 40 88 08 9e 3e
       2.8251162 -1.7397019 6.590411 0.30865884
000180 af 4c 3d 40 83 93 6d 3e 80 90 cd c0 7d 32 f1 3f
       2.9578054 0.23200803 -6.423889 1.8843533
000190 56 f9 5d 3f 95 4b bc 40 b5 b0 65 bf bb 09 b4 bf
       0.8670858 5.8842263 -0.8972276 -1.406547
0001a0 1d a2 39 40 24 0f 3a bf ae ba 31 3f 21 a7 68 c0
       2.9005196 -0.7267935 0.69425476 -3.6352007
0001b0 0c 2d b4 bf 34 11 44 be 0b d1 32 40 c9 52 cb be
       -1.4076247 -0.19147187 2.794009 -0.39711598
0001c0 0e a3 14 3f 53 e2 79 bf 69 b7 9e 3e 47 85 14 be
       0.580613 -0.9761097 0.30999306 -0.14503966
0001d0 d5 8e 96 bf b3 a5 b7 3e d2 b1 46 3e 9c cd f1 3e
       -1.1762339 0.35868606 0.1940377 0.4722718
0001e0 a8 5e d5 be 33 1a 3d c0 ac fe 4d c0 bc 1f 22 3e
       -0.4167378 -2.954724 -3.218669 0.15832418
0001f0 bd 39 9f c0 90 db 15 be 70 0c 8f 3f 4f e7 00 3f
       -4.975798 -0.14634538 1.1175671 0.5035295
