weights/3_piece.pth (torch, 930200 bytes, 7 tensors)

fc_layers.0.weight f4 [256, 133]
0	0x3d33d1a6	0.04390111
1	0xbce2c8e6	-0.027683686
2	0xbdc2b53d	-0.09507225
3	0x3e6df965	0.23239668
4	0xbbf1e88a	-0.007382457
5	0x3d41c863	0.047310244
6	0xbdcc3897	-0.09971731
7	0x3e8b604f	0.27221915
8	0x3c535afe	0.012900112
9	0xbcd60401	-0.026124956
10	0x3d79e2bc	0.061007246
11	0xbdc38de1	-0.09548546
12	0x3d85445c	0.06507179
13	0xbe1c39f2	-0.1525648
14	0xbd371d7d	-0.044705857
15	0x3dfbfa3f	0.1230359
16	0x3c8b827d	0.017029995
17	0x3bdcdb61	0.006740019
18	0xbce937c5	-0.028468976
19	0x3d80c17e	0.06286906
20	0x3d48ab74	0.048991635
21	0xbdb60731	-0.088880904
22	0x3d727db1	0.0592019
23	0xbdadcf53	-0.084868096
24	0xbd83f280	-0.064427376
25	0x3e222098	0.15832746
26	0x3c98d275	0.018655041
27	0x3b977d03	0.004623057
28	0xbcaa1d23	-0.020765847
29	0x3d35bdf2	0.0443706
30	0x3d5b0ff8	0.053482026
31	0xbdd3e8c5	-0.10347132
32	0x3d45f313	0.048327517
33	0xbdd6fa0a	-0.1049691
34	0xbdb1d71b	-0.08683606
35	0x3e6c2c32	0.23063734
36	0x3c59f5e7	0.013303257
37	0xbc872637	-0.016497714
38	0xbd167b52	-0.0367387
39	0x3db7b19e	0.08969425
40	0xbccca412	-0.024980579
41	0x3d95b134	0.073091894
42	0xbd2fc430	-0.04291171
43	0x3daf39af	0.08555924
44	0x3c52233a	0.0128257815
45	0x3d19ad27	0.037518647
46	0x3d512026	0.05105605
47	0xbd7efff8	-0.06225583
48	0x3c8f626a	0.017502982
49	0xbd4ad30e	-0.049517684
50	0xbd835486	-0.06412606
51	0x3e42bdce	0.19017717
52	0x3b9c7583	0.0047747507
53	0xbc538cf3	-0.012912023
54	0x3cd6127e	0.026131865
55	0xbd3dc902	-0.046334274
56	0xbc85fd7a	-0.016356219
57	0x3daed68b	0.085370146
58	0xbc24bd01	-0.010054828
59	0x3c44d54d	0.0120137455
60	0x3dafaf28	0.0857833
61	0xbe210243	-0.15723519
62	0x3cdf0c41	0.027227523
63	0xbd50c2db	-0.05096708
64	0x3cb74bec	0.02237507
65	0xbd5454d8	-0.051838726
66	0x3a813078	0.0009856364
67	0xbc9028c3	-0.017597562
68	0x3d1c0a6f	0.038095888
69	0xbdb959fe	-0.09050368
70	0xbd07dab9	-0.033167575
71	0x3dc4f058	0.096161544
72	0x3bb6e662	0.005581663
73	0xbbe94470	-0.007118754
74	0x3d88126d	0.066441394
75	0xbdc12e2e	-0.09432636
76	0xbd28191b	-0.041039567
77	0x3df92cd6	0.12166755
78	0xbd834b21	-0.06410814
79	0x3e2546ec	0.16140336
80	0xbd709273	-0.058733415
81	0x3e22ee21	0.15911151
82	0x3d88d1a3	0.0668061
83	0xbd46aee2	-0.048506625
84	0xbd3fac2c	-0.046795055
85	0x3de45524	0.11149052
86	0x3da43f1d	0.080198504
87	0xbe28bd6a	-0.16478506
88	0xbc06b88e	-0.008222712
89	0x3d8eb11e	0.06967376
90	0xbdc4cdbf	-0.096095555
91	0x3e4eb708	0.20187008
92	0x3d7672e9	0.06016818
93	0xbe06a7d9	-0.13149966
94	0x3d485e09	0.048917804
95	0xbd63dc8d	-0.055630255
96	0xbd364676	-0.04450079
97	0x3dd67326	0.104711816
98	0x3d3451e4	0.04402341
99	0xbd393550	-0.04521686
100	0xbc204e51	-0.009784297
101	0x3d27db82	0.040980823
102	0x3daf973c	0.085737675
103	0xbe056ca6	-0.13029727
104	0x3ca6d73e	0.020366307
105	0xbc7fb37d	-0.015606758
106	0x3c066012	0.008201616
107	0x3d0268ee	0.03183835
108	0x3a856a01	0.0010178686
109	0x3ce029f1	0.02736375
110	0xbc6ad500	-0.01433301
111	0x3d1c19d3	0.038110565
112	0x3d472c39	0.04862616
113	0xbdae74d0	-0.08518374
114	0x3db71df2	0.089412585
115	0xbe2ec62b	-0.17067783
116	0x3d462db4	0.04838343
117	0xbd8f9bc7	-0.07012134
118	0x3d0c3080	0.03422594
119	0xbd4c8c86	-0.0499387
120	0xbc080a67	-0.008303261
121	0x3b6b2cb2	0.0035884795
122	0xbc98a9dc	-0.018635683
123	0x3d4ad2bd	0.049517382
124	0xbcb48b06	-0.022038948
125	0x3d5fa62b	0.05460183
126	0xbd87d85a	-0.06633063
127	0x3e166b50	0.14689374
128	0x3ca88777	0.020572407
129	0x3c99e1b9	0.01878439
130	0x3c8a5afd	0.01688909
131	0xbc68ac9a	-0.014201308
132	0xbd4c47d0	-0.049873173
133	0xbd726c6e	-0.059185438
134	0x3e1de40b	0.15419023
135	0x3d82f7e5	0.063949384
136	0xbdeb2525	-0.11481694
137	0xbda1c037	-0.0789799
138	0x3e1a8a2c	0.15091771
139	0x3d6cae93	0.057783674
140	0xbd91f69c	-0.07127115
141	0x3cb35d51	0.021895083
142	0xbd2cc885	-0.042183418
143	0x3d58d086	0.05293324
144	0xbd918a06	-0.07106404
145	0x3c48d705	0.012258296
146	0xbd57c95f	-0.052682277
147	0xbd8dc23c	-0.06921813
148	0x3e12821e	0.14307448
149	0xbcd375f3	-0.025813079
150	0x3dcac723	0.099012636
151	0x3d63e754	0.055640534
152	0xbdb56ece	-0.08859025
153	0xbd862188	-0.06549364
154	0x3e10918d	0.14118023
155	0xbc8aaa02	-0.01692677
156	0x3d2cd7ac	0.04219787
157	0xbcdb36e5	-0.026759574
158	0x3d3644f9	0.04449937
159	0xbdb9f574	-0.090800196
160	0x3e39e28d	0.18152829
161	0x3c510536	0.01275759
162	0x3cf325d4	0.029681124
163	0x3d838d8d	0.06423483
164	0xbe071a30	-0.13193583
165	0xbd31564a	-0.043295182
166	0x3daf2a1e	0.08552955
167	0xbcbf717e	-0.023369547
168	0x3d86d15d	0.065829016
169	0x3d8bb723	0.0682204
170	0xbdd0ba51	-0.10191787
171	0x3d65af75	0.056075532
172	0xbd9c662a	-0.07636674
173	0x3d1b9edc	0.037993297
174	0xbd98309b	-0.07431146
175	0x3c645a18	0.013937496
176	0xbc406436	-0.011742642
177	0x3d187692	0.037222452
178	0xbb1d5fc0	-0.002401337
179	0xbd6f5920	-0.058434606
180	0x3dc6d1e7	0.097080044
181	0xbd94b036	-0.07260172
182	0x3e1a8096	0.15088114
183	0x3d5c4b64	0.053782836
184	0xbd6b24e5	-0.057408232
185	0x3d19be6d	0.03753512
186	0xbdd21818	-0.10258502
187	0x3cd3e16d	0.025864327
188	0xbdb1248a	-0.086495474
189	0x3d4b577a	0.04964397
190	0xbd9f733e	-0.077856526
191	0xbd5b2f1f	-0.053511735
192	0x3e054879	0.13015927
193	0x3d841d24	0.06450871
194	0xbdab38ba	-0.08360429
195	0xbd1629ca	-0.036660947
196	0x3d76c4e6	0.06024637
197	0x3d8c3d21	0.06847597
198	0xbdce666c	-0.10078129
199	0xbdb44031	-0.08801306
200	0x3e3a2753	0.18179063
201	0xbcd43afd	-0.025907034
202	0x3c397d50	0.011321381
203	0xbd5f6305	-0.05453779
204	0x3e18b073	0.1491106
205	0x3d56af3a	0.052413203
206	0xbdef4272	-0.11682595
207	0x3da1fdc6	0.079097316
208	0xbe133cca	-0.14378658
209	0x3d0eafb0	0.034835517
210	0xbc01dc5e	-0.007926075
211	0xbb7fa3a3	-0.0039007447
212	0xbc0d0b75	-0.008608689
213	0xbdef4863	-0.116837285
214	0x3e998e3d	0.29991332
215	0x3c055f5d	0.008140412
216	0xbd3a474e	-0.045478158
217	0x3d4c173c	0.049826846
218	0xbd4066ba	-0.046972968
219	0x3d8b4b00	0.068014145
220	0xbdbeab04	-0.093099624
221	0xbd5c9287	-0.053850677
222	0x3e34d73c	0.1766023
223	0x3cb5bff8	0.022186264
224	0xbda1eb3f	-0.07906198
225	0xbc505a4a	-0.012716839
226	0x3d93b7d7	0.07212799
227	0x3d69735d	0.056994785
228	0xbd8e5195	-0.06949154
229	0x3d02a2ea	0.03189365
230	0xbd2bbe58	-0.041929573
231	0xbd2167fd	-0.03940581
232	0x3d8b7a24	0.06810406
233	0xbc4b0f11	-0.012393729
234	0x3d03e548	0.03220108
235	0xbbf17960	-0.0073692054
236	0x3d09568d	0.033529807
237	0x3d43b208	0.047777206
238	0xbdb2bc0d	-0.08727274
239	0x3d062ea2	0.032759316
240	0xbdb0f342	-0.08640148
241	0x3d33465f	0.043768283
242	0xbd7b062a	-0.061285175
243	0x3d4978e7	0.049187567
244	0xbda4258c	-0.08014974
245	0xbd9f97d0	-0.07792628
246	0x3e374718	0.17898214
247	0xbd8488bf	-0.06471395
248	0x3e09f034	0.13470536
249	0x3d237fb1	0.039916698
250	0xbc047c71	-0.00808631
251	0x3c6fc1f9	0.014633649
252	0xbcb49705	-0.022044668
253	0x3cb2f54a	0.021845479
254	0xbdbf4ffe	-0.09341429
255	0xbc0f413e	-0.008743582

fc_layers.0.bias f4 [256]
0	0xbd238015	-0.03991707
1	0x3dd8cb66	0.1058567
2	0xbe935f76	-0.28783768
3	0x3cc31d92	0.023817811
4	0x3e268cc6	0.16264638
5	0xbe33ccbd	-0.1755857
6	0xbcf24074	-0.02957175
7	0xbdac0dda	-0.084010795
8	0x3e0b22be	0.13587472
9	0x3d699e16	0.057035528
10	0xbd07f81f	-0.03319561
11	0xbe334d82	-0.17510036
12	0x3d983757	0.0743243
13	0x3d9bddb7	0.07610648
14	0x3cdfe243	0.02732957
15	0xbe23bc6d	-0.15989847
16	0xbbc5ba91	-0.0060342033
17	0xbc6f9d46	-0.014624899
18	0xbe5f2a75	-0.2179354
19	0x3be3c1c5	0.0069505894
20	0x3d914f24	0.07095173
21	0x3d539b86	0.05166199
22	0xbe2451d6	-0.16046843
23	0xbd2ef52d	-0.042714287
24	0xbe21d879	-0.15805234
25	0x3e313001	0.17303468
26	0x3cd27bac	0.025693737
27	0xbdfc89f0	-0.12330997
28	0xbe7b6f51	-0.24554183
29	0xbe5ae27d	-0.21375461
30	0x3d4c03e2	0.04980839
31	0x3d363bc6	0.0444906
32	0xbce55d50	-0.027998596
33	0x3cdc910c	0.026924632
34	0x3dc27e33	0.09496727
35	0xbe1ff56a	-0.15620962
36	0x3e2570f7	0.16156374
37	0xbcd72217	-0.026261372
38	0xbe99cd65	-0.30039516
39	0x3cf6bfe1	0.030120792
40	0xbe520ef9	-0.20513524
41	0xbdb942eb	-0.09045967
42	0x3daf1425	0.08548764
43	0x3da2ae17	0.07943361
44	0xbd8c0288	-0.0683642
45	0x3dcd1462	0.10013653
46	0x3e046036	0.12927327
47	0x3df1840d	0.11792765
48	0xbdce423c	-0.10071227
49	0x3ddc4e80	0.1075716
50	0x3de46c48	0.111534655
51	0xbe95f1b7	-0.29285976
52	0xbe00aa70	-0.12565017
53	0xbda80ace	-0.08205186
54	0xbcc29515	-0.023752728
55	0xbe047b14	-0.12937576
56	0x3e1aa428	0.15101683
57	0xbe8336ff	-0.25627896
58	0x3de28dea	0.11062224
59	0x3d1ddd5c	0.038541183
60	0xbd6b8beb	-0.057506483
61	0x3e2a1cbd	0.16612525
62	0xbe7d75b0	-0.24751925
63	0xbd13d00e	-0.03608709
64	0xbd39d719	-0.04537115
65	0xbe38d446	-0.18049726
66	0x3c80f68b	0.01574256
67	0xbdbdfa2f	-0.09276234
68	0xbc89a736	-0.016803365
69	0xbd20cb0b	-0.039256137
70	0xbdec0eb1	-0.1152624
71	0xbdabc8ad	-0.08387885
72	0x3e7630ff	0.24042128
73	0xbdeeee15	-0.11666504
74	0xbe46953c	-0.19392866
75	0xbe2712b1	-0.16315724
76	0xbdeb0ab5	-0.114766516
77	0xbcf1ea97	-0.029530806
78	0xbbaa65e8	-0.0052001365
79	0xbe388122	-0.1801801
80	0xba40f539	-0.000736076
81	0xbd2b1d3c	-0.041775927
82	0xbdca552a	-0.09879525
83	0x3dded793	0.10880961
84	0x3d4680b1	0.048462573
85	0xbdbfba9d	-0.093617655
86	0xbe063612	-0.13106564
87	0xbd8ee30f	-0.06976902
88	0x3ea6e1a0	0.32594013
89	0xbc69411e	-0.014236717
90	0xbd0f03bd	-0.034915674
91	0xbe84221b	-0.2580727
92	0xbe73280b	-0.23745744
93	0xbe457e6f	-0.19286512
94	0xbd706926	-0.058694027
95	0xbdbf50df	-0.09341597
96	0x3d6c58b7	0.057701793
97	0x3e3c5009	0.18389906
98	0xbd276c0e	-0.040874533
99	0xbe51878e	-0.20461866
100	0xbd7826d7	-0.060583916
101	0xbe18127f	-0.14850806
102	0xbdc36fb5	-0.09542791
103	0xbb466cd2	-0.0030277264
104	0xbd861f60	-0.06548953
105	0xbe013ec1	-0.12621595
106	0xbb45697b	-0.0030122686
107	0x3e7384a2	0.23781064
108	0xbd98e967	-0.07466393
109	0xbe1335be	-0.1437597
110	0x3d4fd555	0.05074056
111	0x3df5f956	0.12010448
112	0xbd0f7160	-0.035020232
113	0x3d0862a3	0.033297192
114	0xbd9da035	-0.07696573
115	0x3dba34f3	0.090921305
116	0xbdc11402	-0.09427644
117	0x3e43cf58	0.19122064
118	0x3d3d4166	0.046204947
119	0x3e0255ce	0.12728044
120	0x3dfacae2	0.12245728
121	0x3e555f19	0.20837058
122	0xbe57f664	-0.21090084
123	0xbd9834ea	-0.074319676
124	0x3e0277b3	0.12740974
125	0x3c85c2ba	0.016328204
126	0x3e4b73e3	0.19868426
127	0xbde943da	-0.11389895
128	0x3da56cb8	0.08077377
129	0xbddfcdba	-0.10927911
130	0x3d23590b	0.03987984
131	0xbe169537	-0.14705358
132	0xbe979b61	-0.29610732
133	0xbd083ba8	-0.033260018
134	0x3de167c6	0.11006121
135	0xbe36c829	-0.17849793
136	0xbe487a93	-0.19578008
137	0x3e5352f6	0.20637116
138	0xbbd50dd5	-0.006501893
139	0xbd5604bd	-0.052250613
140	0x3d92e0a5	0.07171754
141	0xbe2811ca	-0.16413036
142	0x3df78748	0.1208635
143	0x3e03e5f5	0.1288069
144	0xbd0a9d8a	-0.033841647
145	0xbe7e8b55	-0.24857838
146	0x3bc8a450	0.006123103
147	0x3e172be5	0.14762838
148	0x3e1d34bb	0.15352146
149	0xbe8aa442	-0.27078444
150	0xbea556ff	-0.32292935
151	0x3dee8792	0.11646952
152	0xbe939534	-0.2882477
153	0x3d3cebc5	0.046123285
154	0xbe552d26	-0.20818004
155	0x3da973c1	0.082740314
156	0xbe0086c5	-0.1255141
157	0xbe070e3c	-0.13189024
158	0x3e7a3827	0.24435483
159	0x3e52e75e	0.20596072
160	0x3d43efd8	0.047836155
161	0xbe5feabe	-0.21866891
162	0xbe5b4de6	-0.21416435
163	0xbe193f68	-0.14965594
164	0x3e1179b5	0.14206584
165	0xbd116882	-0.035500057
166	0x3e4431be	0.191596
167	0xbd8fc1e6	-0.07019405
168	0x3e0b5724	0.1360746
169	0xbd76af22	-0.060225613
170	0x3e1c70b0	0.15277362
171	0x3e0a8171	0.1352594
172	0x3c42682b	0.011865656
173	0x3cdbca16	0.02682976
174	0xbe804bdb	-0.25057873
175	0x3c59b77d	0.013288376
176	0xbe8ea927	-0.27863428
177	0xbe768e36	-0.24077687
178	0x3e09f511	0.13472392
179	0x3d89dbbe	0.067313656
180	0xbe2a5721	-0.166348
181	0x3da719ae	0.08159195
182	0x3e2389f7	0.15970598
183	0xbe80f965	-0.25190273
184	0xbe1a3e4b	-0.15062825
185	0xbdc2e1d0	-0.095157266
186	0x3e5c2610	0.21498895
187	0x3ea7eee3	0.32799444
188	0xbe1ea9d0	-0.15494466
189	0x3e500de2	0.20317796
190	0x3bcdfb8c	0.0062860902
191	0xbde33c6a	-0.110955074
192	0x3dbf45c2	0.09339477
193	0xbdfb1b4c	-0.12261066
194	0xbdfe10d7	-0.12405556
195	0xbd8084ca	-0.062753275
196	0x3e9b3754	0.3031565
197	0xbd94e203	-0.07269671
198	0x3e2e7296	0.17035899
199	0x3d54563e	0.05184006
200	0x3d784545	0.060612936
201	0xbdbb6c0a	-0.09151466
202	0xbe54ea23	-0.20792441
203	0x3e4d92be	0.20075509
204	0x3d9c4963	0.07631185
205	0xbd87f457	-0.06638401
206	0x3d185428	0.037189633
207	0x3e1fe384	0.15614134
208	0xbc8e8d5f	-0.017401395
209	0xbdff3938	-0.124620855
210	0x3d8aa161	0.06769062
211	0x3d8c7d68	0.06859857
212	0xbe7b9adc	-0.24570793
213	0xbdb76677	-0.089550905
214	0xbdc46935	-0.09590379
215	0x3e2f628b	0.17127435
216	0x3e034d3d	0.12822433
217	0xbae74b23	-0.0017646294
218	0xbe977e80	-0.295887
219	0x3dcec5e3	0.10096338
220	0x3e1f31e3	0.15546374
221	0xbdd060b7	-0.10174697
222	0xbe296e90	-0.16546082
223	0x3e04f8b8	0.12985504
224	0x3df4a21a	0.11944981
225	0x3d979053	0.074005745
226	0xbe05c269	-0.13062443
227	0xbe20b3ac	-0.1569354
228	0x3deb5f71	0.114928134
229	0x3d98d047	0.07461601
230	0xbc750e1a	-0.014956975
231	0x3d28c778	0.041205853
232	0xbe452b3d	-0.19254775
233	0x3d12d2d8	0.035845608
234	0xbe21bbca	-0.15794292
235	0x3d5d1c3f	0.053982016
236	0xbbbf45c9	-0.0058371765
237	0x3e3790f6	0.17926392
238	0x3c8c6800	0.017139435
239	0xbdc02b62	-0.093832746
240	0xbbfe056a	-0.0077521103
241	0xbe3df121	-0.18549015
242	0x3c03c52f	0.008042618
243	0x3b420a5d	0.0029608228
244	0xbe0c37c4	-0.13693148
245	0x3e24f2f2	0.16108301
246	0xbdc8310c	-0.0977498
247	0x3dfb2619	0.12263126
248	0x3dad3a17	0.084583454
249	0xbe12243e	-0.14271638
250	0x3e6b07e5	0.2295223
251	0xbbe7efa4	-0.007078128
252	0xbd486085	-0.048920173
253	0x3d89fd34	0.06737748
254	0x3e216b19	0.15763511
255	0x3df70aa0	0.120625734

fc_layers.2.weight f4 [512, 256]
0	0x3d516eb9	0.051130984
1	0x3dd4fa77	0.10399335
2	0xbdc45bce	-0.09587823
3	0x3cda2270	0.02662775
4	0x3d198ec8	0.037489682
5	0x3cc8e5e9	0.024523692
6	0x3ddd8fad	0.108184196
7	0x3d4f8fc2	0.050674208
8	0x3c28ab4c	0.010294747
9	0xbd4c7820	-0.049919248
10	0x3d92805d	0.071533896
11	0xbcba273b	-0.022723785
12	0xbc8a22b7	-0.016862256
13	0x3d7e5500	0.06209278
14	0x3bbb8ea2	0.0057237903
15	0x3d23eeca	0.04002265
16	0x3cfeeda3	0.031119173
17	0x3d324f7e	0.04353284
18	0xbcfbb260	-0.030724704
19	0x3de9f4f3	0.114236735
20	0x3c259df7	0.010108463
21	0x3ce25a4c	0.027630948
22	0xb9e53ff9	-0.00043725947
23	0x3ca65793	0.02030543
24	0xbd881ce7	-0.06646138
25	0x3d282819	0.041053865
26	0x3d209963	0.03920878
27	0x3d1aac3c	0.03776191
28	0x3d79507f	0.060867783
29	0xbddf8b17	-0.10915201
30	0xbd62335e	-0.05522477
31	0xbc19801e	-0.009368924
32	0xbdb59b93	-0.08867564
33	0xbcfaf1f6	-0.030632954
34	0x3df527c8	0.11970478
35	0xbdd42c92	-0.103600636
36	0x3c41cbba	0.011828357
37	0xbcddfaf6	-0.027097207
38	0xbdd58ae3	-0.10426881
39	0xbd2c74b4	-0.042103484
40	0x3d9289b2	0.071551695
41	0x3c91e16b	0.017807683
42	0xba3da50c	-0.0007234372
43	0x3e0a74dc	0.13521141
44	0x3d7bae69	0.061445627
45	0xbb41be8a	-0.0029563033
46	0x3df89e44	0.12139562
47	0xbd58fa2e	-0.052972965
48	0xbc8997c8	-0.016796008
49	0x3d05ffec	0.03271477
50	0x3d8712b3	0.065953635
51	0xbd14fba1	-0.036372785
52	0x3c1674d6	0.009183129
53	0x3d48e590	0.049047053
54	0xbcdf5aee	-0.027265038
55	0x3d9f07a7	0.077651314
56	0x3e00cdad	0.12578459
57	0xbd133515	-0.035939295
58	0xbb32cbab	-0.002728204
59	0x3dbe4514	0.09290519
60	0xbdc1c92c	-0.094621986
61	0x3dad1964	0.084521085
62	0x3cd2a839	0.02571498
63	0xbc0a979e	-0.008459
64	0x3dfcdd3a	0.12346883
65	0xbd46b6d8	-0.048514217
66	0xbc46d4af	-0.012135669
67	0x3cc66298	0.024216935
68	0xbd21f2bf	-0.03953814
69	0xbcc977a0	-0.024593174
70	0x3d6ea2f4	0.058260873
71	0xbd0b10c3	-0.033951532
72	0x3d88eff8	0.066863954
73	0x3db69fdc	0.089172095
74	0xbd3f6853	-0.04673035
75	0xbd73a766	-0.059485815
76	0x3be258dd	0.006907566
77	0xbc1b065a	-0.009461964
78	0xbd749baf	-0.059718784
79	0x3da504a3	0.08057525
80	0x3de77692	0.11301912
81	0xbd678022	-0.05651868
82	0xbd89d2f6	-0.06729691
83	0x3d9b9722	0.07597186
84	0x3d9e0caa	0.07717259
85	0x3cc1ffc1	0.023681523
86	0xbc86c0ab	-0.016449293
87	0x3cf2541d	0.029581124
88	0x3ca37c01	0.01995659
89	0x3de289b2	0.110614195
90	0x3cf522a3	0.029923743
91	0xbd9e2204	-0.07721332
92	0xbcb6bcdd	-0.022306854
93	0x3dd6e4b4	0.104928404
94	0x3d201d0e	0.03909021
95	0x3cbb475e	0.022861179
96	0x3cdbb0c6	0.02681769
97	0xbd3ce88f	-0.046120223
98	0xbd7eb3ce	-0.062183194
99	0xbd841196	-0.06448667
100	0xbd342b63	-0.04398669
101	0x3cde0163	0.02710027
102	0x3a74f31f	0.0009344089
103	0x3be7ed28	0.007077832
104	0xbd29231e	-0.041293256
105	0xbda99991	-0.082812436
106	0xbd7b01f3	-0.061281156
107	0x3e080f7c	0.13287157
108	0x3c119baf	0.0088872155
109	0x3d8148a2	0.06312682
110	0xbbc4c39b	-0.0060047633
111	0x3c823a15	0.015896836
112	0x3ddc41af	0.10754716
113	0x3daf547d	0.08561037
114	0xbdc79b26	-0.09746389
115	0x3dbb0a85	0.09132866
116	0xbd948034	-0.07251015
117	0x3daba02d	0.083801605
118	0xbb892c4a	-0.004186188
119	0xbaf8e95c	-0.0018990445
120	0x3bf137cc	0.007361388
121	0xbd54be42	-0.051939256
122	0x3dc8ec9c	0.09810755
123	0xbc9bd7b5	-0.019023756
124	0x3cf9724d	0.03045001
125	0xbd9e300a	-0.077240065
126	0x3dbb0339	0.09131474
127	0xbbfb8f0f	-0.007676966
128	0xbc2fec19	-0.010737442
129	0x3d4a9413	0.04945762
130	0xbd7ace0a	-0.06123165
131	0x3d6ac1a0	0.05731356
132	0xbd4cb54e	-0.049977593
133	0x3b21bd74	0.0024679573
134	0x3dc46017	0.0958864
135	0x3d35bde3	0.044370543
136	0xbcce3134	-0.025169946
137	0x3c988fad	0.018623197
138	0x3d842b46	0.06453566
139	0xbd5f068c	-0.054449603
140	0xbcf81369	-0.030282693
141	0xbdd32b9d	-0.10311053
142	0x3d99c84d	0.075089075
143	0xbd62ac96	-0.055340372
144	0xbb874f35	-0.0041293153
145	0xbe1663ea	-0.14686552
146	0x3deb2a13	0.114826344
147	0xbd8a53f5	-0.06754295
148	0xbd56cc38	-0.052440852
149	0x3d61208b	0.054962676
150	0xbda3d781	-0.080000885
151	0xbd75a8a5	-0.059975285
152	0xbe4512ea	-0.19245496
153	0x3dcefcc8	0.10106808
154	0xbe4e3de7	-0.20140801
155	0xbd9c763a	-0.076397374
156	0xbd1240eb	-0.03570644
157	0x3dad35bd	0.084575154
158	0x3dad7fc4	0.08471635
159	0xbb111701	-0.0022138956
160	0x3db47ec4	0.08813241
161	0xbd89376a	-0.067000225
162	0xbce0cbd8	-0.02744095
163	0xbd8b2a0e	-0.06795131
164	0x3dcb9260	0.09940028
165	0xbdca1807	-0.09867864
166	0xbd6c97b8	-0.057761878
167	0x3d16badc	0.036799297
168	0xbc38d377	-0.011280886
169	0xbd58db40	-0.052943468
170	0x3c8913df	0.016733108
171	0x3ca775aa	0.020441849
172	0xbc018549	-0.007905313
173	0x3c818f3a	0.015815366
174	0x3cc0ee51	0.023551138
175	0x3e04111a	0.12897149
176	0x3d71cb6b	0.059031885
177	0xbcf8ee74	-0.03038714
178	0x3ccf1ea6	0.025283169
179	0x3d177cf1	0.036984388
180	0x3da849e1	0.08217216
181	0xbd5b5b46	-0.053553842
182	0xbd28c65b	-0.04120479
183	0xbde19f9b	-0.110167705
184	0xbdabe28b	-0.08392819
185	0xbd79b09e	-0.06095945
186	0x3e151d61	0.14561988
187	0x3d9685eb	0.073497616
188	0xbd5d4bf6	-0.05402752
189	0x3dc3dd6c	0.09563717
190	0x3d85af66	0.06527595
191	0xbd00ca0e	-0.031442694
192	0x3dc1277b	0.094313584
193	0xbda7648f	-0.08173477
194	0xbc7cfe90	-0.015441552
195	0x3de0be92	0.109738484
196	0x3dc013bf	0.09378766
197	0xbd7be60e	-0.061498694
198	0x3df4e37f	0.11957454
199	0xbd2a604c	-0.041595742
200	0xbc4f5a0b	-0.012655745
201	0x3dcf81b8	0.10132164
202	0x3ddde5c2	0.108348384
203	0x3dfe006b	0.124024235
204	0x3d1cf3bb	0.038318377
205	0xbdbc6fe9	-0.09201033
206	0x3cd03134	0.025414087
207	0xbd7ca2ec	-0.061678812
208	0x3cb650f8	0.022255406
209	0x3d910487	0.07080942
210	0x3d817b55	0.06322352
211	0xbd91e284	-0.071232826
212	0x3da747e2	0.081680074
213	0x3ddc6730	0.10761869
214	0x3db46266	0.088078305
215	0x3dde3ecb	0.108518206
216	0xbd5eb6c9	-0.054373536
217	0xbd684af9	-0.056712124
218	0xbd8ab07e	-0.067719445
219	0xbc2913be	-0.010319648
220	0x3cee96dc	0.02912467
221	0xbdaae459	-0.08344335
222	0x3d7609e1	0.060068015
223	0xbc6728db	-0.014108862
224	0x3d41ada5	0.04728474
225	0x3dd9687d	0.10615633
226	0xbd9d7f22	-0.07690264
227	0xbd8a86a8	-0.06763965
228	0xbc8a0477	-0.016847832
229	0x3ccb4ffa	0.02481841
230	0x3d78d089	0.06074575
231	0xbd766409	-0.060153995
232	0xbd7a15da	-0.061055996
233	0xbcc10030	-0.02355966
234	0xbd9dfd8f	-0.07714378
235	0x3dcc40ff	0.099733345
236	0xbd5cc362	-0.05389727
237	0x3bf97e31	0.00761392
238	0x3b7b1c1d	0.0038316317
239	0x3d8a652a	0.06757577
240	0xbda767fe	-0.08174132
241	0x3e0d62e6	0.13807258
242	0x3d8691d8	0.06570786
243	0x3c16a3e4	0.009194348
244	0xbc7b5134	-0.015339185
245	0xbce2e2d6	-0.027696054
246	0x3e0c4027	0.13696347
247	0xbd966044	-0.0734258
248	0xbc99a159	-0.018753694
249	0xbc19a8da	-0.009378636
250	0xbbde383b	-0.0067816055
251	0x3da8640c	0.082222074
252	0xbe83c2b7	-0.25734493
253	0xbb9fe181	-0.004879177
254	0x3df9072b	0.1215957
255	0xbd801b80	-0.06255245

fc_layers.2.bias f4 [512]
0	0x3e3d6c85	0.18498428
1	0xbd093654	-0.033499077
2	0xbdd75938	-0.10515064
3	0xbe1bdd31	-0.15221097
4	0xbe587a11	-0.21140315
5	0xbd441c4d	-0.047878552
6	0xbdb5553c	-0.08854148
7	0xbd856551	-0.06513465
8	0x3d5d7c35	0.05407353
9	0xbdfe907f	-0.12429904
10	0xbaebc814	-0.0017988705
11	0xbe36d375	-0.17854102
12	0xbd923327	-0.07138663
13	0xbdd88059	-0.105713554
14	0x3c44313d	0.01197463
15	0x3d6ad8aa	0.057335533
16	0xbd8fafce	-0.07015954
17	0x3e16e3f7	0.14735399
18	0xbe98de28	-0.29856992
19	0x3e80089c	0.25006568
20	0xbc322f53	-0.010875541
21	0x3e535818	0.20639074
22	0xbe3a4bd8	-0.18192995
23	0x3ed1c551	0.40970853
24	0x3efcfc65	0.49411312
25	0x3d625104	0.055253044
26	0xbe0dd5dc	-0.13851112
27	0x3dacc921	0.084368
28	0xbe110669	-0.14162602
29	0xbda9adf6	-0.082851335
30	0xbe0492e5	-0.12946661
31	0x3eb6ce80	0.35704422
32	0xbcce5fa2	-0.025192086
33	0x3dd2ba52	0.10289444
34	0xbdd1fb8d	-0.10253058
35	0xbd02312b	-0.03178517
36	0xbe387574	-0.18013555
37	0xbd96dcbb	-0.0736632
38	0xbeb94e26	-0.36192435
39	0xbde20d37	-0.11037677
40	0x3d512f4b	0.051070493
41	0x3e46a18d	0.19397564
42	0xbda576f1	-0.08079327
43	0x3cc76732	0.0243412
44	0x3e1e627b	0.15467255
45	0xbd297f58	-0.04138121
46	0x3d3ec53b	0.046574812
47	0x3eaf210f	0.3420491
48	0xbe796548	-0.24355042
49	0xbba4acab	-0.0050254664
50	0xbd182532	-0.037144847
51	0xba0256d5	-0.00049720454
52	0xbcb82635	-0.022479156
53	0xbd0c0b12	-0.034190245
54	0x3e40df60	0.18835211
55	0x3dc4725e	0.09592126
56	0xbdab90e4	-0.08377245
57	0x3e0f4c19	0.13993873
58	0xbc5b477b	-0.0133837415
59	0xbcf95c45	-0.030439505
60	0xbe71dc1d	-0.23619123
61	0xbda12e1d	-0.078701235
62	0x3d675e51	0.05648643
63	0x3d5aa4d0	0.053379834
64	0xbd00a41d	-0.03140651
65	0xbdb9fa7c	-0.09080979
66	0xbd451e32	-0.0481245
67	0xbd74786c	-0.059685156
68	0x3e0f2d8f	0.13982223
69	0xbc96400d	-0.018341089
70	0x3ed98ad9	0.42488745
71	0x3cfc1b70	0.030774802
72	0x3e9bdbc1	0.30441096
73	0x3c5a2d90	0.013316527
74	0xbe317a06	-0.17331704
75	0xbe27581f	-0.1634221
76	0x3ddee368	0.10883218
77	0x3e4cf092	0.20013645
78	0x3db9054a	0.09034212
79	0x3eec2155	0.4611918
80	0xbe36c703	-0.17849354
81	0x3d594e15	0.05305298
82	0xbe0749cd	-0.13211747
83	0x3d53156e	0.05153411
84	0x3e9d8b12	0.30770165
85	0x3e488aa2	0.19584134
86	0x3cdc9dbb	0.02693068
87	0xbc0e60e0	-0.008690089
88	0xbe0fbb82	-0.14036372
89	0x3e3e6ae0	0.18595457
90	0xbe3393b5	-0.17536815
91	0x3df8a83c	0.12141463
92	0xbe11b6cc	-0.14229888
93	0xbd1c5ef6	-0.0381765
94	0xbdc93a49	-0.0982557
95	0x3ee27f3d	0.442377
96	0xbdf81e73	-0.12115183
97	0xbd42a260	-0.047518134
98	0xbd868508	-0.065683424
99	0xbe889768	-0.26678014
100	0xbe91a03c	-0.28442562
101	0xbe559107	-0.20856105
102	0xbe00405c	-0.12524551
103	0xbe1152c0	-0.14191723
104	0xbe1c1c2f	-0.15245126
105	0x3e0b86ff	0.13625716
106	0xbde86ae1	-0.113485105
107	0x3dbc974c	0.09208545
108	0xbe406381	-0.18787958
109	0xbd04d333	-0.032427978
110	0xbe4b2cba	-0.1984128
111	0xbe27f368	-0.16401446
112	0xbe4484ef	-0.19191335
113	0xbd991497	-0.0747463
114	0xbed9b63f	-0.42521855
115	0xbd647f39	-0.05578539
116	0x3c14f8c9	0.009092518
117	0xbe46c7b0	-0.19412112
118	0xbe4be452	-0.19911316
119	0xbddb9d69	-0.10723383
120	0xbe4e0ddc	-0.20122474
121	0x3c5df71a	0.013547683
122	0x3e8eed2e	0.2791533
123	0x3d25830f	0.04040819
124	0xbdb5b51f	-0.08872437
125	0x3e367ede	0.17821833
126	0xbd8de835	-0.069290556
127	0xbe2a172b	-0.166104
128	0xbd64929c	-0.05580388
129	0xbd56716e	-0.05235427
130	0x3d7d1a91	0.061792914
131	0x3de4c9de	0.111713156
132	0x3eb665bf	0.356245
133	0xbe344fc7	-0.17608558
134	0xbcb030f1	-0.021507712
135	0xbcd49a8d	-0.025952602
136	0x3dce6e39	0.10079617
137	0xbd625607	-0.055257823
138	0xbe7ced39	-0.24699868
139	0xbe01b075	-0.1266497
140	0x3ef48d3c	0.47764003
141	0x3ed28c52	0.4112268
142	0xbe3f81d1	-0.18701865
143	0xbc55855e	-0.0130322855
144	0x3d874839	0.06605572
145	0x3dfee230	0.124454856
146	0xbe0ac158	-0.13550317
147	0xbe56fd87	-0.2099515
148	0x3da80045	0.082031764
149	0x3c24b610	0.010053173
150	0xbe186773	-0.14883213
151	0x3d4af7c8	0.04955271
152	0x3db355a9	0.08756573
153	0xbe30c73d	-0.17263503
154	0xbd118c72	-0.03553433
155	0xbe7f054e	-0.24904367
156	0x3da511e7	0.08060055
157	0xbdd3be57	-0.10339039
158	0x3dbe418a	0.09289844
159	0x3ece2b58	0.40267444
160	0xbde62854	-0.11238161
161	0xbc6c49cf	-0.014421894
162	0xbe22b82d	-0.1589057
163	0xbd76fddd	-0.060300697
164	0x3e409fb5	0.18810923
165	0x3e3383b4	0.1753071
166	0xbd9369f9	-0.07197947
167	0x3ec9035f	0.39260384
168	0x3e95fded	0.29295292
169	0xbcc4e2a3	-0.02403385
170	0x3ece55e5	0.40299907
171	0x3c651a56	0.01398333
172	0x3e1e8688	0.15481007
173	0xbe0e188b	-0.1387655
174	0xbe37161b	-0.17879526
175	0x3e820ccf	0.25400397
176	0x3de1d7ed	0.11027513
177	0x3e8cb768	0.27483678
178	0xbeada408	-0.33914208
179	0x3edb1d3c	0.42795742
180	0xbd907c52	-0.07054962
181	0x3b3bcea7	0.002865711
182	0x3de83fa8	0.113402665
183	0xbde5ee7c	-0.11227128
184	0xbc1a7011	-0.009426133
185	0xbe27eafe	-0.16398236
186	0xbe0ee221	-0.13953449
187	0xbcb08846	-0.021549355
188	0x3ec4aced	0.38413182
189	0x3d1ebd74	0.038754895
190	0xbe1cb600	-0.15303802
191	0xbd9288d7	-0.071550064
192	0x3e792cf9	0.24333562
193	0xbd8d3a39	-0.06895871
194	0xbe12524b	-0.14289205
195	0xbdbb50e6	-0.091462895
196	0x3d21ada8	0.039472252
197	0xbe1f6a8e	-0.15567991
198	0xbe0c08f2	-0.13675287
199	0xbe812c7c	-0.2522925
200	0x3e2c6428	0.16835082
201	0x3d6e2132	0.058137126
202	0xbe5501f8	-0.20801532
203	0xbdda09a3	-0.10646369
204	0x3eeb7b12	0.45992333
205	0xbe4055db	-0.18782751
206	0xbdc94bc2	-0.09828903
207	0x3e1c4425	0.1526037
208	0xbdefd35e	-0.11710237
209	0x3e5684aa	0.20949045
210	0x3d006cd0	0.03135377
211	0xbd8a1e9d	-0.0674412
212	0x3ed7acd7	0.42124054
213	0xbce0977a	-0.02741598
214	0xbc782c51	-0.015147285
215	0x3eb58f08	0.35460687
216	0xbd4f370a	-0.0505896
217	0xbe3f62ec	-0.1869008
218	0xbe08b4ee	-0.13350269
219	0xbe1d74ab	-0.15376537
220	0xbdcc6e3e	-0.099819645
221	0x3dd567ce	0.1042019
222	0x3e973adf	0.29537103
223	0x3e1e1784	0.15438658
224	0x3d6ff8bb	0.058586817
225	0x3ec4e2e2	0.38454348
226	0xbd973b77	-0.07384389
227	0xbd3673bf	-0.044543978
228	0xbe21ffb0	-0.15820193
229	0x3d95d827	0.073166184
230	0xbe1e07ce	-0.15432665
231	0x3d4b4896	0.04962977
232	0xbe2d74d3	-0.16939096
233	0xbe716533	-0.2357376
234	0x3e7f764a	0.24947467
235	0xbd739353	-0.05946667
236	0x3e0106c1	0.12600233
237	0x3eb34fdf	0.35021874
238	0x3e416b5e	0.18888614
239	0x3dc4b782	0.09605314
240	0x3df95175	0.1217374
241	0x3d54e571	0.051976625
242	0xbe3347a4	-0.17507797
243	0xbd49a6b4	-0.049231246
244	0xbd9c1d96	-0.076228306
245	0xbe5d3f67	-0.21606217
246	0xbdcffd6d	-0.10155759
247	0x3dfa61fa	0.12225719
248	0xbe7ba17a	-0.24573317
249	0x3dc2a46f	0.095040195
250	0xbe9da577	-0.30790302
251	0xbe7c3bfc	-0.24632257
252	0xbd75ed6c	-0.060040876
253	0xbe0796bf	-0.13241099
254	0xbe35d22f	-0.1775596
255	0xbd5324c9	-0.051548753

fc_layers.4.weight f4 [128, 512]
0	0xbdfb3fc7	-0.12268024
1	0xbdf2e1d3	-0.11859479
2	0xbd8457da	-0.06462069
3	0xbba69bf0	-0.005084507
4	0xbd0a8682	-0.033819683
5	0x3cbecd92	0.023291383
6	0xbd232631	-0.039831344
7	0xbd829ab1	-0.06377161
8	0xbe046f1d	-0.12933011
9	0xbca66087	-0.0203097
10	0x3d5db022	0.05412305
11	0xbd26df54	-0.040740326
12	0xbdf95d7e	-0.12176035
13	0x3cba3602	0.022730831
14	0xbd6d283c	-0.0578997
15	0xbe1920e7	-0.14953957
16	0x3d1a3009	0.037643466
17	0xbd158ea6	-0.036512993
18	0x3ce39e91	0.027785571
19	0xbd7e7fb7	-0.062133517
20	0xbe170cda	-0.14750996
21	0x3d12d4fe	0.035847656
22	0xbcd736fc	-0.026271336
23	0x3c7ce050	0.01543434
24	0xbd7bbc17	-0.061458673
25	0x3d2ff63a	0.04295943
26	0xbdb71f92	-0.089415684
27	0x3d0b95f2	0.034078546
28	0xbd06233f	-0.032748457
29	0x3d92c0b7	0.07165664
30	0xbda51d79	-0.08062262
31	0xbd8bf2ea	-0.068334416
32	0x3d563599	0.05229721
33	0xbd2ba43e	-0.04190468
34	0x3be24357	0.006905
35	0x3d80fee3	0.06298616
36	0xbbf6e745	-0.0075348937
37	0x3d97b018	0.07406634
38	0x3d0df9cd	0.034662057
39	0x3cf1ba5e	0.029507812
40	0xbd8ebf2c	-0.06970057
41	0xbdc98bcd	-0.09841118
42	0xbd66c14f	-0.056336697
43	0x3d156bad	0.03647964
44	0x3d4e529a	0.050371744
45	0xbd747f4f	-0.059691723
46	0xbe2727c1	-0.16323759
47	0xbc8f64f7	-0.017504198
48	0x3d3f3771	0.046683732
49	0x3d26ee3d	0.040754545
50	0xbd8d30f1	-0.068941005
51	0xbcdca2e9	-0.02693315
52	0xbd86012b	-0.065431915
53	0xbd56b464	-0.052418128
54	0x3d0385a8	0.032109886
55	0x3da6edab	0.081508
56	0xbd099ae1	-0.03359497
57	0x3d770cf1	0.060315076
58	0xbd1378af	-0.036003765
59	0x3d5081a2	0.050904877
60	0xbcb22569	-0.021746354
61	0x3d88a447	0.066719584
62	0xbdef86b2	-0.11695613
63	0xbdb97383	-0.09055235
64	0x3d187457	0.037220325
65	0x3b69f6d5	0.0035700102
66	0xbcdacf41	-0.026710154
67	0x3d89bc35	0.06725351
68	0x3cf0ef32	0.029410932
69	0x3d70102c	0.058609173
70	0xbd965cff	-0.07341956
71	0xbd5ff79b	-0.054679494
72	0xbd7f7090	-0.062363207
73	0xbe1812bd	-0.14850898
74	0x3c921251	0.017831
75	0x3c1c7684	0.009549741
76	0xbd3cf053	-0.04612763
77	0xbcf10e20	-0.02942568
78	0xbca080d5	-0.019592682
79	0x3be77b7f	0.0070642824
80	0x3bb4deb3	0.005519712
81	0xbdc81bfc	-0.097709626
82	0x3d24ea72	0.040262647
83	0x3dae02d0	0.0849663
84	0xbd2c459c	-0.042058572
85	0x3d80fe73	0.06298532
86	0x3d8acf30	0.06777799
87	0x3d80630d	0.062688924
88	0xbd3b7a7f	-0.04577112
89	0x3d854e76	0.06509106
90	0x3b90bbbd	0.0044169114
91	0xbe13f685	-0.14449508
92	0x3cbc305d	0.02297228
93	0x3dd408e4	0.10353258
94	0xbd649a6c	-0.05581133
95	0xbc805333	-0.015664672
96	0x3d01095c	0.031503066
97	0xbdb6a261	-0.0891769
98	0x3d84f75a	0.06492491
99	0xbc0a34c2	-0.00843543
100	0x3d045a0a	0.03231243
101	0x3d03b820	0.032158017
102	0x3d25d39b	0.040485006
103	0x3cf60cd5	0.030035416
104	0xbd4be560	-0.049779296
105	0xbe04ff5f	-0.12988041
106	0x3da1094b	0.078631006
107	0xbc77585b	-0.015096749
108	0x3b0d835b	0.0021593187
109	0xbd49910f	-0.049210604
110	0xbd571595	-0.052510817
111	0x3d218018	0.0394288
112	0xbc8d0dfd	-0.017218584
113	0xbda6b0bb	-0.081391774
114	0x3ccd33f0	0.02504918
115	0xbd8988c2	-0.067155376
116	0xbdf8c7f0	-0.1214751
117	0x3d89def2	0.067319766
118	0x3c688dca	0.014193961
119	0xbd1b8019	-0.03796396
120	0xbab01569	-0.0013434115
121	0xbdca7d5a	-0.0988719
122	0xbd107352	-0.035266228
123	0xbbfa3c9f	-0.007636621
124	0xbd091d0f	-0.033474978
125	0xbddeddd3	-0.10882153
126	0xbd113085	-0.035446662
127	0xbcea5a54	-0.028607525
128	0xbc907a6f	-0.017636506
129	0x3c78a299	0.015175485
130	0xbdc91977	-0.0981931
131	0xbe21ea83	-0.15812115
132	0xbc57280a	-0.013132105
133	0x3a79e5f2	0.0009532861
134	0x3d471045	0.0485995
135	0x3d5edc90	0.054409564
136	0x3d51bbe2	0.05120457
137	0x3cf80629	0.030276375
138	0xbd010310	-0.03149706
139	0xbca2ee25	-0.019888947
140	0xbc00d9f3	-0.007864463
141	0xbd9bdf49	-0.07610948
142	0x3d464def	0.048414167
143	0xbe189b01	-0.1490288
144	0xbe545bd0	-0.20738149
145	0xbdaac31a	-0.08337994
146	0xbcca9160	-0.024727523
147	0x3cb3c919	0.021946477
148	0x3dcd7577	0.1003217
149	0xbd8310df	-0.06399702
150	0x3d366717	0.044531908
151	0x3cc6ffc6	0.024291884
152	0xbd7075df	-0.05870616
153	0xbcd9cc03	-0.026586538
154	0x3d459d8e	0.04824596
155	0x3d84e3e0	0.06488776
156	0xbe598e03	-0.2124558
157	0xbd8d150a	-0.068887785
158	0xbcb202cc	-0.02172985
159	0xbcb40fa8	-0.021980122
160	0x3c09f025	0.008419071
161	0xbd1278fb	-0.035759907
162	0xbd9ba4ae	-0.075997695
163	0xbd2d283c	-0.0422747
164	0x3da0f05e	0.078583464
165	0x3d655fc5	0.055999536
166	0x3d5d646e	0.054050855
167	0xbca431ce	-0.02004328
168	0xbd64d1fa	-0.05586431
169	0xbd18e8d2	-0.03733141
170	0xbd023dfa	-0.031797387
171	0xbe1a97ef	-0.1509702
172	0xbd44cf59	-0.048049305
173	0xbd394175	-0.04522844
174	0x3d0e2eb0	0.034712493
175	0xbd2b9987	-0.041894462
176	0x3c5927bb	0.013254101
177	0x3c8132dd	0.015771324
178	0xbcbc1ebb	-0.022963872
179	0xbcc7d090	-0.024391443
180	0x3db713af	0.08939301
181	0xbde0b33c	-0.10971686
182	0xbdf1a876	-0.117997095
183	0x3d856d2f	0.06514966
184	0xbe0f2859	-0.13980235
185	0x3d93e20a	0.07220848
186	0xbcdf50c4	-0.027260192
187	0xbd9f5db0	-0.07781541
188	0xbc6ca96e	-0.014444692
189	0x3cf8e1e8	0.030381158
190	0x3d6d8f7e	0.057998173
191	0x3d806e74	0.06271067
192	0xbd92c1a0	-0.07165837
193	0xbae90f71	-0.0017781091
194	0x3bdd7cef	0.006759278
195	0x3b5e87a9	0.0033955371
196	0x3d90b794	0.07066265
197	0xbd568458	-0.052372307
198	0x3d04c6c7	0.03241613
199	0x3bc93603	0.006140472
200	0x3d93b5c3	0.07212403
201	0xbcb90086	-0.022583257
202	0xbc258387	-0.010102159
203	0x3d1ff5c9	0.03905276
204	0xbd639eef	-0.055571493
205	0xbd29fe3c	-0.041502222
206	0xbd4a128a	-0.049334086
207	0x3c3d4bca	0.011553714
208	0xbc27c588	-0.010239966
209	0x3d2d7d1c	0.04235564
210	0xbe219c3a	-0.15782252
211	0x3dbb89bf	0.09157132
212	0xbd0d8e30	-0.03455943
213	0x3d64d6ed	0.05586903
214	0x3d6c6d59	0.05772147
215	0xbd896fa0	-0.06710744
216	0x3bd0ddda	0.006374103
217	0x3d0a88ad	0.03382175
218	0xbd819db9	-0.06328911
219	0x3ceefd54	0.02917353
220	0x3c58ec81	0.013239981
221	0xbe32fc0b	-0.1747896
222	0xbd9745cd	-0.0738636
223	0xbd2578ac	-0.040398285
224	0x3d4c0596	0.049810015
225	0x3b35de3f	0.0027750877
226	0xbd81c5c8	-0.06336552
227	0xbd6c9aa1	-0.057764653
228	0xbd1f94e3	-0.03896035
229	0xbe23979c	-0.15975803
230	0xbc945ca5	-0.018110583
231	0xbdb7ef2b	-0.089811645
232	0x3d7db659	0.06194148
233	0x3caaa892	0.020832334
234	0x3c313223	0.010815176
235	0x3ddc7bb3	0.10765781
236	0xbd7b648e	-0.061375193
237	0xbc433f71	-0.011916981
238	0xbd4c6dc3	-0.049909364
239	0x3d938655	0.07203356
240	0x3da132aa	0.078709915
241	0xbe159574	-0.14607793
242	0x3d39883c	0.04529594
243	0xbd744fb1	-0.059646312
244	0x3c0377f3	0.008024204
245	0xbd2d77ea	-0.042350687
246	0x3d0bda7f	0.03414392
247	0xbe06face	-0.13181612
248	0x3b0f3ea3	0.0021857403
249	0xbcdc92ad	-0.02692541
250	0x3d482fc1	0.048873667
251	0x3cd6b76c	0.02621051
252	0x3d85ec20	0.06539178
253	0x3d7cc86d	0.06171458
254	0xbd8cf0ee	-0.06881891
255	0xbddfb38e	-0.10922919

fc_layers.4.bias f4 [128]
0	0x3d08be1f	0.03338444
1	0xbe6a0e14	-0.22856933
2	0x3cba5392	0.022744928
3	0xbdd18179	-0.10229773
4	0xbd8b388c	-0.06797895
5	0xbd00d561	-0.031453494
6	0xbd1f7e65	-0.0389389
7	0xbda94bda	-0.08266421
8	0xbd8e04a2	-0.069344774
9	0xbd08e6bc	-0.03342317
10	0xbd952707	-0.072828345
11	0xbe4c3fd0	-0.19946218
12	0xbe620b5b	-0.22074644
13	0xbdcd8f6c	-0.10037121
14	0xbc822589	-0.015887039
15	0xbda4d6b7	-0.08048766
16	0xbb237436	-0.0024941093
17	0x3ccf774e	0.025325444
18	0xbe64becc	-0.22338408
19	0xbd0510d5	-0.032486755
20	0xbcd3a561	-0.025835695
21	0xbbeea963	-0.007283376
22	0xbe2dd03d	-0.16973968
23	0x3da89a13	0.08232512
24	0xbda429f0	-0.080158114
25	0xbd5394ba	-0.05165551
26	0xbd0cfaa0	-0.034418702
27	0xbe3f11ac	-0.18659085
28	0x3cfd2d52	0.0309054
29	0x3d61fa47	0.055170324
30	0xbe04b599	-0.12959899
31	0x3c467956	0.01211389
32	0xbddf2c1e	-0.108970866
33	0xbd2ed4cc	-0.042683408
34	0x3cf26332	0.029588316
35	0xbc7b783e	-0.015348492
36	0xbd0a6176	-0.033784352
37	0xbc8d506a	-0.017250258
38	0xbd741205	-0.059587497
39	0xbd899dae	-0.06719528
40	0xbdbbc61f	-0.09168648
41	0x3cb7e4b6	0.022447925
42	0x3ca9ff07	0.02075149
43	0xbdc745d1	-0.09730113
44	0xbe068f5f	-0.13140629
45	0xbcdd84a7	-0.027040793
46	0xbdae0774	-0.08497515
47	0x3b98e5b6	0.0046660556
48	0xbd59ba52	-0.053156205
49	0xbd9d470c	-0.07679567
50	0x3c48a7e1	0.012247057
51	0xb8526dd8	-5.01702e-05
52	0xbd80c8db	-0.0628831
53	0xbdf5e117	-0.12005823
54	0x3d1d7b16	0.038447462
55	0xbcdac5f7	-0.026705725
56	0xbd960081	-0.07324315
57	0xbe364474	-0.1779955
58	0x3cd66b05	0.026174078
59	0xbd3d7314	-0.046252325
60	0xbe025a6c	-0.12729806
61	0xbd46d7da	-0.048545696
62	0xbdc9e41f	-0.09857964
63	0xbe888aac	-0.26668298
64	0xbd93af23	-0.07211139
65	0x3c9c6b84	0.019094236
66	0xbc8fbb3a	-0.017545331
67	0xbd3ff527	-0.046864655
68	0xbe4709fb	-0.19437401
69	0xbe192863	-0.14956813
70	0x3c924cda	0.017858911
71	0x3d105b7f	0.035243507
72	0x3c54d6b2	0.0129906405
73	0xbd80d552	-0.062906876
74	0xbe4937d7	-0.19650207
75	0xbdb8fc6c	-0.09032521
76	0xbe571344	-0.21003443
77	0x3b82cefb	0.003991959
78	0x3b63ca2a	0.003475795
79	0xbb037cad	-0.0020063326
80	0xbd942653	-0.07233872
81	0xbd763a79	-0.060114358
82	0xbdd88bb5	-0.10573522
83	0xbe45c819	-0.19314612
84	0x3cf9c68e	0.030490186
85	0xbe3dc9a0	-0.18533945
86	0x3c5ff136	0.013668349
87	0xbe4d5bfe	-0.20054623
88	0x3caea933	0.021320915
89	0xbe61ea5a	-0.22062054
90	0xbc833d01	-0.0160203
91	0xbd2a6919	-0.041604135
92	0xbd1d5fb4	-0.038421348
93	0x3c74c862	0.014940353
94	0xbcfb6077	-0.030685646
95	0xbdaad723	-0.08341815
96	0xbce7e0db	-0.028305462
97	0xbe0a99dd	-0.13535257
98	0xbc73af6c	-0.014873367
99	0xbcd5497b	-0.026036015
100	0xbe3a4fd7	-0.18194519
101	0xbcc99a4f	-0.024609713
102	0x3d5abf89	0.05340532
103	0xbe4f3549	-0.2023517
104	0x3cd8dd6e	0.026472773
105	0xbe33e294	-0.17566901
106	0xbae40dbc	-0.0017399113
107	0x3dab0b7c	0.083518
108	0xbdc58aa8	-0.09645587
109	0xbdd231db	-0.102634154
110	0x3c75a54a	0.014993021
111	0xbe7266af	-0.23671983
112	0xbe71dc0b	-0.23619096
113	0xbbc6c6c9	-0.0060661775
114	0xbd0a7b77	-0.03380915
115	0xbda472c1	-0.080297
116	0x3da38ddb	0.07986041
117	0xbe54e92f	-0.20792077
118	0xbd8d0bb7	-0.06887
119	0xbe63a1e8	-0.22229731
120	0xbe51a897	-0.20474468
121	0x3c8ae9d8	0.016957209
122	0x3d66f54a	0.05638627
123	0xbdf22ac4	-0.11824563
124	0x3d5475af	0.051870044
125	0xbc335754	-0.010946114
126	0xbccfc1ee	-0.025361028
127	0xbdd9c8fe	-0.10634039

classification_layer.weight f4 [1, 128]
0	0x3f995367	1.1978577
1	0xbec813ac	-0.39077508
2	0xbf9e3475	-1.2359759
3	0x3deb9984	0.1150389
4	0xbdf55b63	-0.11980321
5	0xbf75d68c	-0.960305
6	0xbf5e4373	-0.8682167
7	0x3e2cf272	0.1688936
8	0xbda38431	-0.07984198
9	0xbf5ac890	-0.85462284
10	0xbf533992	-0.8250972
11	0xbeaa2d9e	-0.33237928
12	0x3ee258c2	0.44208342
13	0x3f5c6b3d	0.8610113
14	0x3f9968a8	1.1985064
15	0x3df71436	0.12064402
16	0xbf8be5c1	-1.092949
17	0xbea37d7e	-0.3193168
18	0xbea5e83c	-0.32403743
19	0xbdf9e469	-0.12201769
20	0x3f8b842c	1.0899711
21	0xbf57d640	-0.84311295
22	0xbea98cc1	-0.331152
23	0xbfadbe76	-1.3573749
24	0xbe09c7dc	-0.13455147
25	0x3f9ce458	1.2257185
26	0x3e9b3dd3	0.30320606
27	0xbf2a5d5f	-0.66548723
28	0xbfab2ab0	-1.3372402
29	0xbf9fe9c7	-1.2493218
30	0x3e0bb421	0.13642932
31	0x3fa031c6	1.251519
32	0xbebe5b98	-0.37179255
33	0x3f955195	1.1665522
34	0xbe9b7436	-0.303621
35	0xbdb2ca9d	-0.08730052
36	0x3f951170	1.1645947
37	0x3f82b983	1.0212864
38	0x3e002b92	0.12516621
39	0x3fa0a34d	1.2549835
40	0xbf043975	-0.5165017
41	0x3f979a8b	1.1844038
42	0xbf8ced3d	-1.1009899
43	0x3e2e81c2	0.17041686
44	0xbf1ae0b9	-0.6049915
45	0xbf9d51ad	-1.229055
46	0xbd9fef20	-0.07809281
47	0x3f9abc8e	1.2088792
48	0x3e96f759	0.29485586
49	0x3f85adbf	1.0443648
50	0x3f9c0675	1.218947
51	0xbf66261e	-0.8990191
52	0xbdce36db	-0.100690566
53	0x3e2d42a0	0.16919947
54	0xbf983aaf	-1.1892909
55	0xbdc19db1	-0.094539054
56	0x3dde991d	0.10869048
57	0x3ecd8ba3	0.40145597
58	0x3f9903c6	1.1954277
59	0x3dae5802	0.0851288
60	0xbe7d07bf	-0.24709986
61	0xbe0923d9	-0.13392581
62	0x3f6bc869	0.92102677
63	0x3f0fcc2e	0.5617093
64	0x3f920511	1.1407796
65	0x3f9455d7	1.1588696
66	0xbe89f331	-0.26943353
67	0x3f8ab64c	1.0836883
68	0xbeb37731	-0.35051873
69	0x3eec2bf4	0.46127284
70	0x3f90b7b3	1.130606
71	0xbf656651	-0.8960925
72	0xbfa5354a	-1.2906888
73	0x3e8856e7	0.266288
74	0xbe8d0c00	-0.27548218
75	0x3e02a20c	0.12757128
76	0x3eb8162e	0.35954422
77	0xbf830365	-1.0235411
78	0x3f92cb4e	1.1468294
79	0x3f962fd1	1.1733342
80	0xbf3b4bd1	-0.7316256
81	0xbda3f7c5	-0.08006243
82	0xbe07a45e	-0.13246295
83	0x3ea5eb48	0.32406068
84	0x3f90b722	1.1305888
85	0x3ec9403e	0.39306825
86	0x3f902afb	1.1263117
87	0xbe91c972	-0.28474003
88	0xbf90934c	-1.1294951
89	0xbe9bc5a8	-0.30424237
90	0x3f6641b1	0.8994399
91	0xbdd40f21	-0.10354448
92	0x3f979198	1.1841307
93	0xbf9e508f	-1.2368335
94	0x3f910132	1.132849
95	0x3dbc6ac9	0.09200055
96	0x3f93b376	1.1539142
97	0x3e52b1f5	0.20575698
98	0xbf9fce02	-1.2484744
99	0x3f926297	1.1436337
100	0x3f51dab1	0.8197432
101	0x3f99e6e9	1.2023593
102	0xbf8959a2	-1.0730479
103	0xbe9d66eb	-0.30742583
104	0x3f955b34	1.1668458
105	0xbf2703d4	-0.65240216
106	0x3f907a4d	1.1287323
107	0xbf818222	-1.0117838
108	0xbf28cebb	-0.65940446
109	0xbdecd39e	-0.115638
110	0x3f95b3ae	1.1695459
111	0xbec5a938	-0.38605666
112	0x3edd1535	0.43180242
113	0xbf773518	-0.9656539
114	0x3e793e5c	0.24340194
115	0xbd9fe657	-0.07807606
116	0xbf863cb1	-1.0487272
117	0x3ef9b5ac	0.48771417
118	0x3e1e7d7d	0.15477557
119	0x3ef89d7c	0.4855765
120	0xbea6a733	-0.32549438
121	0xbf7cded8	-0.9877753
122	0xbfa7b9d9	-1.3103591
123	0x3df37d77	0.11889165
124	0xbfabd53f	-1.3424453
125	0xbd9f49df	-0.07777762
126	0x3f86cc9b	1.0531191
127	0x3e333081	0.17498972
