weights/900_more_epochs_full_pieces.pth (torch, 929704 bytes, 7 tensors)

fc_layers.0.weight f4 [256, 133]
-0.016724102 0.0075767324 -0.016633777 0.024719663 -0.012800597 -0.0009805339 -0.01843113 0.023016095
-0.01729717 0.0066812835 -0.0022511245 -0.007843897 -0.010883626 -0.004871175 -0.010401892 0.0012560986
-0.022461958 0.014310926 -0.015838278 0.0016840948 -0.011956911 -0.012597326 -0.009597596 -0.021381775
-0.015444997 0.00014716029 -0.017285652 0.014206711 -0.014394241 0.0005272734 -0.016026009 0.0048921457
-0.03228339 0.035737194 -0.013244961 0.0051965453 -0.015501064 0.00035547093 -0.015327821 0.0011626814
-0.013975391 0.013284034 -0.016109744 0.001341388 -0.014116182 0.00075381744 -0.015743578 0.0025001864
-0.007998437 0.0046623866 -0.0116759855 -0.004838135 -0.012355557 0.0069900285 -0.013961071 0.0025082564
-0.016637832 0.003395227 -0.013912297 0.0006612599 -0.010525689 -0.004957739 -0.02159493 -5.7482142e-05
-0.01470236 -0.0025079644 -0.012373864 0.002560779 -0.014825455 -0.0093586 -0.014150238 0.00044304432
-0.009273397 -0.014033455 -0.01392469 -0.004529728 -0.015755594 0.004780163 -0.021109201 0.026716862
-0.018607358 -0.0015791175 -0.015334168 0.014225734 -0.012761349 -0.0016120314 -0.007992401 -0.016803514
-0.0180847 0.0138582215 -0.012373167 0.005271308 -0.010594624 -0.004576894 -0.008235065 -0.011877601
-0.060729127 0.080277 -0.014035805 -0.007556587 -0.01529081 -0.001103636 0.25424382 -0.3875845
-0.010617048 -0.0075978786 -0.014550715 0.003908812 -0.012054246 -0.005929334 -0.015710372 0.003964571
-0.013190738 -0.0063391156 0.2735701 -0.48133603 -0.01173862 -0.012901553 -0.007112683 0.004487169
-0.014125866 0.008287968 -0.012663977 -0.002614718 -0.010265499 -0.0016960227 -0.020869035 0.0138786975
0.0007696118 -0.023100179 -0.022020677 -0.028455328 -0.023134768 -0.0018379897 0.015854748 -0.009261836
0.005674708 -0.0036010272 0.012822026 0.00043471737 -0.022719065 -0.00060062204 -0.0133852055 0.13439555
-0.11109505 -0.0016945738 -0.009215601 -0.0056769364 0.0024183283 -0.039275527 0.064944625 0.13053313
-0.17030503 -0.0007716722 0.026831757 0.00067075586 -0.027004503 0.0054211016 -0.0030236938 -0.018086854
0.042685635 0.011847163 -0.020509923 -0.003075919 -0.020450901 -0.023739155 0.044789877 0.003625806
-0.0026924186 0.007243783 -0.05422101 0.002771292 -0.011207095 0.0012016741 -0.0011113691 -0.002759056
-0.003128953 -0.0058885943 0.018413823 -0.0012826781 -0.0077146115 0.0039808056 0.0053799106 0.03911745
-0.12871598 -0.0044827466 0.0024110032 -0.0042936364 0.009322364 -0.022297893 0.01708089 -0.0005614757
-0.00791107 -0.0004325981 -0.007752726 0.016706761 -0.041871566 0.049186513 -0.14304014 -0.10438159
0.177605 -0.0029147854 0.008882747 -0.014559037 0.04938821 0.028720522 -0.0857776 0.015041199
-0.06681071 0.0037280337 -0.033264257 -0.0262338 0.058156 -0.13123788 0.2372433 -0.023174563
0.041230302 0.0008708917 -0.0040133297 0.022857813 -0.07590271 -0.0228787 0.056628454 -0.0018468632
0.00042894622 -0.015710302 0.049890198 0.020868463 -0.07030453 0.0005415237 -0.034545146 0.02290546
-0.052768607 -0.020229628 0.053739257 -0.0012392546 -0.0087113585 -0.0006529836 -0.010956157 0.07914871
-0.16903256 -0.005070817 -0.0155425975 0.041742694 -0.06840756 -0.01028316 0.036064506 0.0032328817
0.0041519506 0.0016131394 0.0015690711 -0.007892792 0.0020063568 -0.015133422 0.044110112 -0.0065209763
00000000: fc00 89bc 3d46 f83b 8f43 88bc e480 ca3c
00000010: 98b9 51bc 4285 80ba e2fc 96bc 408c bc3c
00000020: cbb2 8dbc abee da3b 9a87 13bb b083 00bc
00000030: 3c51 32bc 619e 9fbb b26c 2abc ada3 a43a
00000040: 2402 b8bc 6078 6a3c 47bf 81bc d8bc dc3a
00000050: ebe6 43bc 0465 4ebc 3c3f 1dbc d528 afbc
00000060: 030d 7dbc 0a4f 1a39 a49a 8dbc 44c3 683c
00000070: d3d5 6bbc b838 0a3a fa48 83bc 4b4e a03b
00000080: 973b 04bd 2a61 123d 6501 59bc c847 aa3b
00000090: 2df8 7dbc 805e ba39 8a21 7bbc 1d65 983a
000000a0: 0af9 64bc 47a5 593c 95f8 83bc 83d1 af3a
000000b0: 8f47 67bc d59b 453a adf8 80bc 2bda 233b
000000c0: e00b 03bc efc6 983b a24c 3fbc 3889 9ebb
000000d0: f66e 4abc 9c0c e53b fabc 64bc 8f61 243b
000000e0: 104c 88bc 7582 5e3b 67f0 63bc 6758 2d3a
000000f0: f173 2cbc 8774 a2bb dae7 b0bc fb18 71b8
00000100: 2be2 70bc a95c 24bb bfbb 4abc bed2 273b
00000110: 77e6 72bc d054 19bc 66d6 67bc 6748 e839
00000120: 72ef 17bc 94ec 65bc 6224 64bc 1d6e 94bb
00000130: e011 81bc eaa2 9c3b 34ed acbc 52dd da3c
00000140: 756e 98bc 64fa ceba 2a3c 7bbc 0e13 693c
00000150: fa14 51bc cc4a d3ba 8ff2 02bc 86a7 89bc
00000160: 5d26 94bc 980d 633c d3b8 4abc f0ba ac3b
00000170: 1395 2dbc c5f9 95bb 5eec 06bc 459a 42bc
00000180: 1bbf 78bd 4568 a43d 6ff6 65bc 3f9d f7bb
00000190: 4e86 7abc e1a7 90ba 3f2c 823e 7a71 c6be
000001a0: 20f3 2dbc a0f7 f8bb 1f66 6ebc 7e15 803b
000001b0: 2c7f 45bc dc4a c2bb 0ab3 80bc 3be9 813b
000001c0: f71d 58bc 5bb8 cfbb 6111 8c3e ad71 f6be
000001d0: 5753 40bc 0961 53bc 8211 e9bb 1a09 933b
000001e0: 2d70 67bc 42ca 073c 927c 4fbc b05b 2bbb
000001f0: a030 28bc 144d deba 8af5 aabc 7a63 633c
00000200: c6bf 493a 963c bdbc b564 b4bc 261b e9bc
00000210: 2085 bdbc b3e8 f0ba d1e1 813c f5be 17bc
00000220: e7f2 b93b 36ff 6bbb 7a13 523c c7ea e339
00000230: 551d babc 1073 1dba 9f4d 5bbc fd9e 093e
00000240: cd85 e3bd 761c deba 08fd 16bc 9805 babb
00000250: d17c 1e3b 60df 20bd b001 853d 7aaa 053e
00000260: 7164 2ebe 0b4a 4aba 46ce db3c aad5 2f3a
00000270: 8c38 ddbc 7fa3 b13b 2a29 46bb e22a 94bc
00000280: 22d7 2e3d 9a1a 423c 6d04 a8bc 5c95 49bb
00000290: a688 a7bc 9e78 c2bc 9775 373d ee9e 6d3b
000002a0: 4a73 30bb 425d ed3b da16 5ebd 919e 353b
000002b0: f79d 37bc 7e81 9d3a 5cab 91ba 47d1 34bb
000002c0: 1f0f 4dbb 1cf5 c0bb 96d8 963c 891f a8ba
000002d0: daca fcbb 6b71 823b f649 b03b 9f39 203d
000002e0: 1fce 03be 01e4 92bb ec01 1e3b a2b1 8cbb
000002f0: d4bc 183c 12aa b6bc 39ed 8b3c ff2f 13ba
00000300: 6f9d 01bc 56ce e2b9 940a febb 9edc 883c
00000310: 8581 2bbd cc77 493d 1d79 12be 04c6 d5bd
00000320: 16de 353e fc05 3fbb f188 113c 0789 6ebc
00000330: 4b4b 4a3d 4d47 eb3c 2bac afbd 5c6f 763c
00000340: 0ed4 88bd 0752 743b 1a40 08bd 44e8 d6bc
00000350: fc34 6e3d 3963 06be e8ef 723e 95d8 bdbc
00000360: 1be1 283d 8d4c 643a 4082 83bb 4f40 bb3c
00000370: e172 9bbd 1d6c bbbc 3df3 673d 7212 f2ba
00000380: 30e4 e039 e4b2 80bc aa59 4c3d 57f4 aa3c
00000390: d2fb 8fbd 0af5 0d3a 367f 0dbd 3ba4 bb3c
000003a0: e523 58bd 9bb8 a5bc b21d 5c3d 7c6e a2ba
000003b0: 16ba 0ebc fd2c 2bba 7481 33bc b818 a23d
000003c0: df16 2dbe 1929 a6bb 61a6 7ebc 63fa 2a3d
000003d0: 4319 8cbd b37a 28bc 60b8 133d c1de 533b
000003e0: 160d 883b fa6f d33a 4aa9 cd3a c550 01bc
000003f0: 157d 033b 2cf2 77bc ceac 343d eaad d5bb

fc_layers.0.bias f4 [256]
-0.22793989 0.0900863 0.016084034 -0.104721755 0.05946991 -0.29615167 -0.16493616 -0.029709194
0.11689942 -0.008398544 -0.12701307 -0.23008871 -0.0044440944 -0.08322508 -0.061090183 -0.3727248
-0.03192693 -0.049021605 0.91012526 -0.09461048 0.020015089 -0.050471865 -0.23112294 -0.26857886
-0.2148402 0.10902591 -0.08330666 -0.45112872 -0.5010972 -0.25868413 -0.005367346 -0.0872025
-0.071362816 -0.062046845 0.0064207166 -0.3058256 0.13926776 -0.11181124 -0.51934373 -0.04280948
-0.4460053 -0.17371367 -0.015436462 0.022898702 -0.358727 0.050048493 0.10597797 0.02164837
-0.13429692 0.04251164 -0.009094637 -0.84030205 -0.3118385 -0.307343 -0.08907711 -0.20582087
0.037189934 -0.66500014 0.065640226 -0.075765416 -0.098706655 0.10129559 -0.44329032 -0.16032004
-0.112353675 -0.26498252 -0.10661595 -0.2573703 -0.21799256 -0.04920258 -0.3541815 -0.13693249
0.06001343 -0.1946441 -0.434384 -0.22256649 -0.19259058 -0.14832805 -0.17029361 -0.25782558
-0.23344794 -0.12930186 -0.2809612 0.038767386 -0.12393052 -0.21164916 -0.33721024 -0.11767115
-0.062148336 -0.094713755 -0.14011315 -0.6751415 -0.42462286 -0.38142687 -0.11257729 -0.18356165
-0.06938379 0.088806055 -0.30783138 -0.18116415 -0.05917144 -0.38254982 -0.14987274 -0.12828086
-0.1177559 -0.21034741 -0.10688757 0.14773813 0.7254231 -0.20985287 -0.040986832 0.0037134227
-0.14653157 -0.23449546 -0.14871363 -0.18302976 -0.19907196 0.048434794 0.20031992 0.06945671
0.048893873 0.1244508 -0.47452953 -0.43392876 -0.0633826 -0.072540306 0.09242412 -0.14819793
0.061699305 -0.39284787 0.019374048 -0.24612494 -0.8412042 -0.07561594 -0.066480845 -0.44830558
-0.49781606 0.051815514 -0.1998969 -0.12736797 0.036055353 -0.3281437 0.07941362 0.021120362
-0.13862623 -0.46456876 -0.24804083 0.14493096 0.04329182 -0.56040186 -0.69731367 0.09151568
-0.34947965 0.05160328 -0.44549266 -0.04454697 -0.51580375 -0.2979679 0.19781128 0.22612992
-0.0145923365 -0.8193633 -0.45410708 -0.31855175 0.10644686 -0.18227991 0.14334968 -0.24856444
-0.047754496 -0.14294994 0.13821863 0.006676106 -0.10685589 -0.1360408 -0.46978876 -0.09978158
-0.29872927 -0.6806513 0.10586977 -0.14134632 -0.45874217 -0.0082792835 0.11256476 -0.27958715
-0.2268216 -0.123712964 0.12517123 0.35098827 -0.19071883 0.18368268 -0.20609349 -0.18696679
0.010795927 -0.15039085 -0.17449637 -0.33358085 0.1470069 -0.16054769 0.17186637 -0.04251677
-0.0030924794 -0.28938755 -0.37961125 0.058300387 -0.023159437 -0.27457324 -0.060262874 0.013041318
-0.051977802 -0.20766923 0.021370698 -0.049747247 -0.49066618 -0.1642766 -0.32331696 0.082406886
0.10530882 -0.049673665 -0.37417927 0.122205056 0.10277071 -0.1524768 -0.43016604 0.008449796
-0.029513575 -0.26921523 -0.17388043 -0.35510975 0.061989672 -0.0061004255 -0.10661949 -0.042908236
-0.31855518 -0.023344077 -0.25120154 -0.11068105 -0.09641276 0.11927342 -0.061615437 -0.12278849
-0.1910114 -0.44904935 -0.2771139 -0.06414734 -0.22355916 0.08838882 -0.2441077 -0.0002312595
-0.018430248 -0.35990828 0.05315983 -0.22031124 -0.11524606 -0.01888331 -0.02304409 0.01951939
00000000: 1369 69be 2b7f b83d aac2 833c 5c78 d6bd
00000010: b896 733d 31a1 97be 06e5 28be b260 f3bc
00000020: f768 ef3d 0c9a 09bc b70f 02be 609c 6bbe
00000030: c49f 91bb e971 aabd b339 7abd c9d5 bebe
00000040: d0c5 02bd e1ca 48bd f8fd 683f 24c3 c1bd
00000050: aff6 a33c 96bb 4ebd 7eab 6cbe 2b83 89be
00000060: 12ff 5bbe fa48 df3d af9c aabd 58fa e6be
00000070: e847 00bf 3f72 84be 90e0 afbb 3997 b2bd
00000080: ab26 92bd d524 7ebd e064 d23b 2c95 9cbe
00000090: 359c 0e3e 4bfd e4bd b6f3 04bf fe58 2fbd
000000a0: cf5a e4be ffe1 31be 37e9 7cbc 0f96 bb3c
000000b0: 11ab b7be a6ff 4c3d fa0a d93d ec57 b13c
000000c0: 2285 09be af20 2e3d ac01 15bc 091e 57bf
000000d0: 4ca9 9fbe 105c 9dbe 0f6e b6bd b5c2 52be
000000e0: 7954 183d 733d 2abf 626e 863d e62a 9bbd
000000f0: b726 cabd 1074 cf3d f3f6 e2be f02a 24be
00000100: af19 e6bd caab 87be 7759 dabd 0ac6 83be
00000110: 7139 5fbe a588 49bd 4757 b5be 0838 0cbe
00000120: a4d0 753d c850 47be 9467 debe 78e8 63be
00000130: 7736 45be 4fe3 17be 7361 2ebe b701 84be
00000140: fa0c 6fbe b567 04be 25da 8fbe 8dca 1e3d
00000150: 49cf fdbd 8fba 58be d2a6 acbe 92fd f0bd
00000160: 418f 7ebd 49f9 c1bd d279 0fbe 13d6 2cbf
00000170: 2b68 d9be 624a c3be ec8e e6bd 96f7 3bbe
00000180: 1719 8ebd f3df b53d 139c 9dbe 1883 39be
00000190: c05d 72bd 92dd c3be 3d78 19be 0f5c 03be
000001a0: 012a f1bd 5065 57be dfe7 dabd aa48 173e
000001b0: 54b5 393f ace3 56be cfe1 27bd e55c 733b
000001c0: 5f0c 16be 941f 70be 6348 18be 276c 3bbe
000001d0: 85d9 4bbe 9063 463d aa20 4d3e 523f 8e3d
000001e0: f144 483d 10e0 fe3d 89f5 f2be e92b debe
000001f0: bdce 81bd 0390 94bd db48 bd3d 33c1 17be
00000200: 69b8 7c3d 5b23 c9be 53b6 9e3c 2d08 7cbe
00000210: 2959 57bf 88dc 9abd 1c27 88bd 4f88 e5be
00000220: bfe1 febe 813c 543d c6b1 4cbe c06c 02be
00000230: c7ae 133d 7302 a8be 9ca3 a23d 9c04 ad3c
00000240: 09f4 0dbe f5db edbe 6afe 7dbe c868 143e
00000250: c352 313d 7f76 0fbf 2683 32bf 936c bb3d
00000260: ffee b2be f65d 533d 9d17 e4be e276 36bd
00000270: b70b 04bf 408f 98be 0a8f 4a3e 9a8e 673e
00000280: b214 6fbc cbc1 51bf b980 e8be 3719 a3be
00000290: d000 da3d 96a7 3abe 42ca 123e ad87 7ebe
000002a0: 389a 43bd 7861 12be 2f89 0d3e 3cc3 da3b
000002b0: 43d7 dabd 484e 0bbe 2788 f0be 495a ccbd
000002c0: 0bf3 98be 2a3f 2ebf 40d2 d83d 17bd 10be
000002d0: 41e0 eabe d5a5 07bc 5a88 e63d 0c26 8fbe
000002e0: ec43 68be 395d fdbd e32c 003e bcb4 b33e
000002f0: cc4b 43be 5017 3c3e 2c0a 53be 3974 3fbe
00000300: 66e1 303c 0f00 1abe 2daf 32be 1ccb aabe
00000310: fa88 163e 9d66 24be bdfd 2f3e 1126 2ebd
00000320: 32ab 4abb 9b2a 94be 685c c2be 63cc 6e3d
00000330: dcb8 bdbc dd94 8cbe 34d6 76bd 41ab 553c
00000340: ade6 54bd 3ea7 54be 9a11 af3c c5c3 4bbd
00000350: 9938 fbbe 2038 28be cd89 a5be f1c4 a83d
00000360: 27ac d73d 9d76 4bbd 6d94 bfbe a546 fa3d
00000370: 7379 d23d e122 1cbe b93e dcbe 0371 0a3c
00000380: 74c6 f1bc 94d6 89be b60d 32be f2d0 b5be
00000390: e2e8 7d3d 14e6 c7bb 525b dabd 8cc0 2fbd
000003a0: aa19 a3be 143c bfbc 7d9d 80be bfac e2bd
000003b0: 0e74 c5bd 9f45 f43d 7860 7cbd 8878 fbbd
000003c0: 7e98 43be cce9 e5be e0e1 8dbe ae5f 83bd
000003d0: b1ec 64be 3305 b53d 5ef7 79be 407e 72b9
000003e0: 08fb 96bc e645 b8be 1fbe 593d 4599 61be
000003f0: 2006 ecbd 2cb1 9abc f6c6 bcbc 21e7 9f3c

fc_layers.2.weight f4 [512, 256]
-0.037782993 0.13935824 0.13854335 0.017381541 -0.011199231 0.080834776 0.010660018 -0.14257668
-0.027991135 -0.016487705 -0.10138242 -0.008061258 -0.11865756 -0.06696883 -0.08472785 -0.026234997
-0.047992602 -0.024459908 -0.0067508644 0.11298753 -0.08603939 -0.07479984 0.0034210607 0.16534992
-0.0083485935 -0.028550405 -0.004989463 -0.23091789 0.47065592 -0.009875694 -0.036220282 -0.014465546
-0.012270134 -0.039578754 0.11978922 -0.044269595 0.25237197 -0.005764606 -0.024821658 -0.032926217
-0.11210148 -0.03509891 0.114965215 0.11745608 -0.259931 -0.038047366 0.22406782 -0.056883488
-0.01832611 -0.0337668 0.035444956 -0.23956926 0.040077753 0.21112265 0.0040424573 0.12935056
0.008721154 -0.32869315 -0.019958124 0.15021361 -0.04177707 -0.037186038 0.0021368442 0.005322036
0.13146824 -0.0055331397 -0.019210238 -0.06868358 0.02093564 0.0055882707 0.27262795 -0.029708784
-0.030103028 0.122346334 -0.11071324 -0.015159146 0.05379972 -0.028178059 -0.055002682 0.16063783
-0.051985946 -0.017879613 0.003825933 0.14537635 -0.06291595 0.10585504 -0.022526108 -0.04040085
-0.070788786 0.087936625 -0.06528401 -0.06314463 0.29565397 0.058861148 -0.06309498 0.14102633
0.0077937776 -0.02744265 -0.0713337 0.020017691 -0.007765533 0.2960592 -0.053021792 0.07041971
0.010773259 0.0094758775 -0.008076835 0.18513368 0.07586812 0.1767829 -0.050619744 -0.00881008
-0.024352858 0.10749033 -0.014893581 0.12087399 0.022369646 0.20349929 -0.11768089 -0.059306942
-0.026350789 -0.024345664 0.44963357 -0.08038827 -0.15865065 -0.030164996 0.09078719 -0.025613075
-0.041390646 -0.015191624 -0.030368123 -0.100628205 -0.110455625 -0.009015359 0.38705385 0.33765903
0.10647023 -0.005862873 -0.21406467 0.014375263 -0.012430358 0.011740801 -0.14298767 -0.021953847
0.1192641 -0.04709962 0.0013899825 -0.030883335 -0.024591211 0.10258788 -0.02556005 -0.040773198
-0.053073574 -0.15638153 -0.3771366 -0.00068082864 -0.00656547 0.085587434 -0.11301737 -0.018088149
0.20602672 -0.13608253 -0.061780747 -0.022335954 0.16595657 -0.013918929 -0.031261638 0.031181559
0.07528189 -0.029447107 -0.03633182 0.025821498 -0.023182726 0.12566724 0.18001933 0.023647347
0.001658448 -0.05706022 -0.022201966 -0.030594843 0.28255725 -0.07400593 0.010045824 -0.15073879
0.043684788 -0.03566734 -0.03393219 0.11524336 -0.056391813 0.33798552 -0.021084266 -0.00145421
-0.0136682475 -0.0039286893 -0.014738749 -0.06222265 -0.066495515 -0.03998945 0.10277146 -0.010133499
-0.043004733 0.20461707 0.32375577 -0.10868891 0.0437204 0.010354104 0.054008942 -0.02155298
-0.002094172 0.015021015 0.053319503 -0.02773328 0.032545283 0.062420323 0.32584244 0.13744935
-0.019759992 -0.015298838 -0.04222371 -0.028775735 0.20617045 -0.023799606 0.32295895 -0.09381005
-0.18564154 0.40340948 -0.034288798 -0.00021141823 0.014106897 -0.034868233 -0.03500379 -0.043379642
0.052659694 -0.047058098 0.00019920352 0.10189516 -0.027929774 -0.018505804 -0.011335591 0.025187941
0.003650534 0.34838915 -0.098870054 -0.0036356535 0.053996745 -0.015691072 0.38459456 -0.01946644
-0.0074083637 -0.033851158 0.021445714 -0.01463259 -0.008107195 -0.009888 -0.029868916 0.007173803
00000000: 57c2 1abd edb3 0e3e 4fde 0d3e bc63 8e3c
00000010: fb7c 37bc b48c a53d 5ba7 2e3c 9fff 11be
00000020: aa4d e5bc 3911 87bc 96a1 cfbd 5e13 04bc
00000030: bc02 f3bd f426 89bd cc85 adbd c7ea d6bc
00000040: e493 44bd 2560 c8bc 5b36 ddbb 0266 e73d
00000050: 6b35 b0bd a930 99bd e033 603b 7d51 293e
00000060: 8ac8 08bc 8ae2 e9bc a67e a3bb bd75 6cbe
00000070: d0f9 f03e aacd 21bc b85b 14bd e600 6dbc
00000080: ac08 49bc 551d 22bd 0d54 f53d 0954 35bd
00000090: e636 813e 05e5 bcbb ca56 cbbc a4dd 06bd
000000a0: 7695 e5bd e0c3 0fbd e272 eb3d d08c f03d
000000b0: ad15 85be 8ed7 1bbd 0972 653e a9fe 68bd
000000c0: a320 96bc 0e4f 0abd bb2e 113d a551 75be
000000d0: 9228 243d 8930 583e 9776 843b 7974 043e
000000e0: 2ce3 0e3c 784a a8be 387f a3bc 99d1 193e
000000f0: 6f1e 2bbd 6350 18bd 4c0a 0c3b 7964 ae3b
00000100: 9c9f 063e 574f b5bb ca5e 9dbc faa9 8cbd
00000110: 3881 ab3c d01d b73b e495 8b3e d65f f3bc
00000120: a09a f6bc b790 fa3d a0bd e2bd 115e 78bc
00000130: 185d 5c3d acd5 e6bc 7e4a 61bd 3e7e 243e
00000140: 37ef 54bd 4478 92bc 81bc 7a3b 8add 143e
00000150: 14da 80bd 87ca d83d ac88 b8bc 5d7b 25bd
00000160: b6f9 90bd 1e18 b43d 9fb3 85bd f951 81bd
00000170: f55f 973e 6318 713d f137 81bd 3569 103e
00000180: f262 ff3b 69cf e0bc 6717 92bd 24fc a33c
00000190: 0376 febb 1295 973e 612d 59bd 3538 903d
000001a0: 5382 303c b640 1b3c b454 04bc af93 3d3e
000001b0: bf60 9b3d 9406 353e a656 4fbd 2758 10bc
000001c0: a57f c7bc e423 dc3d 3504 74bc c88c f73d
000001d0: 8c40 b73c 1e62 503e ae02 f1bd d6eb 72bd
000001e0: 9cdd d7bc 8f70 c7bc 5f36 e63e 9ba2 a4bd
000001f0: 5175 22be 951c f7bc a2ee b93d 83d2 d1bc
00000200: 3d89 29bd 4ae6 78bc 92c6 f8bc 2916 cebd
00000210: 8f36 e2bd 28b5 13bc ec2b c63e a5e1 ac3e
00000220: 100d da3d 581d c0bb c533 5bbe 3986 6b3c
00000230: b3a8 4bbc 7d5c 403c 5c6b 12be 8ed8 b3bc
00000240: bd40 f43d 88eb 40bd 1330 b63a 0cff fcbc
00000250: 8273 c9bc 9819 d23d 4f63 d1bc cc01 27bd
00000260: ad63 59bd 7b22 20be 0c18 c1be a379 32ba
00000270: 2723 d7bb 7748 af3d a775 e7bd 992d 94bc
00000280: abf8 523e 3859 0bbe cf0d 7dbd e4f9 b6bc
00000290: 85f0 293e 380c 64bc 340c 00bd 7870 ff3c
000002a0: 642d 9a3d 0f3b f1bc add0 14bd 9b87 d33c
000002b0: b3e9 bdbc eaae 003e fd56 383e 15b8 c13c
000002c0: 4860 d93a fab7 69bd e6e0 b5bc 09a2 fabc
000002d0: 58ab 903e 6c90 97bd 3d97 243c 455b 1abe
000002e0: d2ee 323d eb17 12bd 7bfc 0abd b604 ec3d
000002f0: 1afb 66bd 700c ad3e e9b8 acbc 319b beba
00000300: c9f0 5fbc 3cbc 80bb cb7a 71bc 2ddd 7ebd
00000310: cd2e 88bd facb 23bd d879 d23d fa06 26bc
00000320: bb25 30bd 2387 513e 51c3 a53e 4b98 debd
00000330: 2a14 333d 43a4 293c 7b38 5d3d e08f b0bc
00000340: 603e 09bb b41a 763c 8d65 5a3d e730 e3bc
00000350: 344e 053d 74ac 7f3d d2d4 a63e 86bf 0c3e
00000360: b5df a1bc faa7 7abc c5f2 2cbd 17bb ebbc
00000370: 591e 533e 64f7 c2bc e05a a53e 7c1f c0bd
00000380: d118 3ebe b08b ce3e 6972 0cbd 26b0 5db9
00000390: 9d20 673c fed1 0ebd 2260 0fbd daae 31bd
000003a0: b1b1 573d febf 40bd 4ae1 5039 69ae d03d
000003b0: fbcc e4bc 7c99 97bc eab8 39bc f156 ce3c
000003c0: cc3d 6f3b 1060 b23e 627c cabd 2544 6ebb
000003d0: b12b 5d3d 908a 80bc 94e9 c43e 1578 9fbc
000003e0: dcc1 f2bb 83a7 0abd ecae af3c 88bd 6fbc
000003f0: 0ad4 04bc 4701 22bc a8af f4bc 3912 eb3b

fc_layers.2.bias f4 [512]
0.06504986 -0.3411922 -0.5030275 -0.260499 -0.44247538 -0.24548765 -0.19418477 -0.16514671
-0.1141046 -0.23308872 0.19909763 -0.2699456 0.035122167 -0.2671181 -0.029023409 -0.12212716
-0.18406045 0.011523168 -0.6719471 0.22843994 -0.0437518 0.13954234 -0.3871649 0.51490116
1.00093 -0.008584687 -0.47969133 -0.0996833 -0.289618 -0.31442663 -0.5277368 0.24663176
-0.17717154 0.19941735 -0.21117327 -0.22890347 -0.36693674 -0.34128946 -0.37978426 -0.23775133
-0.109918624 0.074273825 -0.096808836 -0.16725065 0.024667414 -0.14524177 -0.14368881 0.3511529
-0.30702654 -0.16212305 0.100808956 0.03993885 -0.25095809 -0.053420305 0.030459903 -0.061835334
-0.20467868 -0.029993752 0.022164125 -0.2196462 -0.40644512 -0.25104123 -0.10634759 0.13844377
-0.3161077 -0.26306134 0.14007378 -0.20257428 0.011255921 -0.22338389 0.6378975 -0.09763826
0.19997741 -0.18298022 -0.2341891 -0.4077553 -0.02577997 0.53569365 0.5150551 0.7785617
-0.0030819227 -0.1472352 -0.30980134 -0.023326972 0.24523142 0.07746045 -0.15388969 -0.20897916
-0.17115445 0.056926943 -0.50198257 -0.009737376 -0.56057703 -0.25866723 0.28614822 0.9013625
-0.34002763 -0.22312449 -0.25296804 -0.41906217 -0.46390092 0.06374117 -0.33714995 -0.27477583
-0.4459251 0.0065019694 -0.26412567 0.24923435 -0.686057 0.1745496 -0.40299118 -0.33566856
-0.3156867 0.040374808 -0.547248 -0.12708142 -0.105236344 -0.41235733 -0.545093 -0.25919488
-0.3956895 -0.1898612 0.2162075 -0.07471098 -0.28587973 0.08568003 -0.031948157 -0.306991
-0.12973027 -0.00040613563 0.14723922 -0.027948625 0.21560922 -0.17629269 -0.17963569 -0.26044434
-0.06424448 -0.23857585 -0.38830492 -0.44969186 0.6328536 0.67374176 -0.44927764 -0.21882008
-0.01748545 0.02280471 -0.32803848 -0.7821549 -0.11646809 -0.1744561 -0.39738268 -0.15056568
0.27059305 -0.4852665 0.049486496 -0.64874524 -0.07474543 -0.33904687 0.20214906 0.2920444
-0.2827812 0.24681576 -0.18133439 -0.12208457 0.077511996 0.08586444 -0.40651184 0.65955967
0.1887606 -0.15500087 0.7481631 -0.0741183 0.17974408 0.019184133 -0.28381643 0.12074655
-0.014688455 0.5033812 -0.622197 0.5980735 -0.17079899 -0.18975177 -0.029078495 -0.3872059
-0.16908659 -0.47547868 -0.25633642 -0.1421184 0.3599355 -0.021500258 -0.34922475 -0.2897195
0.086071774 -0.010934383 -0.4709289 -0.27867347 -0.123484 -0.23206708 -0.3428878 -0.20306951
0.011011869 0.20267609 -0.22924651 -0.23392868 0.83880925 -0.13948995 -0.18432462 0.07620445
-0.3115083 0.08521759 -0.12610842 -0.3591787 0.42667893 -0.13416629 -0.14660929 0.20898347
-0.018103624 -0.3637472 -0.2916827 -0.57154214 -0.29797944 -0.10742424 0.23663957 0.036612153
-0.0863003 0.26761734 -0.14641434 -0.19270949 -0.48451224 -0.03493649 -0.2915177 -0.116116524
-0.5163559 -0.4192894 0.28249535 -0.15448886 0.25322703 0.17952083 0.07042491 -0.092166156
-0.020565582 -0.124733746 -0.5724461 -0.26105884 -0.16904595 -0.5019032 -0.29069257 -0.02996282
-0.518159 0.20360036 -0.65864277 -0.55908453 -0.33969545 -0.42938566 -0.403242 -0.20958525
00000000: dc38 853d beb0 aebe 69c6 00bf 2060 85be
00000010: 228c e2be 1d61 7bbe 5fd8 46be 381c 29be
00000020: acaf e9bd cfae 6ebe 40e0 4b3e 4f36 8abe
00000030: 43dc 0f3d b4c3 88be 80c2 edbc ce1d fabd
00000040: 587a 3cbe abcb 3c3c ba04 2cbf 29ec 693e
00000050: 1635 33bd 30e4 0e3e 7a3a c6be 90d0 033f
00000060: 791e 803f c9a6 0cbc 1a9a f5be c226 ccbd
00000070: cf48 94be 87fc a0be c219 07bf 098d 7c3e
00000080: 756c 35be 1034 4c3e ce3d 58be ac65 6abe
00000090: 22df bbbe 7ebd aebe 1573 c2be 1675 73be
000000a0: 041d e1bd e01c 983d b643 c6bd c143 2bbe
000000b0: 5113 ca3c 42ba 14be 2923 13be 50ca b33e
000000c0: 9532 9dbe 9603 26be ed74 ce3d eb96 233d
000000d0: 947d 80be 40cf 5abd 0c87 f93c 0c47 7dbd
000000e0: 4a97 51be 75b5 f5bc 8a91 b53c efea 60be
000000f0: 9319 d0be 7a88 80be c4cc d9bd 34c4 0d3e
00000100: ded8 a1be faaf 86be 806f 0f3e a26f 4fbe
00000110: c16a 383c bfbe 64be 404d 233f 91f6 c7bd
00000120: e1c6 4c3e 2b5f 3bbe 44cf 6fbe 4dc5 d0be
00000130: 8430 d3bc 3823 093f a7da 033f d24f 473f
00000140: 15fa 49bb d3c4 16be 489e 9ebe 3518 bfbc
00000150: f21d 7b3e 96a3 9e3d 4295 1dbe a2fe 55be
00000160: 1d43 2fbe 3a2c 693d ee81 00bf 8489 1fbc
00000170: fa81 0fbf 0870 84be 0582 923e b1bf 663f
00000180: 1a18 aebe bf7a 64be 0785 81be 518f d6be
00000190: 6c84 edbe bb8a 823d eb9e acbe 6baf 8cbe
000001a0: 4b50 e4be 790e d53b 7b3b 87be 4a37 7f3e
000001b0: 6ea1 2fbf 21bd 323e dc54 cebe c0dc abbe
000001c0: b0a1 a1be 0e60 253d 7218 0cbf a221 02be
000001d0: 2786 d7bd 8020 d3be 378b 0bbf 31b5 84be
000001e0: d097 cabe f96a 42be 8065 5d3e 1202 99bd
000001f0: d45e 92be 0379 af3d 12dc 02bd ed2d 9dbe
00000200: 03d8 04be 9aee d4b9 e1c5 163e 84f4 e4bc
00000210: aac8 5c3e 1286 34be 6bf2 37be f658 85be
00000220: 9c92 83bd 3a4d 74be e7cf c6be 033e e6be
00000230: b202 223f 577a 2c3f b807 e6be 5f12 60be
00000240: a53d 8fbc f1d0 ba3c a9f4 a7be 4e3b 48bf
00000250: d286 eebd 9fa4 32be be75 cbbe e42d 1abe
00000260: 2c8b 8a3e da74 f8be 5ab2 4a3d 2b14 26bf
00000270: 2214 99bd 8d97 adbe 2a00 4f3e d886 953e
00000280: b3c8 90be 45bd 7c3e b9af 39be 7a07 fabd
00000290: 9cbe 9e3d b2d9 af3d 5222 d0be e7d8 283f
000002a0: 754a 413e 8cb8 1ebe 9e87 3f3f 56cb 97bd
000002b0: d50e 383e 0b28 9d3c 6350 91be f849 f73d
000002c0: d8a7 70bc 97dd 003f 4d48 1fbf 581b 193f
000002d0: eee5 2ebe 4a4e 42be 0636 eebc da3f c6be
000002e0: 0925 2dbe f171 f3be 873e 83be 7c87 11be
000002f0: 7749 b83e 4f21 b0bc 96cd b2be 1d56 94be
00000300: 6646 b03d 2026 33bc 981d f1be 4aae 8ebe
00000310: 2ee5 fcbd fea2 6dbe fd8e afbe 74f1 4fbe
00000320: 206b 343c 528a 4f3e 99bf 6abe 008b 6fbe
00000330: 34bc 563f 74d6 0ebe 98bf 3cbe 1411 9c3d
00000340: 047e 9fbe 8f86 ae3d 9122 01be 45e6 b7be
00000350: a975 da3e e362 09be bf20 16be c3ff 553e
00000360: 0d4e 94bc 133d babe 6f57 95be 9650 12bf
00000370: c390 98be 3d01 dcbd a551 723e a0f6 153d
00000380: 36be b0bd 2405 893e a4ed 15be a355 45be
00000390: fd11 f8be 9119 0fbd cf41 95be 80ce edbd
000003a0: e62f 04bf 1aad d6be 3ba3 903e 5432 1ebe
000003b0: f9a6 813e 4fd4 373e ef3a 903d 9cc1 bcbd
000003c0: 2779 a8bc 6874 ffbd d48b 12bf 81a9 85be
000003d0: 621a 2dbe ba7c 00bf a8d5 94be 9674 f5bc
000003e0: 11a6 04bf 9d7c 503e d09c 28bf 2a20 0fbf
000003f0: 90ec adbe 70d8 dbbe bc75 cebe 849d 56be

fc_layers.4.weight f4 [128, 512]
-0.040946603 -0.17872527 -0.82374597 -0.15579328 0.11609928 -0.032588713 0.0059163314 -0.11731834
0.029497018 0.013425601 0.06798149 -0.07311536 -0.12148484 0.04491716 -0.050031476 -0.054237932
-0.11706814 0.093787074 -0.25268552 -0.15403655 -0.22384544 -0.08353884 0.05841402 -0.19783098
-0.13566923 -0.030243518 -0.00264689 0.030968785 -0.031424936 -0.050007835 -0.44039088 0.04491896
-0.061884444 -0.027083673 0.039684076 0.07336955 -0.15000154 0.00772521 0.057042886 -0.1692468
0.08979188 0.030422168 0.18893212 -0.01082271 -0.07860656 0.030887298 0.001994707 -0.12933709
-0.14357813 -0.08184687 -0.062985346 -0.1433878 -0.8367526 0.058760945 -0.09283089 0.04860647
0.0035806126 -0.041485358 -0.120355345 -0.053329725 0.022653447 -0.058030028 0.051805537 0.053131588
-0.10771799 -0.098033614 0.08504257 -0.10783469 0.04620107 -0.016573055 -0.113987364 0.10638518
0.024443084 0.054856032 -0.06930672 0.05915286 0.06439163 -0.23246627 -0.23202612 -0.06967288
-0.041805714 0.044193994 -0.111862965 -0.15578586 -0.13961747 -0.10721272 -0.03742159 -0.114668116
0.15209256 -0.08503284 0.051439174 -0.08731107 -0.21529652 0.043118563 0.16186965 -0.09140196
0.0005281193 0.027417215 -0.080273055 -0.052770104 0.017772024 -0.111776754 -0.045273338 0.12025534
0.021369683 -0.0005184165 -0.071217455 -0.11949644 0.2169956 -0.19565496 0.029094782 -0.036454234
-0.18017818 0.097872205 -0.018915929 -0.05665676 0.0047047255 0.07818584 0.06934845 0.095494665
0.17298497 -0.17015144 0.068173595 0.020573553 0.06425356 -0.0014197608 -0.13383171 -0.13834082
0.047666676 -0.15092061 -0.043422166 0.05282717 0.044133984 -0.09315936 -0.06362352 -0.0052448874
-0.011715778 0.08541999 -0.034510177 -0.37970158 -0.2649411 -0.21299082 0.07554326 -0.05900114
-0.0973956 0.1020253 -0.12387913 -0.32875672 -0.0004933956 0.06700295 0.09943941 -0.019587955
-0.18328199 0.020353949 -0.019138027 0.08944636 -0.021916145 0.018454514 -0.1802914 -0.021099763
0.0073911054 0.09479548 -0.019218935 -0.051979277 -0.10175557 0.077601 0.060820878 -0.032523796
-0.24769773 0.08436386 -0.08704237 0.039114706 -0.1507909 0.02627798 -0.10378877 0.010838037
0.046695475 -0.1164532 -0.026167812 -0.3016233 -0.053317573 0.081812635 -0.010424182 0.017393295
0.030541688 0.07175531 0.057589762 -0.04613861 -0.06042003 -0.008602801 -0.0466907 0.0395682
-0.083690636 0.029873189 0.10557107 0.094810985 -0.069278434 -0.065015055 -0.012723845 -0.1138573
-0.09464686 -0.17297098 -0.12721111 -0.011940584 -0.08229616 -0.15652639 -0.07825786 -0.09244021
-0.058146663 0.04111543 0.009782047 0.06406833 -0.08116165 -0.032652374 -0.09332737 0.061960846
-0.054781612 -0.0449304 0.04434236 -0.028052015 -0.044192504 0.05029063 -0.024865065 0.14415154
0.007919397 0.081428766 -0.01835404 0.041198835 -0.2543628 0.015341912 0.17744653 0.094778515
0.17488335 0.05641694 0.078997 -0.10043526 -0.25675452 -0.01898681 0.0036247203 -0.016117167
-0.07159794 0.0240132 -0.4145521 0.05296672 -0.081805505 -0.04853495 0.05212 -0.057761703
0.039349496 -0.20060192 0.11752027 -0.039375197 -0.036903877 0.18167563 0.037865836 0.036671117
00000000: a0b7 27bd c203 37be 04e1 52bf 4688 1fbe
00000010: 76c5 ed3d be7b 05bd c9dd c13b 9944 f0bd
00000020: bba3 f13c 0df7 5b3c e139 8b3d 82bd 95bd
00000030: 0bcd f8bd 0efb 373d ceed 4cbd 9828 5ebd
00000040: 6cc1 efbd 7013 c03d ff5f 81be c2bb 1dbe
00000050: bd37 65be 6916 abbd 8a43 6f3d 3494 4abe
00000060: e0ec 0abe 41c1 f7bc 7277 2dbb 40b2 fd3c
00000070: 6fb7 00bd 04d5 4cbd ea7a e1be f2fc 373d
00000080: 8b7a 7dbd 94de ddbc c58b 223d c642 963d
00000090: 019a 19be c223 fd3b cda5 693d 084f 2dbe
000000a0: cee4 b73d e937 f93c 6c77 413e bc51 31bc
000000b0: 7afc a0bd 5c07 fd3c a1b9 023b f170 04be
000000c0: 2506 13be 559f a7bd 76fe 80bd 40d4 12be
000000d0: 6b35 56bf 51af 703d 1f1e bebd 9417 473d
000000e0: b6a8 6a3b 8dec 29bd dd7c f6bd 4570 5abd
000000f0: b993 b93c e5b0 6dbd 0b32 543d 82a0 593d
00000100: 409b dcbd d9c5 c8bd cd2a ae3d 6fd8 dcbd
00000110: 553d 3d3d 37c4 87bc 3572 e9bd 79e0 d93d
00000120: dd3c c83c b8b0 603d aef0 8dbd 454a 723d
00000130: c2df 833d a30b 6ebe 4198 6dbe a8b0 8ebd
00000140: 783c 2bbd c304 353d 6918 e5bd 5486 1fbe
00000150: e2f7 0ebe 5892 dbbd 6247 19bd 1ed7 eabd
00000160: 27be 1b3e b325 aebd e2b1 523d 25d0 b2bd
00000170: b176 5cbe 179d 303d 28c1 253e f330 bbbd
00000180: 7c71 0a3a 119a e03c 3366 a4bd 7725 58bd
00000190: a396 913c 36eb e4bd 8970 39bd 6f48 f63d
000001a0: 790f af3c 58e6 07ba 75da 91bd 8dba f4bd
000001b0: 1834 5e3e c659 48be 2e58 ee3c 0951 15bd
000001c0: a180 38be 3971 c83d 94f5 9abc eb10 68bd
000001d0: 192a 9a3b e61f a03d 8f06 8e3d b592 c33d
000001e0: f922 313e 2e3c 2ebe 999e 8b3d de89 a83c
000001f0: 5f97 833d 4417 baba 2e0b 09be 37a9 0dbe
00000200: 223e 433d ef8a 1abe 71db 31bd 4d61 583d
00000210: d6c5 343d 56ca bebd 0c4d 82bd 4edd abbb
00000220: 89f3 3fbc adf0 ae3d 8b5a 0dbd 3f68 c2be
00000230: 5ca6 87be 441a 5abe 6db6 9a3d 2eab 71bd
00000240: 5877 c7bd a4f2 d03d 57b4 fdbd cd52 a8be
00000250: 3857 01ba d838 893d e4a6 cb3d eb76 a0bc
00000260: 46ae 3bbe 53bd a63c 5ac7 9cbc a72f b73d
00000270: 7d89 b3bc ec2d 973c 4f9e 38be 69d9 acbc
00000280: 1631 f23b 2224 c23d 0771 9dbc 39e8 54bd
00000290: 3965 d0bd 46ed 9e3d 501f 793d ac37 05bd
000002a0: 79a4 7dbe f6c6 ac3d 4543 b2bd be36 203d
000002b0: ee68 1abe eb44 d73c 358f d4bd 0692 313c
000002c0: c143 3f3d 047f eebd e15d d6bc 5f6e 9abe
000002d0: 8763 5abd 628d a73d 30ca 2abc 627c 8e3c
000002e0: 9032 fa3c 73f4 923d 3ee3 6b3d d7fb 3cbd
000002f0: fe7a 77bd c3f2 0cbc bf3e 3fbd 4412 223d
00000300: ff65 abbd 9eb8 f43c a535 d83d 432c c23d
00000310: dae1 8dbd 9d26 85bd ad77 50bc 042e e9bd
00000320: 37d6 c1bd 4e1f 31be a143 02be 70a2 43bc
00000330: e48a a8bd 7448 20be a845 a0bd 4b51 bdbd
00000340: 322b 6ebd a768 283d e144 203c 4236 833d
00000350: 1438 a6bd 7fbe 05bd 6c22 bfbd a8ca 7d3d
00000360: af62 60bd f008 38bd 56a0 353d 57cd e5bc
00000370: 3303 35bd 8cfd 4d3d d2b1 cbbc 769c 133e
00000380: 5cc0 013c 20c4 a63d 365b 96bc 1cc0 283d
00000390: d73b 82be a55c 7b3c 8bb4 353e 3d1b c23d
000003a0: 9f14 333e 7315 673d 2ec9 a13d 00b1 cdbd
000003b0: 5475 83be 3a8a 9bbc b78c 6d3b 2608 84bc
000003c0: f1a1 92bd 55b7 c43c 2c40 d4be a2f3 583d
000003d0: a589 a7bd 95cc 46bd c87b 553d 8997 6cbd
000003e0: f02c 213d 976a 4dbe 78ae f03d e347 21bd
000003f0: 8528 17bd 2d09 3a3e 3519 1b3d 7434 163d

fc_layers.4.bias f4 [128]
0.17075631 -0.33340797 -0.17843197 -0.033652943 -0.10785941 0.09498517 0.04329702 -0.5226485
-0.18454145 0.036156747 0.070122235 -0.10805412 -0.3897168 -0.31123802 -0.14762838 0.020679353
0.025818774 -0.07981563 -0.5443987 0.03795902 -0.031365078 0.022991002 -0.18513188 -0.050835572
-0.0067771343 0.050059423 -0.06436334 -0.4228704 0.038425934 0.11444708 -0.048109416 0.2826628
-0.24473067 -0.25354865 0.029716441 0.050032727 0.005054043 -0.010564111 0.033625457 -0.36022344
-0.26760685 0.1296076 0.08914887 0.008968163 -0.49177495 -0.2016497 -0.124942 0.0037471491
0.08183087 0.075134985 0.246759 0.15585816 0.008792136 -0.015460913 0.0041913926 0.017316174
0.015288122 -0.41114762 0.13715254 -0.12074974 -0.32606533 0.028780622 -0.42511994 -0.26558328
0.0013174622 0.09100699 0.012670712 0.070582785 -0.3876948 -0.51598084 -0.22045559 0.17038038
-0.21980871 0.008050386 -0.55085313 -0.09279434 -0.078412324 0.045566496 -0.17171156 0.005148168
0.15625754 0.0060758763 -0.3061331 -0.50928104 0.108078994 -0.0641966 -0.017561156 -0.52101386
0.20835291 -0.14819174 0.040635012 0.008336418 -0.12215435 -0.018274762 0.070048645 -0.33961195
-0.27111036 -0.24187325 -0.52829707 0.088990495 -0.55352557 -0.40534896 0.35600334 -0.43876976
0.029386545 -0.42002854 -0.077892855 -0.2524567 0.005153549 -0.026406728 0.09730692 -0.45271286
-0.4332449 0.15081836 0.10326265 -0.07404072 0.12329304 -0.4046617 0.020930808 -0.18532798
-0.1029968 0.111455224 0.053467367 -0.017010124 0.0129983295 0.049050648 0.06425159 -0.050210234
00000000: beda 2e3e 73b4 aabe dfb6 36be abd7 09bd
00000010: 65e5 dcbd 9687 c23d 3758 313d 4bcc 05bf
00000020: 6ff8 3cbe 1919 143d 3f9c 8f3d 7a4b ddbd
00000030: f688 c7be 975a 9fbe e52b 17be bf67 a93c
00000040: e581 d33c 6176 a3bd b75d 0bbf eb7a 1b3d
00000050: ab78 00bd a057 bc3c 3693 3dbe f638 50bd
00000060: b912 debb 1c0b 4d3d edd0 83bd 7882 d8be
00000070: 8364 1d3d 3b63 ea3d 610e 45bd 2eb9 903e
00000080: ad9a 7abe 21d1 81be e56f f33c 1eef 4c3d
00000090: 639c a53b 1815 2dbc d9ba 093d 356f b8be
000000a0: c403 89be dbb7 043e af93 b63d 34ef 123c
000000b0: edc9 fbbe 427d 4ebe 97e1 ffbd bb92 753b
000000c0: f196 a73d 5fe0 993d 64ae 7c3e 4899 1f3e
000000d0: e40c 103c c54f 7dbc f357 893b a6da 8d3c
000000e0: 087b 7a3c f181 d2be b771 0c3e a44b f7bd
000000f0: 09f2 a6be 57c5 eb3c 52a9 d9be 88fa 87be
00000100: b2ae ac3a df61 ba3d d198 4f3c b58d 903d
00000110: ef7f c6be 5217 04bf 1cbf 61be 3278 2e3e
00000120: 8915 61be c4e5 033c b604 0dbf f50a bebd
00000130: a496 a0bd efa3 3a3d 28d5 2fbe f7b1 a83b
00000140: fa01 203e 2518 c73b 7abd 9cbe 3e60 02bf
00000150: 8558 dd3d 8279 83bd 6adc 8fbc 2a61 05bf
00000160: 775a 553e 93bf 17be e670 263d 7995 083c
00000170: 0f2c fabd f4b4 95bc aa75 8f3d 9ee1 adbe
00000180: face 8abe 9fad 77be 7a3e 07bf a640 b63d
00000190: dab3 0dbf e689 cfbe 1246 b63e 6ea6 e0be
000001a0: 0dbc f03c fb0d d7be 4a86 9fbd 0142 81be
000001b0: 1adf a83b ec52 d8bc da48 c73d fbc9 e7be
000001c0: 47d2 ddbe 2170 1a3e 5e7b d33d a9a2 97bd
000001d0: 1081 fc3d d12f cfbe 1677 ab3c 9ec6 3dbe
000001e0: fcef d2bd a342 e43d 9900 5b3d d158 8bbc
000001f0: f2f6 543c 55e9 483d 5696 833d 3fa9 4dbd

classification_layer.weight f4 [1, 128]
1.7689556 -0.42477533 -3.1665227 0.1410784 -0.17178567 -1.7762481 -1.8925554 0.5232559
-0.13480473 -1.3598242 -1.5742636 -0.32088056 0.5422381 1.2310535 3.6016247 0.14486612
-2.3135617 -0.37538424 -0.49942598 -0.15783605 1.4997602 -1.0972097 -0.35123664 -3.5413973
-0.180351 2.0118787 0.32939112 -1.371558 -3.043423 -2.0572917 0.15076798 3.200103
-0.47161594 1.1139662 -0.3645512 -0.12861846 2.6956599 0.8641612 0.14512962 3.1696439
-0.41705844 4.093817 -1.6927989 0.2072762 -1.022643 -3.0298884 -0.14843944 3.1239665
0.3340178 1.6748655 1.765209 -1.691381 -0.13766824 0.20275423 -2.2112777 -0.13148555
0.1307858 0.6628888 1.7724556 0.109307274 -0.2449115 -0.18102862 1.2595053 0.5669387
1.6828512 1.9987758 -0.32839638 1.8422185 -0.61365587 0.59424573 2.3329918 -1.5496328
-4.0380464 0.30644992 -0.6016509 0.15121943 0.3924002 -1.991517 2.8287883 2.1761844
-1.4202893 -0.116921514 -0.24426466 0.53026694 2.1508813 0.42083305 2.102367 -0.51622427
-1.9659725 -0.30120763 1.6124068 -0.14218996 2.278392 -2.4982352 4.5074935 0.62140393
3.1064806 0.2840212 -6.138572 1.5526801 0.87479013 4.18802 -2.071259 -0.46813843
1.6671704 -0.7147002 1.1192918 -3.8820493 -1.5080417 -0.15670645 1.9389726 -0.4613676
0.6406343 -1.601613 0.28065342 -0.11764254 -2.120525 0.4825338 0.17548524 0.42146435
-0.35213515 -1.7702949 -2.3278294 0.14338398 -4.325297 -0.119444855 1.4589024 0.38433343
00000000: 236d e23f 277c d9be 4fa8 4ac0 db76 103e
00000010: 95e8 2fbe 195c e3bf 413f f2bf 19f4 053f
00000020: 400a 0abe b80e aebf 7881 c9bf 754a a4be
00000030: 1ed0 0a3f 2993 9d3f 0581 6640 c957 143e
00000040: 6511 14c0 5d32 c0be c3b4 ffbe c69f 21be
00000050: 24f8 bf3f 5e71 8cbf 4ad5 b3be 41a6 62c0
00000060: efad 38be 9fc2 0040 f4a5 a83e 368f afbf
00000070: 71c7 42c0 abaa 03c0 ec62 1a3e 7dce 4c40
00000080: a577 f1be 7296 8e3f 74a6 babe 8fb4 03be
00000090: b185 2c40 ab39 5d3f dc9c 143e 72db 4a40
000000a0: af88 d5be 8d00 8340 a2ad d8bf 3640 543e
000000b0: f7e5 82bf b1e9 41c0 8200 18be 11ef 4740
000000c0: 6204 ab3e fe61 d63f 5ef2 e13f 2c7f d8bf
000000d0: e7f8 0cbe ce9e 4f3e 9385 0dc0 26a4 06be
000000e0: b6ec 053e 15b3 293f d3df e23f 7edc df3d
000000f0: 15ca 7abe 915f 39be 7837 a13f e522 113f
00000100: ab67 d73f e3d7 ff3f 9223 a8be d1cd eb3f
00000110: 8d18 1dbf 7d20 183f bd4f 1540 5e5a c6bf
00000120: ad37 81c0 01e7 9c3e cb05 1abf 44d9 1a3e
00000130: aee8 c83e 07ea febf de0a 3540 9b46 0b40
00000140: 0acc b5bf 8c74 efbd 8420 7abe 93bf 073f
00000150: 0aa8 0940 6e77 d73e 2e8d 0640 4627 04bf
00000160: fda4 fbbf e337 9abe 5963 ce3f 3f9a 11be
00000170: 2dd1 1140 16e3 1fc0 633d 9040 5414 1f3f
00000180: 94d0 4640 3a6b 913e 2f6f c4c0 39be c63f
00000190: 3ff2 5f3f 4304 8640 828f 04c0 d7af efbe
000001a0: d765 d53f 98f6 36bf f444 8f3f 7f73 78c0
000001b0: 8307 c1bf a877 20be 4130 f83f 6038 ecbe
000001c0: 9c00 243f a801 cdbf ceb1 8f3e 92ee f0bd
000001d0: aeb6 07c0 ac0e f73e 67b2 333e 2dca d73e
000001e0: 0f4b b4be 0699 e2bf 28fb 14c0 40d3 123e
000001f0: d568 8ac0 819f f4bd 50bd ba3f 5ac7 c43e
