weights/full_pieces.pth (torch, 929704 bytes, 7 tensors)

fc_layers.0.weight f4 [256, 133]
000000 1d 17 cc 3c ad ec 53 bd 1b 90 57 bd 0a 22 05 3e
       0.024913365 -0.051739383 -0.052627664 0.13001266
000010 ac d6 4c bc f5 4b 08 3d ad 85 70 bd 92 66 12 3e
       -0.012502354 0.033275563 -0.058721233 0.1429694
000020 68 79 58 3c 9c 79 b6 bc 9d 7e 27 3d 47 e3 b5 bd
       0.013212539 -0.022274785 0.040892232 -0.0888124
000030 af 80 60 3d ba a6 f0 bd 5b 65 0e bd a2 81 a4 3d
       0.054810222 -0.117505506 -0.03476463 0.08032538
000040 6a 10 f8 b9 a0 33 2c 3a f5 bd 87 bc 5f d1 36 3d
       -0.00047314476 0.0006568972 -0.01657007 0.044633266
000050 ec c4 ed 3c 97 c9 6b bd 8e 71 0c 3d 62 6e a5 bd
       0.029024564 -0.057565298 0.03428798 -0.080776945
000060 81 34 26 bd b0 2f bd 3d f8 8a 8c 3b 9c d8 ea bb
       -0.040577415 0.09237611 0.0042890273 -0.007166935
000070 49 1b bc bc ec 1e 4f 3d da 93 36 3d 49 2f bd bd
       -0.02296223 0.0505666 0.044574596 -0.092375346
000080 a7 d6 e6 3c 8a d1 78 bd 87 d3 5d bd 06 3c 00 3e
       0.028178526 -0.060746707 -0.054156806 0.12522897
000090 4c e2 8d 3c 7c df ad bc de 09 ee bc 43 87 70 3d
       0.01731982 -0.02122473 -0.02905744 0.058722746
0000a0 af 7a bd bc 09 cc 58 3d 7e 5c f5 bc 02 b2 98 3d
       -0.02312979 0.052928958 -0.02995133 0.07455827
0000b0 d9 32 27 bc 69 8f bf 3c 01 76 09 3d e5 96 87 bd
       -0.010204994 0.023383813 0.033559803 -0.06620578
0000c0 57 80 21 3c ad 3b 86 bc 11 fc 4a bd 9c 37 e4 3d
       0.009857259 -0.016385878 -0.049556796 0.11143419
0000d0 51 e1 87 3a 03 17 eb bb 97 23 39 3c 55 64 aa bc
       0.0010366832 -0.007174374 0.011299989 -0.020799795
0000e0 5e c3 aa bc f3 64 55 3d d6 23 20 bc 06 46 d2 3c
       -0.020845111 0.052098226 -0.009774169 0.025668155
0000f0 e7 36 4c 3d 8d 9c e1 bd 51 c8 8f 3c c2 01 1d bd
       0.049857046 -0.11016188 0.017551573 -0.038331755
000100 8d 77 2e 3c e5 54 e3 bc 05 45 cf 3b 41 ca 4b bc
       0.01064862 -0.027750442 0.0063253664 -0.012438358
000110 63 f7 0c 3d d7 ea 90 bd 35 80 0b bd b4 6c 8f 3d
       0.034415614 -0.07076042 -0.034057815 0.07003155
000120 2c 08 12 bb a2 d6 19 3c 1b 45 3e 3d c7 5c ca bd
       -0.0022282703 0.009389551 0.046452623 -0.09880977
000130 44 bf 18 bd 8a 03 a1 3d d1 6d 2e bd 12 b4 ca 3d
       -0.03729178 0.07862003 -0.042585198 0.09897627
000140 b1 71 12 bd f0 d8 bb 3d de 41 e0 3c ca 0f 77 bd
       -0.035752956 0.09172237 0.027375158 -0.060317792
000150 b6 47 fd bc a0 c9 a8 3d 38 c8 76 3d 1a ef 02 be
       -0.030917984 0.08241582 0.060249537 -0.12786523
000160 7b 5b 40 bc 71 51 11 3d 59 a5 79 bd 7d 7f 05 3e
       -0.011740561 0.03547806 -0.060948703 0.13036914
000170 7e 74 28 3d 80 42 b7 bd 21 4c ff 3c b9 c6 75 bd
       0.04112672 -0.08948231 0.03116423 -0.06000397
000180 2f 20 0e bd 7d ae a0 3d 60 f3 e2 3c 2a 4e 44 bd
       -0.03469866 0.07845781 0.02770394 -0.047926106
000190 15 5d f8 bb 68 22 93 3c 41 5c 7c 3d 75 f5 ff bd
       -0.0075794556 0.017960742 0.061611418 -0.12497989
0001a0 fe e4 2f 3c 22 55 a4 bc 76 01 80 bc b2 d9 15 3d
       0.010735748 -0.020060126 -0.015625697 0.036584564
0001b0 99 66 06 bc cd 26 a6 3c 24 73 38 bc a5 97 10 3d
       -0.008203172 0.020282174 -0.01125792 0.03530087
0001c0 00 89 0f 3d c5 05 95 bd 69 87 85 3d d2 5c 0c be
       0.035042763 -0.07276491 0.06519968 -0.13707283
0001d0 ee cb 0b 3d a8 15 8b bd 54 4b 8c 3c 01 2d 1c bd
       0.03413003 -0.0679124 0.017125763 -0.038128857
0001e0 10 84 63 bc 35 a0 dc 3c e5 a6 92 bc e7 2e 28 3d
       -0.013886467 0.026931861 -0.017901847 0.041060355
0001f0 47 34 7e bc 33 15 05 3d 32 1f 27 bd c4 5c c6 3d
       -0.015515394 0.03249092 -0.040801235 0.096856624
000200 23 89 d7 ba 59 57 31 3c 1b de 79 3b 66 05 57 bc
       -0.0016444068 0.010824048 0.003812677 -0.013123846
000210 5f df 8f bc 40 30 5b bd f8 25 db 3d d6 81 20 3d
       -0.017562566 -0.05351281 0.10700601 0.03918632
000220 a8 bb c0 bd 83 6a 48 bd c4 78 dd 3d b2 1e 25 3d
       -0.094107926 -0.048929702 0.1081405 0.040312476
000230 19 a4 a2 bd c1 f2 4f 3c a8 09 b8 bc 73 d3 f9 3c
       -0.079414554 0.012692154 -0.022465542 0.030496335
000240 e8 81 97 bd 4d 39 69 3c 4f 8b 0a bd 09 f6 1b bd
       -0.073978245 0.014234853 -0.03382426 -0.038076434
000250 c3 9e aa 3d 34 e4 09 bd b8 e0 9b 3d a2 5f 1c 3d
       0.08331063 -0.033664897 0.07611221 0.03817714
000260 cf 46 b4 bd c2 c9 63 bd fe d6 ee 3d 21 86 3e bc
       -0.08802568 -0.055612333 0.116621 -0.0116286585
000270 8d 2e e0 3c 78 48 06 bc e5 59 e6 3c 4d fa 80 bd
       0.027365947 -0.008195989 0.028119037 -0.06297741
000280 1f 7f 11 3e 8e 5f 04 3c a7 6a 2c bc f3 69 2f 3d
       0.14208649 0.008079423 -0.010523475 0.04282565
000290 85 e6 cb bd 83 91 07 bd 27 a7 91 3d 4f b2 c3 bc
       -0.099560775 -0.033097755 0.0711196 -0.023888735
0002a0 8d ac 44 3d a0 a2 3f 3d 4d f0 c3 bd b0 73 aa 3c
       0.04801612 0.04678595 -0.09567318 0.020807117
0002b0 8f c9 6f bd b4 a9 ad 3c fc e9 52 bd 36 e3 0d 3c
       -0.05854183 0.021199085 -0.051492676 0.008660128
0002c0 28 80 6a bc 08 cd 80 3c 0e 63 00 bd be 24 eb bc
       -0.014312781 0.015722767 -0.031344466 -0.028704043
0002d0 9a b8 94 3d 0b 84 49 bd 7b 84 d4 3d 83 af 0d 3d
       0.072617725 -0.04919819 0.10376831 0.03459121
0002e0 ee 9e 9c bd b8 c0 1f 3d 83 65 a3 bd e4 8e 79 3c
       -0.07647501 0.03900215 -0.07978346 0.015231822
0002f0 80 e7 3f bd cf ba 09 3d 7c 66 98 bd 63 d0 4c bd
       -0.046851635 0.03362542 -0.07441422 -0.05000342
000300 9a 57 d0 3d 4b 79 1e 3d fe 9f 9e bd be aa 18 bd
       0.10172959 0.038689893 -0.0774536 -0.037272207
000310 f9 e6 99 3d a1 aa 1d 3d b4 ce a8 bd 4e 81 6d bd
       0.07514758 0.038492803 -0.082425505 -0.057984643
000320 df 3c fb 3d fb 09 f0 bc 69 de 56 3d 67 2b 24 bd
       0.122674696 -0.029301634 0.0524582 -0.040080454
000330 d0 a5 c4 3d 5b e1 2a 3d 49 fc b9 bd ba 80 54 3d
       0.09601939 0.041718822 -0.09081323 0.051880576
000340 38 c9 f8 bd 2c 09 bf 3b c7 20 5b bc 6a db 89 bb
       -0.121477544 0.005829951 -0.013374514 -0.0042070644
000350 40 bd 52 3c f6 67 a7 bd 4a 51 3d 3e 7b 15 4d 3c
       0.0128625035 -0.08174126 0.1848804 0.012517328
000360 85 cb ae bc 79 6e 00 3d 7c 75 7b bd e0 cf 19 3d
       -0.02133728 0.031355355 -0.06139134 0.03755176
000370 35 29 b8 bd 68 e2 45 bd 30 40 de 3d 31 dd b9 3c
       -0.089922346 -0.04831162 0.108520865 0.02268848
000380 87 b9 50 bd 26 87 c9 bc 64 40 48 3d 58 19 fb 3c
       -0.050958183 -0.024600577 0.048889533 0.030651733
000390 3d d3 88 bd 64 2f b3 3c 27 dc 3e bd 02 19 b1 bc
       -0.066809155 0.021873184 -0.046596672 -0.02161837
0003a0 3e 6f 37 3d 46 7e a7 bc 0c 14 35 3d 09 2c a3 bc
       0.044783823 -0.020445954 0.04420857 -0.019918459
0003b0 2a f0 42 3d 3d e7 07 3d 9d 43 92 bd ce ec e9 3c
       0.04759232 0.03317951 -0.071418025 0.0285553
0003c0 42 c7 7d bd 87 ef aa 3c a4 0d 4a bd 17 9e 71 3c
       -0.061957605 0.020866169 -0.049329415 0.014747164
0003d0 5a 3f 18 bd 33 01 6b bd 2c 45 02 3e 2f f2 3f bd
       -0.03716979 -0.05737419 0.127217 -0.046861824
0003e0 c3 16 d2 3d 39 11 28 3c b7 fb e7 bc 0b 92 05 3c
       0.10258248 0.010258012 -0.02831827 0.008152495
0003f0 81 3c 51 bc 41 a2 e4 3c ca b4 7f bd ce d0 98 bb
       -0.012770773 0.0279094 -0.062428273 -0.0046635633

fc_layers.0.bias f4 [256]
000000 70 90 ed bc 86 eb d8 3d 94 8d 98 be a9 29 e9 3b
       -0.028999537 0.105917975 -0.29795516 0.007115562
000010 22 09 19 3e f7 cf 24 be f0 ea 4b bd af 6a 30 bd
       0.1494489 -0.16094957 -0.0497846 -0.04307049
000020 27 7e 12 3e 04 5d 26 3d d8 7a bd bc e5 20 34 be
       0.14305936 0.04061605 -0.023129866 -0.17590673
000030 a9 8c 63 3d 14 f8 5e 3d 70 0c 62 3c 9e f4 16 be
       0.055554066 0.054435804 0.013796911 -0.14741752
000040 30 ad bd bb 83 12 04 bd 77 5a dd bd 0a 99 32 bb
       -0.005788468 -0.032244217 -0.108082704 -0.0027251863
000050 66 3c 70 3d f4 12 29 3d 76 1d 25 be db b7 49 bd
       0.05865135 0.04127784 -0.1612452 -0.049247604
000060 31 a5 4f be a5 d6 13 3e b7 94 80 3c 65 c4 09 be
       -0.2027786 0.14437349 0.015695913 -0.13453825
000070 39 46 83 be b8 a2 5a be 68 fe 5a 3d 9e cd 3b 3d
       -0.25639513 -0.21351135 0.053465277 0.04585039
000080 31 0a cf bc 76 d7 9a 3c 70 0d c6 3d 4e ac 13 be
       -0.025273414 0.018901568 0.09670532 -0.14421198
000090 19 13 15 3e ec 6f 06 bd a0 04 99 be 12 7c 53 3c
       0.14558066 -0.03282158 -0.2988634 0.012907999
0000a0 5c c5 45 be 8c f7 d6 bd e1 8c ae 3d 68 96 64 3d
       -0.19313568 -0.104964346 0.08522964 0.0558075
0000b0 33 86 8a bd 10 34 bb 3d b3 2b f3 3d 59 dd d3 3d
       -0.06763878 0.091407895 0.11873569 0.10344953
0000c0 b2 d6 de bd eb e2 cc 3d b0 35 bf 3d cd 21 9f be
       -0.10880794 0.10004219 0.09336412 -0.31080475
0000d0 1d 5b 00 be 6c 9d a3 bd 14 d2 4a bd 0a 3e fd bd
       -0.12534757 -0.0798901 -0.049516752 -0.12365349
0000e0 21 42 07 3e 14 14 a6 be fd 88 e8 3d 37 69 e7 3c
       0.1320882 -0.32437193 0.113542534 0.028248413
0000f0 8d 9c 60 bd 28 39 27 3e a4 73 91 be e5 c4 56 bd
       -0.0548368 0.16330397 -0.2840854 -0.052433867
000100 59 0f 3a bd f0 85 44 be 80 2a b5 3a d9 54 ac bd
       -0.045424793 -0.19191718 0.001382187 -0.08414621
000110 5f d6 f9 bc 3f a6 f9 bc 5c 20 b4 bd 20 04 a1 bd
       -0.030497728 -0.03047478 -0.087952346 -0.07862115
000120 be e5 68 3e a7 7f 07 be cf 9c 6b be 04 8b 2b be
       0.2274389 -0.13232289 -0.23009036 -0.16752249
000130 a3 26 05 be 52 ab 2d bd 8a fd 2f bc e7 b7 2e be
       -0.1300302 -0.042399712 -0.010741601 -0.1706234
000140 19 6c af 3c 82 c4 09 bd 3a 72 2b be 2e 57 c7 3d
       0.02141385 -0.03363467 -0.16742793 0.09733425
000150 34 73 dc 3c 37 15 b2 bd 73 20 1c be 5c 09 c4 bd
       0.026910402 -0.08695453 -0.15246753 -0.09572098
000160 c3 f0 ab 3e 5f 79 ae bc 6d 33 0d bd 63 1f ad be
       0.33582124 -0.021298109 -0.03447287 -0.3381301
000170 93 5e 55 be 46 02 39 be c3 58 45 bd 30 0e b3 bd
       -0.20836858 -0.18067273 -0.048180353 -0.087429404
000180 79 a5 59 3d aa 17 32 3e 03 45 35 bd de 6d 00 be
       0.053136323 0.1739184 -0.044255268 -0.12541911
000190 8f fc 6e bd b0 e5 1b be 2e c9 ca bd 32 e1 4b 3b
       -0.058346327 -0.15224338 -0.09901653 0.0031109569
0001a0 e2 3b b2 bd e8 80 fd bd 5b 2d ac bc 2e c7 5b 3e
       -0.08702828 -0.123781025 -0.02101772 0.214627
0001b0 4d 29 56 3d d6 dd 0f be 71 00 36 3d 5a 0c c4 3d
       0.05228548 -0.14049467 0.044434015 0.095726684
0001c0 f8 12 30 bd c0 b6 d4 3c c1 57 bb bd 47 f1 b4 3d
       -0.04298684 0.025966048 -0.09147597 0.088350825
0001d0 55 25 ab bd 39 62 25 3e 16 69 db 3d eb e5 cd 3d
       -0.0835673 0.1615075 0.10713403 0.10053619
0001e0 b4 12 e9 3d 58 65 4c 3e fd c9 53 be 62 6d 60 3d
       0.113805205 0.19960535 -0.20682521 0.054791816
0001f0 8e e7 e7 3d 85 52 a8 3b 76 d6 45 3e 81 8c 0c be
       0.113234624 0.00513679 0.19320092 -0.13725473
000200 8b d3 c9 3d 76 e3 cd bd 73 cd 30 3d b6 36 11 be
       0.09854802 -0.1005315 0.04316468 -0.14181027
000210 02 77 99 be d9 a6 00 bd 36 b8 bf 3d 68 8f 59 be
       -0.29973608 -0.03140912 0.09361307 -0.21246111
000220 63 e2 3e be cb 76 16 3e d8 e3 6d bb b7 78 75 bd
       -0.18641047 0.14693753 -0.0036299136 -0.059929576
000230 dc a3 9a 3d e1 7b 6e be 1e 39 ee 3d 26 41 eb 3d
       0.07550785 -0.23289444 0.11631988 0.114870355
000240 ef 57 33 bd 6a 74 61 be 6b 2e 9d b9 a8 4f 05 3e
       -0.043785032 -0.22017065 -0.00029979958 0.13018668
000250 68 5d 0f 3e 78 a9 aa be d0 0c 92 be f5 25 f6 3d
       0.14000475 -0.3333242 -0.285254 0.120189585
000260 9f f3 8e be a8 b8 0b 3d 03 e1 9a be d9 2d 86 3d
       -0.27920243 0.03411165 -0.30249795 0.065517135
000270 cd 6b 64 be 22 e8 fc bd a3 ce 75 3e f4 f0 57 3e
       -0.22306748 -0.12348963 0.24004607 0.2108801
000280 8d 3e a6 3c d4 42 66 be c2 ca 47 be 4f 47 26 be
       0.020293498 -0.2248643 -0.1951094 -0.1623814
000290 20 e2 0c 3e 30 bb 43 bd dd 7c 37 3e a3 fe 56 bd
       0.13758135 -0.047785938 0.17918725 -0.052488934
0002a0 4e 79 ee 3d 4a b9 8f bd 7a a3 1f 3e f7 79 fa 3d
       0.11644231 -0.07017763 0.15589705 0.12230294
0002b0 2f 4d 20 bc 44 16 d2 3a 43 2b 73 be a1 ef 82 b9
       -0.009784027 0.0016028364 -0.23746972 -0.0002497407
0002c0 e7 b3 76 be a6 56 4a be 15 f7 01 3e 9b 79 4f 3d
       -0.24092065 -0.19759616 0.1269191 0.05065308
0002d0 5c 5a 31 be 00 f9 a5 3d 45 bb 12 3e 86 41 20 be
       -0.17319626 0.081041336 0.1432925 -0.15649995
0002e0 c5 9f 26 be f3 4e d1 bd cb 0d 4c 3e 36 87 3f 3e
       -0.16271885 -0.102201365 0.19927137 0.18703923
0002f0 78 60 38 be 75 3d 61 3e d7 af d3 bb 96 64 f5 bd
       -0.1800555 0.219961 -0.0064601707 -0.11982076
000300 05 42 c3 3d b1 9e 08 be 4f 62 08 be eb 7d 81 bd
       0.095340766 -0.13341786 -0.13318752 -0.06322845
000310 b4 d0 9a 3e 3e 63 a9 bd d5 89 1e 3e ad e5 39 3d
       0.30237353 -0.08270882 0.15482266 0.04538505
000320 77 64 6e 3d 14 96 8d bd 2b 88 51 be ba 2f 3e 3e
       0.05820128 -0.06913391 -0.204621 0.18572894
000330 14 e6 86 3d cd bc 99 bd 88 8f 38 3c d7 13 14 3e
       0.06586853 -0.07506714 0.011264689 0.14460693
000340 30 a9 ab bc 26 72 e2 bd 73 e6 5d 3d 91 12 62 3d
       -0.020954698 -0.11056928 0.05417485 0.055193488
000350 81 c2 5e be 4f 9d b4 bd 08 4a c3 bd ee aa 1c 3e
       -0.21753885 -0.08819067 -0.09535605 0.1529958
000360 0e 35 1f 3e ec 56 be bb a6 b7 72 be 76 30 dc 3d
       0.15547583 -0.0058087017 -0.23702869 0.10751431
000370 6a 2f 0f 3e 94 e3 d6 bd e4 66 fb bd 83 cf 00 3e
       0.13982931 -0.10492626 -0.12275484 0.1257916
000380 06 e9 b3 3d cf 04 77 3d 43 4f 09 be 7f 8b 26 be
       0.0878468 0.06030732 -0.13409142 -0.16264151
000390 17 9e ef 3d 58 01 5f 3d fe 29 11 bc e6 0e f9 3c
       0.11700075 0.05444464 -0.008860109 0.030402612
0003a0 06 57 5c be 2c e7 05 3d 78 c7 43 be 3b 04 3b 3d
       -0.21517572 0.032691166 -0.1911906 0.04565833
0003b0 e3 c5 cb bc ce 12 41 3e 78 36 ea 3a 11 35 ac bd
       -0.024874633 0.1885483 0.0017869016 -0.08408559
0003c0 67 22 52 bc b0 cd 3b be 0e ec ae ba a6 47 fd ba
       -0.012825585 -0.18340182 -0.0013345496 -0.0019323721
0003d0 12 f8 02 be f6 9c 0d 3e 68 74 ac bd b3 70 d4 3d
       -0.12789944 0.13829407 -0.0842064 0.10373058
0003e0 a5 ed 83 3d ee c5 20 be a6 b0 59 3e 09 5c 6b bc
       0.064418115 -0.15700504 0.21258792 -0.014365205
0003f0 9e bf 21 be 66 71 31 3d 0a 72 16 3e 9e 4e b4 3d
       -0.15795752 0.043321036 0.1469194 0.088040575

fc_layers.2.weight f4 [512, 256]
000000 5c 6a 0e 3e 2e 3c 27 3e 95 95 5f bd 10 c1 98 bb
       0.1390776 0.1633155 -0.054586012 -0.0046616867
000010 a2 a4 40 bc 7f cb 57 bc 85 39 81 3d 68 de 78 3d
       -0.0117580015 -0.013171076 0.06309799 0.060758978
000020 af 61 21 bd cf 54 47 bd d5 ca fa 3d fa 89 8e bd
       -0.0393998 -0.048664864 0.122457184 -0.06959911
000030 c8 66 50 bc 8f 4d ab bb 04 87 b0 3c cd 5c d0 3d
       -0.012719817 -0.0052277516 0.021548755 0.1017395
000040 55 3f 1f bc cb 3b 03 bd 61 b2 17 bd dd a4 14 3e
       -0.009719689 -0.032039445 -0.03703535 0.14516015
000050 27 3e 40 bd ee a7 09 bd db ae 47 3d 37 df 00 3c
       -0.046934273 -0.033607416 0.04875074 0.007865719
000060 6d 3d b8 bc b5 8c c9 ba 01 85 39 3d 91 ae 5c bb
       -0.022490228 -0.0015377017 0.045292858 -0.0033673386
000070 a2 3c 27 3e 27 3b bf bd 64 01 72 bd b2 e6 83 bd
       0.16331723 -0.09337454 -0.059083357 -0.06440486
000080 7d 74 a5 bd 2e f1 19 bd f4 55 5a 3e f9 d8 65 bd
       -0.08078859 -0.037583522 0.21321851 -0.056115124
000090 ad 55 33 3d c5 61 48 bd 8b d7 98 bd f0 16 3d bd
       0.04378288 -0.048921365 -0.074629866 -0.046164453
0000a0 62 db 04 3e b5 9c 09 bd 97 3d 25 3e 04 ca 07 3e
       0.12974313 -0.033596713 0.16136776 0.13260657
0000b0 bc 8d ac 3d 5f db 03 bd 92 cb 1d 3e 33 43 07 bd
       0.08425471 -0.03219163 0.15409687 -0.03302307
0000c0 97 f1 0c bd 5c f5 e8 bc 1f 1c 82 3d b5 bb c7 3a
       -0.034410086 -0.028437309 0.0635302 0.0015238436
0000d0 31 56 4e 3c b5 60 0b 3d 36 e2 71 bd c3 bf a6 3d
       0.012593792 0.034027774 -0.059053622 0.081420444
0000e0 ef a5 02 3e 5c 0a ee bc ab 5f 03 bd a7 ee 3f 3e
       0.12758611 -0.029057674 -0.032073658 0.18743382
0000f0 d8 70 4a bd a7 fc 8f 3d cc b2 a9 3c 6c d3 22 bd
       -0.049424022 0.070306115 0.02071514 -0.03975241
000100 f6 60 59 3e a3 77 44 bd 5d ea 22 bd dc aa 92 bc
       0.21228394 -0.047965657 -0.039774287 -0.017903738
000110 b0 a7 41 bd 69 3e 0c bd a5 62 2a 3e bc e1 86 bd
       -0.04727906 -0.034239206 0.16639192 -0.06586024
000120 ac e2 23 bc 24 0b a0 3d 74 4b 0a bb 55 f5 56 bd
       -0.010002773 0.07814625 -0.0021102102 -0.05248006
000130 00 a8 9a 3d 7b bb 2f bd 1b 8a 2d bd b9 25 6b 3e
       0.07551575 -0.042903405 -0.042368036 0.22963609
000140 33 33 ac 3d 38 fb f7 bc 86 f4 1a bd 7d 47 14 3e
       0.08408203 -0.030271158 -0.037830852 0.14480396
000150 f1 99 a7 3c 03 07 17 bd 7e 70 0e bd fc a3 3c bc
       0.020459147 -0.03687192 -0.03477525 -0.011513706
000160 8d b9 a4 bd c4 86 be 3d cb 7c c3 3d ed d6 95 bd
       -0.080432035 0.09303048 0.09545287 -0.073163845
000170 e9 5a 4e 3d e9 f8 1a 3e 7c 69 59 3d f0 17 8c 3d
       0.050379667 0.15134014 0.053079113 0.06840503
000180 6e d7 c8 bc eb ef 39 bd 9d fb 83 bd ac b8 5e bc
       -0.024516787 -0.04539482 -0.06444476 -0.013593834
000190 4b 8a 60 bd 96 53 00 3e f1 62 3a bd 2a 6d 81 3d
       -0.054819386 0.12531886 -0.045504514 0.063196495
0001a0 d8 14 89 bd 05 35 b3 bd 22 4e 31 bd 9c aa 5e 3e
       -0.06693429 -0.08750347 -0.043287404 0.2174477
0001b0 a4 7f ae 3c 4f c9 bb 3d 3c 17 25 bd 6e 9d 9b bc
       0.021301098 0.09169256 -0.04030536 -0.018995967
0001c0 e9 5c 8d 3d 34 36 02 3e 03 3e 36 bd 80 1b 2b 3e
       0.06902487 0.1271599 -0.044492733 0.16709709
0001d0 5f 46 52 bd c5 48 13 3e 54 b8 11 be 0d 72 18 bd
       -0.051336642 0.14383228 -0.14230472 -0.037218142
0001e0 ad eb 09 bd f2 c8 0f bd 67 5b 87 3e 2a 7a db bd
       -0.033672024 -0.035103746 0.26436922 -0.1071666
0001f0 f0 5e 9e 3b 27 6e 80 bd 89 a5 11 3e fc 09 24 bc
       0.004833095 -0.0627101 0.14223303 -0.010012146
000200 3d 43 b3 bc a9 fc 2c bd 9c ec 88 bd d4 de 4e 3d
       -0.021882648 -0.042233143 -0.06685755 0.050505474
000210 72 e0 50 bd cf 75 fa bc 80 b0 c5 3d 47 62 ff 3d
       -0.050995298 -0.030573754 0.09652805 0.12469917
000220 0a 3b 0f 3e 40 0a 66 3c dc fb 90 3d c5 6f e4 bc
       0.13987365 0.01404053 0.07079288 -0.027885327
000230 55 ab 40 bd ff 09 1c bd f2 ed 96 3b b0 99 16 bd
       -0.047038395 -0.03809547 0.004606002 -0.03676766
000240 c5 4c f6 3c 68 ee 0e be b3 9e 11 3e 9e f8 40 bd
       0.030065903 -0.13958132 0.14220695 -0.0471121
000250 9f 49 4e bd b7 70 64 3d 22 8d 82 bd 65 50 81 bd
       -0.05036318 0.055771556 -0.06374575 -0.06314162
000260 3f 14 c0 bd d1 f5 55 3d da 0a db be b8 f3 95 bc
       -0.09378862 0.052236382 -0.42781717 -0.01830469
000270 13 ab fd 3c 24 f5 77 3e b4 06 23 3d 6b b9 2e bc
       0.030965364 0.24214607 0.039801314 -0.010664324
000280 74 bb b1 3d 0a 37 28 bd 76 96 eb bd 4c 99 c6 bd
       0.08678332 -0.041068114 -0.115033075 -0.09697208
000290 20 95 43 3e e2 d5 85 bd ba c2 23 bd 73 f5 53 3c
       0.19099855 -0.065349355 -0.039980628 0.012936938
0002a0 d0 27 8a bc 71 5b 77 bd 53 e4 d6 bc 17 f5 b1 3d
       -0.016864687 -0.06038994 -0.02623192 0.08689325
0002b0 12 63 e5 bc 45 da 18 3b af f5 49 3e f5 f2 f5 3d
       -0.028001342 0.0023323458 0.19722627 0.12009231
0002c0 a9 09 01 3e d4 ef 93 3c 47 df ec bc 37 b4 55 3c
       0.12601341 0.018058695 -0.02891506 0.013043455
0002d0 01 64 5d 3e c6 7e 11 bd 6f 5a 03 3a 4e 64 28 be
       0.2162018 -0.03552129 0.0005010729 -0.16444513
0002e0 ef 82 5d bd a4 de 50 bd 9b 5a 39 3e ec 52 36 3e
       -0.054079946 -0.050993577 0.1810097 0.1780507
0002f0 26 a9 3c bd 82 37 0c 3e c8 7b bf 3d 80 5f 08 bd
       -0.04605975 0.1369305 0.09349781 -0.0332942
000300 2d 1c e2 3c b1 78 81 bd a5 42 57 bc 4b ee ce 3d
       0.027601326 -0.06321848 -0.013138448 0.101040445
000310 d7 54 9d 3c 02 e4 99 bd e9 9c 43 3e 71 42 8c bd
       0.019205494 -0.07514192 0.19102825 -0.0684861
000320 21 ae db bc 6d b2 55 3e 3a e9 6c 3e db b1 e0 3d
       -0.02681643 0.20868845 0.23135844 0.10971423
000330 80 c7 39 3d 22 bd 93 bd 25 74 5d 3d 50 03 9f bd
       0.045356274 -0.072138086 0.054065842 -0.07764304
000340 fd d8 ba bc ca df da 3d ec 54 0a 3e 4c ca 8b bd
       -0.022808546 0.106872156 0.13508958 -0.068256944
000350 3e 85 e7 3d ab eb 71 3e aa 8e 56 3e 09 ed 06 3e
       0.11304711 0.23625056 0.2095286 0.13176359
000360 e1 a0 84 bd 97 56 8c bd d0 ea ad bd 94 e4 9c bc
       -0.06475998 -0.06852453 -0.084920526 -0.019151963
000370 61 13 33 3e f9 92 69 bd 55 c1 29 3e 11 04 76 bd
       0.17487861 -0.05702493 0.16577657 -0.06006247
000380 c7 7e ad bc c5 b1 35 3e ad 95 80 bd 30 a0 88 bd
       -0.021178616 0.17743595 -0.062785484 -0.06671178
000390 35 d6 92 3b ba a2 1f bc b0 ac 5a 3d 28 cf 5a bd
       0.004481102 -0.009743387 0.053387344 -0.053420216
0003a0 74 f9 88 3c b6 fa 85 bd 3d 10 97 bc 08 13 26 3e
       0.016720511 -0.0654196 -0.01844036 0.16218197
0003b0 90 9a 27 bd 2e a0 9e bd 53 51 b3 bc fa 4f d0 3d
       -0.040918887 -0.077453956 -0.021889364 0.10171504
0003c0 ec a4 51 bd 60 e3 5f 3e 6d db ca bc 58 ab 37 bc
       -0.051182672 0.2186408 -0.024762833 -0.011210285
0003d0 f1 ec a4 bd 7b 59 33 bc 5e 6d 53 3e 9e a3 53 bd
       -0.080530055 -0.010946627 0.20647189 -0.05166971
0003e0 d6 aa 41 bc 2c d2 2c 3d 7b 55 36 bd 1f d3 08 3e
       -0.011820516 0.042192623 -0.044515114 0.13361786
0003f0 06 74 fe be 8b 8f a0 bc 2d 5d 15 3e 40 41 3c bd
       -0.49697894 -0.019599697 0.14586325 -0.045960665

fc_layers.2.bias f4 [512]
000000 9c ec 3d 3e 6c f1 51 bd df 2c 02 be 6c 62 24 be
       0.1854729 -0.05125563 -0.1271243 -0.1605317
000010 e6 5c 86 be f7 54 db bd a7 f0 db bd 7f 29 78 bd
       -0.2624275 -0.10709565 -0.1073926 -0.06058645
000020 59 27 93 3c 7c 4d 2e be ad 05 e5 3c 4d 01 d4 bd
       0.017963098 -0.17021745 0.027956808 -0.103518106
000030 84 6a 63 bd 8b 57 10 be 2d 2b d0 3c 46 7e 58 3d
       -0.055521503 -0.14095895 0.025411213 0.0528548
000040 89 b8 e6 bd 1e 96 1f 3e 25 7d ca be 63 62 5f 3e
       -0.11265666 0.15584609 -0.39548603 0.21814875
000050 cd 64 ca bc e7 bc 51 3e c7 c2 48 be 08 7c aa 3e
       -0.024706269 0.20482217 -0.19605552 0.33297753
000060 bc 2d fc 3e b1 7d 98 3d 79 42 2c be 6e 56 6c 3d
       0.49253643 0.07445849 -0.16822232 0.057699613
000070 ac ce 4b be 92 12 1d be 0b 93 1a be 8d 70 a1 3e
       -0.19903058 -0.15339115 -0.15095155 0.31531182
000080 ae 95 a1 bd 5d 20 6a 3e e8 a3 a6 bd db 05 84 bd
       -0.07889877 0.22863908 -0.081367314 -0.06446429
000090 dd ec 87 be 33 b3 ad bd 70 f1 5f be 76 21 1f be
       -0.265479 -0.08481445 -0.21869445 -0.15540108
0000a0 21 76 08 3d 4a 0a 37 3e b6 a6 be bd c4 38 a4 bb
       0.03331578 0.17875019 -0.09309141 -0.00501165
0000b0 3f 66 fa 3d be 95 78 bd 84 f5 00 3a 7a c3 c4 3e
       0.12226533 -0.06068968 0.0004919397 0.38430387
0000c0 58 bc 73 be 64 6b 3c bd 37 a8 84 bc 5b bd 7f 3d
       -0.23802316 -0.046000853 -0.016193492 0.062436443
0000d0 7a fc 43 bd 8a 2a d7 bc f4 f2 35 3e 8c 65 8c 3d
       -0.047848202 -0.026265401 0.1776846 0.06855306
0000e0 e1 e0 a1 bd ec ae df 3d 0f 4c bd 3c d2 54 99 bd
       -0.0790422 0.109220356 0.023107557 -0.07486881
0000f0 b8 0b 6e be 59 71 08 be 19 36 f6 3c 5a 82 5f 3e
       -0.23246658 -0.13324489 0.030055093 0.21827069
000100 0f 7e 43 bd bf 96 15 be dc e5 3a bd af 45 eb bd
       -0.04772764 -0.14608286 -0.045629367 -0.114879005
000110 f7 b0 e6 3d 4b c6 a0 bd 9a 18 ae 3e 78 ae 1a bc
       0.11264222 -0.078503214 0.34003145 -0.009441011
000120 a5 9e 8d 3e 9a e5 3a bb 13 87 31 be 16 c0 09 be
       0.276601 -0.00285182 -0.17336683 -0.13452181
000130 c9 f0 c2 3d 34 f1 2d 3e 16 ea a5 3d bd f8 c2 3e
       0.095185824 0.16986543 0.08101289 0.38080397
000140 2f 57 05 be 03 bd f8 3b 7a b6 4e be 58 66 e0 3c
       -0.13021539 0.0075908913 -0.20186797 0.027392551
000150 98 68 a7 3e 40 4d 14 3e 33 4e f0 bb 12 df 60 bd
       0.32696986 0.14482594 -0.007333541 -0.054900236
000160 9a 3c 21 be bf 54 1f 3e d5 cd 6f be c0 cd a6 3d
       -0.15745774 0.15559672 -0.23418362 0.081447124
000170 26 ce 4d be ac 41 a9 bd b6 67 b0 bd 4b bb e9 3e
       -0.2009817 -0.08264479 -0.08613531 0.45650706
000180 8d 75 20 be 3e 5d 8a bd da 41 da bd f5 c7 75 be
       -0.15669842 -0.06756066 -0.106570914 -0.24002059
000190 2e fa d2 be e4 81 28 be 6e 63 4a be fb d7 3e be
       -0.41206497 -0.164558 -0.19764492 -0.18637078
0001a0 33 12 45 be 31 fc f5 3d 99 11 38 be 88 82 5d 3e
       -0.19245224 0.12010992 -0.17975463 0.21631825
0001b0 3a 3b 81 be de f0 d0 3c ba d3 91 be 5a 07 73 be
       -0.252405 0.02550548 -0.28481847 -0.23733273
0001c0 05 9b 98 be 3d fe 6b bd 36 95 d7 be 99 2e b9 bd
       -0.2980577 -0.057615507 -0.42106026 -0.09042091
0001d0 6d db 2d bd af e4 5f be c4 af 90 be 9d 7c 1b be
       -0.04244559 -0.2186458 -0.282591 -0.15184255
0001e0 51 72 92 be 81 29 e1 3b 80 53 8a 3e ec a6 a1 3d
       -0.28602841 0.0068714027 0.2701683 0.07893166
0001f0 8c 58 fb bd 8f 1c 19 3e a1 70 57 bd 26 4f 50 be
       -0.12272748 0.149523 -0.052597646 -0.20342693
000200 90 0c f0 bc cd 9d 63 3b 2b 43 16 3e fb b2 e9 3d
       -0.029302865 0.0034731508 0.1467406 0.11411091
000210 37 5a 8c 3e 98 73 14 be 5a 09 c0 bd dc 4f 8a bd
       0.27412578 -0.1449722 -0.09376784 -0.06753513
000220 31 6b 80 3d 76 53 9c bd fd 7b 75 be ea 61 f4 bd
       0.06270445 -0.076331064 -0.23973079 -0.11932738
000230 44 d9 ee 3e 63 59 ae 3e 49 44 79 be 2a 2b 30 bd
       0.46650136 0.34052572 -0.24342455 -0.043009914
000240 4f b2 44 3d 99 ac cc 3d 54 e2 10 be 2a de 90 be
       0.04802161 0.09993858 -0.14148837 -0.28294498
000250 48 e5 43 3d 04 ba 29 bd 7c b0 4f be 2c 8f 2c 3c
       0.04782608 -0.041437164 -0.20282167 0.010532182
000260 6d 10 39 3e c6 ef 33 be f6 27 98 3c 11 bc 84 be
       0.18072672 -0.17571935 0.018573742 -0.25924733
000270 bf f0 6c 3d ec 39 15 be 08 1b 84 3d 3f b3 cc 3e
       0.05784678 -0.14572877 0.06450468 0.39980504
000280 46 07 50 be 3d 54 80 3d 04 ae 04 be c5 82 a6 bd
       -0.20315275 0.06266067 -0.12957007 -0.08130411
000290 24 ec 37 3e 7c d4 23 3e 51 d5 f5 bd 36 d1 bc 3e
       0.17961174 0.15999025 -0.120035775 0.36878365
0002a0 e9 2a 87 3e 23 e1 2a bd 11 40 d5 3e 00 c9 a6 bc
       0.26399925 -0.041718613 0.4165044 -0.020359516
0002b0 8b 06 21 3e 06 5b e1 bd 8b 42 83 be 39 6c 71 3e
       0.15725152 -0.110036895 -0.25636706 0.2357644
0002c0 ac c3 c1 3d 65 a7 8c 3e 78 6f b6 be 63 8f dd 3e
       0.094611496 0.27471462 -0.3563192 0.43273458
0002d0 62 e3 d4 bd eb b7 25 bc 18 e9 d8 3d cb 9b 1d be
       -0.10394932 -0.01011465 0.10591334 -0.15391462
0002e0 d4 bd 47 bd 41 09 77 be b8 45 22 be df 6f 64 bd
       -0.04876502 -0.24124624 -0.15846908 -0.05577075
0002f0 ab 5e b3 3e 6f 9a 4c 3c 2a 3a 50 be 93 42 f2 bd
       0.35033163 0.012487992 -0.20334688 -0.11829104
000300 6d 0c 58 3e 6b 67 29 3b 19 f8 31 be aa d5 19 be
       0.2109849 0.0025848995 -0.17379798 -0.15022913
000310 11 ad 3b ba 74 a3 16 be a2 6b 46 be ee f1 2e be
       -0.0007159273 -0.1471079 -0.19376996 -0.17084476
000320 fe 84 d1 3d 83 e5 21 3e 9a 31 81 be 0b b1 01 be
       0.10230444 0.15810208 -0.25233155 -0.12665193
000330 39 62 ee 3e 74 31 41 be af a6 98 bd 39 8e 07 3e
       0.46559313 -0.18866521 -0.07453667 0.13237847
000340 6f 66 2e be 04 d1 4f 3e 26 13 0e bc e8 ac d7 bd
       -0.17031263 0.20294577 -0.0086715575 -0.10531026
000350 7a e2 b6 3e 95 be 8d bd 90 6c ad bd 9b 8a 8d 3e
       0.35719663 -0.06921116 -0.08467972 0.2764481
000360 d3 b4 cd bd 24 0c 7e be a7 54 44 be 44 c1 4e be
       -0.10044255 -0.24809319 -0.19172917 -0.20190912
000370 f0 cc 11 be 17 1b 8d 3d 09 62 99 3e 78 3f 1b 3e
       -0.14238334 0.068899326 0.29957607 0.1516093
000380 e2 8f e0 3c 97 9c a0 3e fd c8 5c bd 0f 5a de bd
       0.027412359 0.3136947 -0.053902615 -0.10857021
000390 1b 21 26 be fa e6 26 3d 86 67 2e be 18 e7 04 3d
       -0.16223566 0.04074762 -0.17031679 0.03244695
0003a0 9b e5 5d be 56 2d 8e be 68 32 86 3e db 04 98 bd
       -0.21669619 -0.27768964 0.26210332 -0.07422801
0003b0 82 6d 2d 3e b1 eb 89 3e 5d f3 32 3e 88 61 88 3d
       0.16936305 0.2693763 0.17475648 0.066592276
0003c0 11 2c a6 3d c8 4a dd 3c 52 e3 59 be ef 04 be bd
       0.08113874 0.027013198 -0.21278122 -0.09278285
0003d0 54 97 d0 bd 43 21 90 be c0 1b 19 be 8c 90 c1 3d
       -0.101851135 -0.28150377 -0.14951992 0.09451398
0003e0 cd e1 96 be af cb 09 3e ec 79 80 be 3c 46 8b be
       -0.29469147 0.13456605 -0.2509302 -0.27202022
0003f0 c7 70 b1 bd 99 cf 5f be a6 ec 73 be 06 01 77 bd
       -0.08664089 -0.21856536 -0.23820743 -0.06030371

fc_layers.4.weight f4 [128, 512]
000000 7a ca b8 bd 34 7e 08 be 39 17 98 bd 7e 57 ec 3b
       -0.09022994 -0.13329393 -0.07426304 0.0072125783
000010 4c e2 b8 bc 0f 6f 7a bd f5 b1 05 bd b2 7a 97 bd
       -0.022568844 -0.06114107 -0.032640416 -0.07396449
000020 d9 8c c3 bd 13 ca 3c bd 67 7e cf 3d 0a 4c f2 bc
       -0.09548349 -0.04609115 0.10131531 -0.029577274
000030 64 4e 0d be cb 29 e3 bb 7c 88 12 bd 97 ae c4 bd
       -0.13799435 -0.0069324723 -0.035774693 -0.09603613
000040 d8 f7 be bd 61 ea 07 3e 99 cb 1c 3d d6 26 24 be
       -0.09324616 0.13273002 0.038280103 -0.1603044
000050 26 e9 2a be 59 95 90 ba 19 05 80 bc a1 29 cc bd
       -0.16690502 -0.0011030837 -0.01562743 -0.099688776
000060 c1 6a f2 bd ac 02 80 3c c1 bd c7 bd 6c cc 91 bb
       -0.11836768 0.015626274 -0.097529896 -0.004449418
000070 c2 0a d3 bd 87 17 de 3c d8 38 b8 bd 79 fe bf bd
       -0.10304786 0.027110828 -0.08995217 -0.09374709
000080 b3 8f 9c bc 0e 59 50 bd 2d ef 03 3d bf bb 59 3c
       -0.01911149 -0.05086618 0.032210518 0.013289391
000090 fb a6 e1 bd 74 38 95 3d 2a cc e0 3c 9f 4b e0 bd
       -0.11018177 0.07286158 0.027441103 -0.109519236
0000a0 c1 4d 94 3b 3b 81 7c bc 99 3e 11 bd 0b 9f 6b bc
       0.0045258706 -0.01541167 -0.03546009 -0.0143811805
0000b0 bc f9 0b bd dc f7 3e bc a6 ef 18 be 1b 5d 30 bd
       -0.034173712 -0.011655774 -0.14935169 -0.043057542
0000c0 e6 3a 32 3d f4 00 25 bd 0e a4 a8 bd f4 9a 19 be
       0.0435132 -0.040284112 -0.08234416 -0.15000516
0000d0 7f 42 4c bd a5 02 10 bd 05 1c 42 bd 12 eb 8f 3c
       -0.049868103 -0.035158772 -0.047390003 0.017568145
0000e0 97 e6 0e bd 6f bf 7f 3c df 94 ef bd af 6f d9 bc
       -0.034887876 0.015609606 -0.11698317 -0.026542513
0000f0 86 00 29 bc c3 bd 90 bc 5c 78 36 bd fd f5 95 3b
       -0.010315066 -0.01766861 -0.044548377 0.004576443
000100 00 1b 9c 3c 20 17 56 bd 81 c5 66 bc 7a 4a ce bc
       0.019055843 -0.052268147 -0.014085175 -0.025181998
000110 bd c4 be bc 1b ce f5 3c db 2f 02 be 6e e7 ac bd
       -0.023287171 0.030005505 -0.12713568 -0.08442579
000120 df de a7 bd ea 62 0e be 9f 15 27 3d 66 7c 25 3d
       -0.08196806 -0.1390492 0.040792104 0.04040184
000130 db bf 3e 3d 87 fe e0 bd 53 6d 02 be 92 01 fa bc
       0.046569686 -0.10986047 -0.12737016 -0.030518327
000140 7e 71 5c bd e1 93 07 be fa 2c df bb 06 7e ab bd
       -0.053819172 -0.13240005 -0.0068107815 -0.083736464
000150 cb fb 4c bd 96 7a 9d bd ac 39 5f 3c db bd 80 bc
       -0.050044816 -0.07689397 0.01362459 -0.01571553
000160 71 81 28 bd 15 04 3a bd 86 1d d4 bb a8 1d 27 be
       -0.04113907 -0.04541405 -0.006473246 -0.16319907
000170 b2 fd 7a ba d0 c1 77 3d 89 d9 11 bd 02 61 71 bd
       -0.0009574547 0.06048757 -0.03560785 -0.058930404
000180 0b ce fc bc e6 6b 77 bd 42 65 06 3d d8 ac 6c bc
       -0.030859968 -0.060405634 0.03281141 -0.014445506
000190 f3 72 59 3b ac f5 05 3d 82 c6 12 bd 8b d0 70 3c
       0.0033180087 0.032704994 -0.035833843 0.014698158
0001a0 5c 57 7f bd dc 82 e3 bd b6 e5 f8 bc 64 2b 86 bd
       -0.06233917 -0.11108944 -0.030382972 -0.06551245
0001b0 b1 7b cd 39 e0 74 87 bd 82 6e b9 bd ce 98 26 bd
       0.00039192804 -0.06614089 -0.09054281 -0.04067307
0001c0 bd a2 8d be d2 07 b4 bd 6e bc fd bc 14 5e ec bd
       -0.27663222 -0.08790554 -0.03097364 -0.115413815
0001d0 c6 bb 2c be 9d 29 80 3d 40 09 86 bc 9b f8 91 bd
       -0.16868505 0.06257937 -0.016361833 -0.07127496
0001e0 d1 26 28 bd 59 ba 61 bd 7e f1 18 bd 3c 96 7e 3c
       -0.041052643 -0.055109356 -0.03733968 0.015538748
0001f0 f7 2e 92 bd c8 7d 9c bd 77 aa dd bc d1 8b 9d bd
       -0.07137864 -0.07641178 -0.027058823 -0.076926835
000200 3f fd 6d b8 78 61 08 be 03 3b 08 be 4f 3c c0 bd
       -5.6741057e-05 -0.13318431 -0.13303761 -0.09386503
000210 07 9b a9 bc fb 93 8d bd a1 05 80 bd 09 fe 12 3c
       -0.020703806 -0.06912991 -0.06251074 0.0089716995
000220 7b 85 9e bb df b7 f6 b9 00 4a 93 bd a6 4b 55 bc
       -0.0048376895 -0.0004705777 -0.07191849 -0.013018524
000230 5c 15 13 bd f2 52 f5 bd eb f0 ed 3c 22 96 1f be
       -0.03590904 -0.11978711 0.029045543 -0.15584615
000240 92 06 05 be 5a 89 f6 bc 97 9a 88 bc 3a 0f f5 3c
       -0.12990788 -0.030094791 -0.016675277 0.029914487
000250 b4 57 5e 3d 0e 40 b6 bd de 36 6d 3c 9d bb 10 bd
       0.05428286 -0.08898936 0.014478413 -0.035335172
000260 da f3 0f be 19 e7 e0 bb 7b 19 82 3d 24 68 94 3d
       -0.14057866 -0.0068634865 0.06352516 0.07246426
000270 86 7c 67 be f7 bd b0 bd fe dd d4 bd c2 70 16 3d
       -0.22606096 -0.08629983 -0.10393904 0.036728628
000280 ab e9 46 bd 92 f5 7b bd 27 d4 ca bd 80 68 b0 bd
       -0.048562687 -0.06151349 -0.09903746 -0.08613682
000290 53 a5 83 ba 87 19 d1 ba 7b 89 98 bc 4c 91 c9 bd
       -0.0010043777 -0.0015953042 -0.018620243 -0.09842166
0002a0 f4 42 1b be 75 90 37 3c d4 92 af bd 8e f2 68 be
       -0.1516226 0.011203875 -0.08572927 -0.22748777
0002b0 bc 90 1a be ca 65 18 bd f2 05 08 be de 27 a6 bd
       -0.15094274 -0.03720645 -0.13283518 -0.08113073
0002c0 15 f4 1d bd 92 78 38 3d 9d ca 92 bd d5 32 d2 3b
       -0.038562853 0.04503686 -0.07167552 0.006414751
0002d0 d3 cb e4 bc c7 d2 2a bd a3 78 dd bd 48 4b 24 3d
       -0.027929222 -0.04170492 -0.10814025 0.040110856
0002e0 dd e6 fa bd 9c 56 79 3d 3d 5d 45 bd 1e b4 97 bd
       -0.12251065 0.060873613 -0.048184622 -0.074074015
0002f0 9e 57 cb bd eb 3c b0 bc 66 e8 27 3c ca 6a 52 bc
       -0.09928821 -0.021513423 0.010248279 -0.012842843
000300 3f 24 19 be ba 7f a2 bc 80 9e 9c 3b e7 2a 10 bd
       -0.14955233 -0.019836295 0.004779637 -0.035197165
000310 b5 4e e7 bc 41 07 c2 bd f4 1f 32 bb ce f7 f0 ba
       -0.028235773 -0.0947404 -0.002717969 -0.0018384398
000320 85 a3 b6 bd ef 40 a5 bd e3 0f cc bd 26 70 30 3c
       -0.089179076 -0.08069026 -0.09963968 0.010768926
000330 77 24 d6 bd 94 7a 1e bd 30 3e 44 bd 3d b1 aa bd
       -0.10456174 -0.03869112 -0.04791087 -0.08334587
000340 71 52 af bd 31 c0 5b bb f9 68 6b be 81 16 0a 3d
       -0.08560646 -0.0033531303 -0.22989263 0.033712868
000350 98 8f 32 bd 50 5a 61 bd eb bd 1c 3b 5a ae e8 bd
       -0.043593973 -0.05501777 0.002391691 -0.1136138
000360 bd 27 8b bd b6 01 9c 3c 16 b3 1c be 37 cf 3e 3c
       -0.06794689 0.019043785 -0.15302691 0.011646084
000370 06 6c 1c bd 1d 0d d6 bd b8 93 3b bd 9c 99 76 3d
       -0.038188957 -0.1045172 -0.045795172 0.060205087
000380 ec 4a 9a bc 17 c9 88 bd 8e 82 44 bd a6 2e bd bd
       -0.018834554 -0.0667898 -0.04797607 -0.09237413
000390 05 05 0a bd 3c 4d 3d be 51 d8 19 3d f2 37 42 bd
       -0.033696193 -0.18486494 0.03755981 -0.047416635
0003a0 29 50 69 3d 91 b9 53 3c fa 71 78 3e a9 15 cc bc
       0.056961212 0.01292266 0.24262229 -0.024912672
0003b0 e8 3d e7 bd 86 d9 be bd 57 18 f5 bc 94 da 02 3d
       -0.112911046 -0.09318833 -0.029918833 0.031946734
0003c0 d7 ba 39 bd bb 04 0a be b4 e9 0d 3d aa 99 da bd
       -0.0453442 -0.13478367 0.034646705 -0.1067384
0003d0 66 54 be bd 36 a9 dc bd ca 7b 77 3a a8 28 f9 bd
       -0.092934415 -0.10774462 0.0009440748 -0.12165958
0003e0 1d 91 33 bc 03 d6 98 bd 3a 50 f1 3c 63 b5 90 3d
       -0.010959891 -0.074626945 0.0294572 0.07065847
0003f0 15 58 07 3d 1b b1 4a 3d 76 70 c5 bd c8 9f 35 bd
       0.033042986 0.049485307 -0.09640591 -0.044341832

fc_layers.4.bias f4 [128]
000000 1e 5b d9 3d 8b 7f 69 be 61 cf c1 3d 17 88 a7 bd
       0.10613082 -0.2280256 0.094633825 -0.08180254
000010 fa 8a 7b bd 53 77 00 3d 0c 75 29 3d 10 65 73 be
       -0.061411835 0.031363796 0.04137139 -0.23769021
000020 a4 c1 8c bd 7d 1b 1c 3d 80 95 ea 3b c3 e0 34 be
       -0.068728715 0.038112152 0.007158935 -0.17663865
000030 63 6d 7e be 6a 10 78 be e8 e2 8e 3d 85 07 83 bd
       -0.24846415 -0.24225011 0.06976873 -0.063979186
000040 7f 3e 6a 3d 32 40 06 3d e3 a2 6c be 17 46 9a bc
       0.057188507 0.032776065 -0.23109011 -0.01883225
000050 04 0e 69 3d 92 81 85 3d b8 e3 26 be 52 c8 45 3e
       0.056898132 0.06518854 -0.16297805 0.19314697
000060 01 f7 85 bd 25 69 62 3d 87 1e a8 bc 83 00 af be
       -0.06541253 0.055276055 -0.02052237 -0.34180078
000070 91 de f2 3d 43 0c f1 3d 1b ba fc bd eb 99 18 3e
       0.118588574 0.11769917 -0.12340184 0.14902465
000080 8c e2 8a be fa 4a d9 bd b5 c1 85 3d bd 67 34 bb
       -0.27125967 -0.10610004 0.06531087 -0.0027527653
000090 25 95 9f 3d 18 db 15 be 17 7b 2d bd 9a d5 45 3b
       0.07792119 -0.14634359 -0.042353716 0.003018713
0000a0 2b c3 47 be c7 bc 0c 3e 17 fd 55 3d 76 b5 94 bd
       -0.19508044 0.13743888 0.05224332 -0.072611734
0000b0 aa d2 82 be d7 d7 33 3d a2 0f 9a bd df 5f ce 3d
       -0.2555135 0.043907013 -0.07522513 0.1007688
0000c0 f6 86 9e 3b ea 7d bb 3b 0f 31 c0 3d 33 69 8d 3d
       0.004837866 0.0057217972 0.09384357 0.06904831
0000d0 5b f5 48 bd c1 1b c9 bd e0 f3 d7 3d e7 2a 44 bc
       -0.049062114 -0.09819747 0.10544562 -0.011973119
0000e0 b9 b1 6f bd af d0 59 be 6c 46 cb 3d 45 c5 17 bd
       -0.0585191 -0.21271013 0.09925541 -0.037053365
0000f0 31 ec 1a be 83 d2 10 bd 64 c4 70 be f4 b7 88 be
       -0.15129162 -0.03535701 -0.23512417 -0.26702845
000100 d3 17 de bc 82 ee b4 3d c1 bc 0f 3d d9 1e 1f 3d
       -0.02711097 0.08834554 0.03509212 0.038847778
000110 cd 99 36 be d2 ac 92 be 3e 16 a8 3d a6 fd c3 3d
       -0.17832108 -0.28647476 0.08207367 0.09569864
000120 c7 44 c7 3d bc f7 a6 bc c0 27 67 be e0 62 a8 bd
       0.09729915 -0.0203818 -0.22573757 -0.08221984
000130 9d 31 34 be 2f c0 83 3d 7e d0 ae 3d ef 8d 9e 3d
       -0.17597051 0.064331405 0.085358605 0.077419154
000140 01 3a 78 3c 05 b2 48 bd 74 2f de bd 3d be 83 be
       0.015150548 -0.048997898 -0.10848895 -0.25731078
000150 46 64 11 3e df cf 1a be bf 08 84 3d 77 27 55 be
       0.14198408 -0.15118359 0.06446981 -0.20815836
000160 c8 87 b6 3d f9 5d 4b be 0b 9d f5 3c 11 1b f0 bc
       0.08912617 -0.19860066 0.02998211 -0.029309781
000170 0b 10 58 3d 5e 27 94 3d 04 1a a3 3d 2f c3 bd bd
       0.052749675 0.07234071 0.079639465 -0.09265744
000180 45 9c 19 3d 36 e7 2d be 9f 07 da 3c 8b 4a 31 3d
       0.037502546 -0.16982731 0.026614962 0.04328398
000190 2d 01 86 be bc 0e 2e 3d 0e 81 ea 3d d5 15 76 be
       -0.26172772 0.04249452 0.114503965 -0.24031766
0001a0 16 ff 7b 3d 2b d0 76 be e3 76 00 bd f0 39 19 3e
       0.061522566 -0.24102847 -0.03136338 0.14963508
0001b0 ce 54 f2 bd dc 71 ba bd ee 89 b7 3d 12 19 7a be
       -0.118325815 -0.09103748 0.08961855 -0.24423626
0001c0 94 ed 83 be f0 ec 66 3d e3 36 e9 3c 4f 27 91 bd
       -0.25767195 0.056378305 0.028468555 -0.07087576
0001d0 02 a1 09 3e 2f 25 94 be 2f d1 5a bd 2c 82 5b be
       0.13440326 -0.2893462 -0.05342215 -0.21436375
0001e0 d5 67 2c be 3c bf aa 3d 20 4d d5 3d d6 77 c7 bd
       -0.16836484 0.08337256 0.10415101 -0.09739654
0001f0 95 39 21 3e 06 53 0e 3b 33 d8 6d 3d 8b a5 f2 bd
       0.15744622 0.0021716966 0.05806751 -0.11847981

classification_layer.weight f4 [1, 128]
000000 9d d6 cd 3f 4e dd c3 be e7 a2 05 c0 67 e0 f9 3d
       1.608112 -0.3825478 -2.0880678 0.122010045
000010 9f 7d 0a be 93 a9 ba bf 19 b7 bb bf a5 ef 8c 3e
       -0.13524483 -1.4583 -1.4665252 0.27526584
000020 5c 84 c4 bd 54 86 a4 bf ce 68 ae bf 31 b8 a7 be
       -0.09595558 -1.2853494 -1.3625734 -0.32757714
000030 fc 3c dd 3e 3e d7 84 3f bf 36 f7 3f 1b 46 01 3e
       0.4321059 1.0378187 1.9313582 0.126244
000040 78 46 d0 bf cf b1 ba be fc be 9b be b8 f3 0b be
       -1.6271505 -0.36463782 -0.30419147 -0.1366719
000050 b5 4a c4 3f 2c 08 a2 bf 3d e3 a4 be f5 d0 36 c0
       1.5335299 -1.2658744 -0.3220462 -2.8565037
000060 52 88 19 be 71 e1 ef 3f 39 bf a3 3e 39 35 76 bf
       -0.14993408 1.8740674 0.3198183 -0.9617496
000070 0f b2 21 c0 d5 b7 ef bf cc c1 0b 3e 1b e3 31 40
       -2.5264928 -1.8727976 0.13648146 2.7794864
000080 9e db 0e bf fe 5d 92 3f 78 ff af be 38 2f d1 bd
       -0.5580386 1.1434934 -0.34374595 -0.102140844
000090 49 71 0d 40 9a bd b2 3f 60 d5 05 3e 1f 87 e3 3f
       2.2100394 1.3964112 0.13069677 1.7775611
0000a0 ae f1 ee be de 8d 0e 40 6e 84 ce bf d6 39 36 3e
       -0.46668762 2.227409 -1.6134164 0.177955
0000b0 58 68 3e bf 42 06 fd bf 6d 8d bc bd 5a 51 07 40
       -0.74377966 -1.9767535 -0.09206662 2.1143403
0000c0 de d8 9e 3e 61 42 bc 3f 4c 30 d1 3f 29 dc af bf
       0.31024832 1.4707757 1.6342864 -1.3739063
0000d0 24 3f eb bd 59 de 34 3e 70 46 f2 bf 6b 76 de bd
       -0.114866525 0.17662944 -1.8927746 -0.1086243
0000e0 86 b7 e8 3d 83 0f c2 3e 9c 6c cb 3f e0 ec ad 3d
       0.11363129 0.3790246 1.589252 0.08492446
0000f0 9d 82 7e be 4b 81 19 be 46 dc 7b 3f b1 e5 0b 3f
       -0.24854513 -0.14990728 0.98382986 0.54647356
000100 dd 02 b2 3f 34 87 bb 3f e6 64 9d be a0 70 c5 3f
       1.3907124 1.4650636 -0.30741042 1.5424995
000110 b5 70 9a be 54 f3 fd 3e 00 f3 cd 3f ab 33 b1 bf
       -0.30164114 0.49599707 1.6089783 -1.3843893
000120 e9 e1 16 c0 63 bf 90 3e 02 7a 82 be ae b0 02 3e
       -2.3575385 0.28271016 -0.2548371 0.1276271
000130 fa 8c b6 3e 08 d9 e2 bf 4a 28 e4 3f ef a1 cc 3f
       0.35654432 -1.7722483 1.7824795 1.5986918
000140 44 03 a2 bf e7 f1 c3 bd 4a bb 17 be 41 2a 9f 3e
       -1.2657247 -0.095676236 -0.14817539 0.31086925
000150 ed 95 07 40 c6 f3 c6 3e e4 da d0 3f f7 e8 84 be
       2.1185257 0.3885786 1.63168 -0.25958988
000160 2a a7 e5 bf 3e a3 99 be a6 66 a4 3f 91 18 f3 bd
       -1.794164 -0.30007356 1.2843826 -0.1186992
000170 30 0f ee 3f cf e3 ea bf 05 fa 06 40 ba 1c 90 3d
       1.8598385 -1.8350772 2.10901 0.07036729
000180 08 d4 e7 3f 37 9d 61 3e 43 52 fa bf 32 75 b3 3f
       1.8111582 0.22032629 -1.9556354 1.402014
000190 3d fc 35 3f 31 2e da 3f 5f 30 e0 bf ec e5 98 be
       0.7108801 1.7045346 -1.7514762 -0.29862916
0001a0 e0 38 b2 3f c0 9e 1f bf 5b 32 97 3f e0 d1 ea bf
       1.3923607 -0.6235161 1.1812242 -1.8345299
0001b0 1b 4a 80 bf 08 fa 06 be 9d c8 d4 3f ea 63 c2 be
       -1.0022615 -0.13181317 1.6623722 -0.37966853
0001c0 63 fc d2 3e 22 42 b4 bf 99 0a 85 3e 9e e8 be bd
       0.4120818 -1.4082682 0.25984648 -0.09321712
0001d0 cb d7 df bf dd d3 ed 3e bf 1b 23 3e 45 c6 f2 3e
       -1.748773 0.464507 0.15928553 0.47416893
0001e0 18 60 a8 be b7 07 c8 bf a1 b8 ff bf e7 c3 fe 3d
       -0.32885814 -1.5627354 -1.9978219 0.12439709
0001f0 72 c5 2f c0 d3 9a bb bd 7d 18 c1 3f b3 07 2c 3e
       -2.746426 -0.0916039 1.5085598 0.16799812
