weights/one_piece.pth (torch, 930200 bytes, 7 tensors)

fc_layers.0.weight f4 [256, 133]
00000000: 1157 353d 67f9 dbbc 66d9 c4bd 1e20 6f3e
00000010: 264c edbb cd5e 413d 4982 cbbd 389a 8b3e
00000020: f49b 4a3c fe2c e3bc 1ff6 803d e34e c4bd
00000030: fde2 843d 32ee 1abe 3453 37bd b728 fe3d
00000040: dac4 8d3c 9cc0 d83b 3ac1 ebbc fadf 7f3d
00000050: 8026 443d 6fde b4bd 35d9 7b3d 9cce acbd
00000060: d99f 81bd 99c9 1f3e f89d 913c b4a3 4c3b
00000070: 9a26 afbc 1ef9 373d 6a9d 5e3d 0014 d7bd
00000080: dd16 473d 83d7 d6bd c19d b2bd c10d 6c3e
00000090: 077f 693c 57e5 91bc 44be 1abd a48f b23d
000000a0: 14c5 cebc 60b5 963d d125 2abd 2a1b b13d
000000b0: e4df 503c b6bd 1a3d b360 513d 7350 7ebd
000000c0: a964 863c f884 4bbd 1172 83bd 19f3 433e
000000d0: ccef 9a3b b3d2 67bc 0656 da3c 1b98 3cbd
000000e0: d524 90bc a7a6 af3d 8faf 3dbc d00a 713c
000000f0: 61b6 ad3d 8e9d 22be b308 d53c 9540 55bd
00000100: 0865 ae3c a04a 4dbd fe39 3e39 52f3 82bc
00000110: 64d6 1c3d 5e9e b7bd f082 0fbd 2a39 c23d
00000120: 9ab8 ca3b 2a39 a8bb 2d88 893d 75f4 c2bd
00000130: efab 2abd d567 f73d c000 81bd dea7 273e
00000140: 95d9 72bd c095 213e 080b 883d 1358 49bd
00000150: d064 3ebd 7564 e73d 1653 a43d fe15 29be
00000160: fc78 0dbc aa1e 923d 5bb2 c6bd 5b9a 503e
00000170: 22ec 783d bb5a 07be aa1d 463d d2d2 69bd
00000180: 806e 3dbd 5701 d83d e8c1 343d 51c9 38bd
00000190: eee4 15bc ea79 333d 782f af3d de1a 06be
000001a0: 30c4 a63c a239 88bc 094a d93b 50d7 023d
000001b0: 314a ff3a e21b e03c 49d3 85bc 4c7a 1e3d
000001c0: 90df 4c3d 0e51 adbd 17df b33d 4472 30be
000001d0: 2c62 463d fdf1 91bd 7d4d 0c3d 9eca 50bd
000001e0: 8ed1 07bc 8207 9c3b f88c 9dbc 1852 4e3d
000001f0: 0e01 adbc 458d 5c3d 7e91 86bd 401b 173e
00000200: bd8f a73c aa22 9d3c 0846 883c 78cd 58bc
00000210: 1264 4cbd 42a3 75bd f731 203e ca72 803d
00000220: fbcf eebd 9df3 9fbd 53c9 1d3e fe9d 6a3d
00000230: 7bed 92bd 0a42 b03c bc84 31bd 3e4e 593d
00000240: c4a1 93bd 64b8 333c 1def 54bd 0a86 8bbd
00000250: 62a2 143e d137 d7bc c11e c83d f3f6 633d
00000260: bd1e b6bd a9d8 87bd 85e1 0f3e 3a3a 90bc
00000270: 5ae4 2c3d 0656 d7bc 8927 363d 68cc b6bd
00000280: 7557 393e e2c2 433c 0108 f43c db78 873d
00000290: f0bf 05be 9fe6 30bd e659 ae3d d3ba babc
000002a0: 72f2 8a3d 3c08 8d3d 462a cfbd 2ea8 633d
000002b0: f3c1 9cbd 5da7 193d 0024 96bd b614 5f3c
000002c0: e1c9 3dbc 9262 183d e67c 2cbb c2fa 69bd
000002d0: 08d7 c53d 544f 93bd 1cef 1a3e de98 5c3d
000002e0: 827f 6abd d707 173d 421a d5bd 5e08 cc3c
000002f0: 5455 b1bd 4ceb 4a3d 959b 9fbd e751 5abd
00000300: 5c28 053e fea2 843d 693f aabd 7e59 17bd
00000310: 0c35 7d3d a752 8c3d c3e0 cfbd 42a0 b0bd
00000320: 6030 3c3e 419a d9bc b79d 3c3c c1f9 60bd
00000330: b04c 193e a86c 593d edd6 ecbd 8fe2 a33d
00000340: d776 13be a530 123d 9b50 08bc 67c2 a2bb
00000350: c447 d2bb 2a2d efbd 77a8 993e 3ad9 013c
00000360: 3ccc 3dbd d222 4b3d 0838 48bd 3796 8d3d
00000370: 6adc c1bd 110f 5fbd d377 353e a9b8 b73c
00000380: ceb9 a5bd da3b 62bc 9f34 933d f225 683d
00000390: 53dc 90bd 8ab9 043d 07ac 2abd 842c 25bd
000003a0: 76b4 8f3d 7915 3bbc ca10 043d 862f 13bc
000003b0: ddee 073d 3d85 443d 9bdc b3bd d0b7 063d
000003c0: 15c3 b1bd cbef 2d3d 3292 7ebd b089 473d
000003d0: b426 a6bd 403b 9fbd 6374 373e 08d2 84bd
000003e0: 3526 0a3e 034b 213d 35ea 2ebc 5ca1 6c3c
000003f0: d5d1 c0bc f203 b33c 1e0d c0bd 782c 22bc
0.044272486 -0.026852323 -0.09611778 0.23352095 -0.0072417436 0.04720955 -0.09936959 0.27266097
0.012366284 -0.027731415 0.06296944 -0.09585359 0.06488607 -0.15129927 -0.044757083 0.124101095
0.01730578 0.0066147577 -0.028778661 0.06246946 0.04788828 -0.08831488 0.06148644 -0.08437845
-0.06329317 0.15604247 0.01777552 0.0031225504 -0.021380711 0.04491531 0.05434934 -0.105018616
0.04860579 -0.10490324 -0.087214954 0.23052122 0.014251477 -0.017809553 -0.037779108 0.087188035
-0.025240459 0.07358813 -0.04153997 0.08647759 0.012748692 0.03777858 0.05111761 -0.06208844
0.01640542 -0.049687356 -0.06418241 0.19135703 0.004728293 -0.014149356 0.026652347 -0.046043497
-0.017595688 0.08576708 -0.011577501 0.014712051 0.08482052 -0.15880415 0.026005125 -0.052063543
0.02128841 -0.050119996 0.00018141416 -0.015985165 0.038290396 -0.08965753 -0.03503698 0.094835594
0.006186557 -0.0051337676 0.067154266 -0.09519283 -0.041667875 0.12080351 -0.06298971 0.1637263
-0.059289534 0.15779781 0.06642729 -0.04915626 -0.04648286 0.112984575 0.0802366 -0.16512296
-0.008634802 0.07134755 -0.09701987 0.20371382 0.06077207 -0.13218205 0.048368134 -0.05708582
-0.04624796 0.105471306 0.044130236 -0.045113865 -0.009148819 0.04381744 0.08553976 -0.13096187
0.020357221 -0.016629044 0.00663114 0.03194362 0.0019477067 0.027357046 -0.0163361 0.03869085
0.050017893 -0.084627256 0.087827854 -0.17231089 0.048433468 -0.07126234 0.034253586 -0.05097448
-0.008289708 0.004761637 -0.019232258 0.05037126 -0.021118667 0.053845663 -0.06570719 0.14756489
0.020454282 0.019181568 0.016634956 -0.013232581 -0.049900122 -0.059970148 0.1564406 0.06271894
-0.11660763 -0.078101374 0.1540883 0.05727958 -0.07174202 0.021515865 -0.043339476 0.053053133
-0.07208589 0.010969255 -0.05198585 -0.06812675 0.14515069 -0.026271733 0.09771491 0.05565543
-0.088925816 -0.066331215 0.14050873 -0.01760589 0.04220996 -0.026286136 0.044471297 -0.08925706
0.18099768 0.011948319 0.029788973 0.06614848 -0.130615 -0.043188687 0.085132405 -0.022794163
0.06784524 0.06886336 -0.10115485 0.05558031 -0.076541804 0.037513126 -0.07331085 0.013615778
-0.011583776 0.03720338 -0.0026319562 -0.057123907 0.096601546 -0.07192865 0.15130275 0.053856723
-0.057250507 0.03687271 -0.10405399 0.024906334 -0.08658853 0.049540803 -0.07793347 -0.053300764
0.13003677 0.06476401 -0.08312876 -0.03695058 0.061818168 0.06851702 -0.10150292 -0.08624317
0.18377829 -0.026562812 0.0115122115 -0.054925684 0.1497066 0.05308214 -0.11564431 0.08002197
-0.14400803 0.035690922 -0.008319999 -0.004967022 -0.0064172465 -0.11678536 0.3001134 0.007925326
-0.04633735 0.049593754 -0.04888156 0.06913417 -0.09465869 -0.054457728 0.1772149 0.02242692
-0.0809208 -0.013808215 0.07187771 0.056676812 -0.070732735 0.032403506 -0.041667964 -0.040325657
0.07016842 -0.011418694 0.032242574 -0.008983498 0.033186782 0.04797863 -0.087823115 0.03289014
-0.08679787 0.042465013 -0.06215114 0.048715293 -0.08112851 -0.07774973 0.17915492 -0.06485373
0.13491137 0.039378177 -0.0106759565 0.014442768 -0.023537556 0.021852467 -0.09377502 -0.0098982975

fc_layers.0.bias f4 [256]
00000000: 5114 25bd cf89 d83d e41b 94be 1752 c03c
00000010: e633 263e 0903 34be bef6 f2bc 352e acbd
00000020: 43b7 0a3e 96d6 683d 6334 09bd 6aa1 33be
00000030: 6b81 973d 7294 9a3d 5138 de3c d9e8 23be
00000040: 36d2 c9bb 27a4 74bc aa0b 60be 4c3e df3b
00000050: 62fb 903d de76 533d 6b9c 24be 12a6 2fbd
00000060: b352 22be c3de 303e 180c d03c ac91 fcbd
00000070: c0d7 7bbe 731f 5bbe 22f7 4a3d b683 343d
00000080: 22bc e6bc 45c4 da3c d66d c23d 261d 20be
00000090: d52c 253e 8e8d d8bc 2f8f 99be 89a7 f53c
000000a0: e332 52be b151 b9bd b674 ae3d 221b a23d
000000b0: 429f 8bbd b879 cc3d c411 043e 5209 f13d
000000c0: 9001 cfbd 3652 db3d 5b89 e33d a1a7 96be
000000d0: bdf2 00be 0a8a a8bd 077c c4bc 66ae 04be
000000e0: 06ab 1a3e 9ebb 83be 11e9 e13d f36f 1d3d
000000f0: e8f5 6cbd 452c 2a3e 812d 7ebe b360 15bd
00000100: d315 3abd e625 39be aec5 7e3c bf27 bebd
00000110: a510 8cbc 7985 21bd e297 ecbd 1d14 adbd
00000120: b0a9 753e 6943 efbd c600 47be 7556 27be
00000130: f35f ecbd c594 f3bc 9f10 b8bb 456a 38be
00000140: 7c97 2fba cec6 2bbd 5684 cbbd 8e87 de3d
00000150: 2bf5 453d a3f0 bfbd bdc2 06be d3cf 8fbd
00000160: bb7a a73e 5b3b 6bbc 4fc9 0ebd a269 84be
00000170: 80ba 74be c087 45be 85e7 71bd 17f8 bebd
00000180: 5156 6a3d 2113 3c3e bcbb 28bd 17e3 52be
00000190: e77f 79bd e517 18be 0bcc c3bd 4675 67bb
000001a0: 5215 87bd 5b4f 01be c1c3 5bbb 8e39 733e
000001b0: 00c5 9abd 4ca7 13be 067c 4f3d cbf1 f43d
000001c0: 4e61 0ebd d869 083d 8c24 9ebd 542c ba3d
000001d0: 8fbe c1bd 65ca 433e a19f 3a3d 8dfd 013e
000001e0: 4207 fa3d bde0 543e cb55 58be f56d 99bd
000001f0: b64e 023e b2be 843c 124c 4b3e 2e20 ebbd
00000200: eb16 a53d 00e7 dfbd 5dfd 223d 43af 16be
00000210: e548 98be 07cc 09bd 0c63 e03d e9ae 37be
00000220: 61dc 48be 3e35 533e 6b7d d5bb 6278 57bd
00000230: d179 923d 79e8 28be 7203 f73d e7c0 033e
00000240: 2d38 0bbd cebd 7ebe c9b8 c33b e6f0 163e
00000250: db0d 1d3e ea27 8bbe 4404 a6be 183c ee3d
00000260: a89c 93be fe88 3a3d 35a5 53be f311 a93d
00000270: e901 01be a719 07be 3a0b 7a3e 818a 523e
00000280: e365 423d 5532 61be 9cc1 5bbe 329f 19be
00000290: e82f 113e 5216 12bd fca0 433e d018 90bd
000002a0: a60e 0b3e 848b 76bd 1c13 1c3e aa44 0a3e
000002b0: 4a38 3e3c 3f26 d83c a296 80be 6c3d 5a3c
000002c0: b098 8ebe f1e7 77be c37c 093e ae85 893d
000002d0: 1c7b 2abe 4a1c a73d 7e4f 233e 27a4 81be
000002e0: 916f 1abe 0c1b c4bd de0c 5c3e ad66 a83e
000002f0: d401 1fbe 0e19 503e 22b3 cd3b ae8c e3bd
00000300: 757a bf3d b7e9 fbbd 6d9d ffbd ca22 81bd
00000310: f84c 9b3e a3e2 95bd 5a66 2e3e 8ff1 523d
00000320: 72e4 753d 75ab bbbd 7f51 55be 2139 4d3e
00000330: 7189 9c3d 33cb 88bd 0cd9 173d 9c69 1f3e
00000340: 0708 90bc 2092 ffbd e83f 8a3d dc4e 8b3d
00000350: c7b8 7bbe 0295 b7bd 9b72 c4bd 283e 2f3e
00000360: 170b 033e 458c f9ba a2e5 97be 6b94 ce3d
00000370: f8c1 1e3e 2f3b d1bd 569e 29be 9ec8 043e
00000380: c73e f43d 3739 973d ec60 06be 47ec 20be
00000390: a26e eb3d ee67 983d ba45 76bc 3ef7 263d
000003a0: 4e8f 46be 45dd 113d 0510 22be 945a 5c3d
000003b0: e001 cebb 8d0d 373e 3e4d 893c 4b10 c0bd
000003c0: 6998 fabb 11f9 3dbe c5af 013c b1ae 1f3b
000003d0: 4e4a 0cbe 8179 243e 93f4 c7bd 4767 fa3d
000003e0: e18e ac3d ed7f 12be 3ffa 6a3e 83dd e8bb
000003f0: 21bf 43bd 0b31 893d 6b78 213e d607 f63d
-0.04030258 0.1057316 -0.2892753 0.023476643 0.16230735 -0.17579283 -0.029658671 -0.08407251
0.13546471 0.05684527 -0.033497225 -0.17542043 0.073977314 0.07547845 0.027126463 -0.16006793
-0.0061590923 -0.014931715 -0.2187945 0.0068128463 0.070791975 0.051627032 -0.16075294 -0.042882986
-0.1585186 0.17272477 0.025396392 -0.12332472 -0.24594021 -0.21398716 0.04955209 0.04407092
-0.02816588 0.026704917 0.09493606 -0.15636119 0.16130383 -0.026434686 -0.29992053 0.029987114
-0.20527224 -0.090487845 0.085183546 0.079153314 -0.068174854 0.099841535 0.12897402 0.11769356
-0.1010772 0.1070904 0.11110183 -0.29424766 -0.12592597 -0.08229454 -0.023984922 -0.12957153
0.15104303 -0.25729078 0.11030782 0.03843684 -0.057851702 0.1661845 -0.24822046 -0.036469173
-0.04543097 -0.18080863 0.01555006 -0.09284925 -0.01709778 -0.03943393 -0.11552407 -0.08451102
0.23990512 -0.11682779 -0.19433889 -0.16341574 -0.11541738 -0.029734025 -0.0056172158 -0.18009289
-0.0006698293 -0.04193764 -0.099373505 0.10865699 0.048329514 -0.0937207 -0.13160224 -0.07022061
0.32710823 -0.014357413 -0.03485995 -0.2586184 -0.23899269 -0.19290066 -0.059058685 -0.09324663
0.057211224 0.18366672 -0.041194662 -0.2059444 -0.060912993 -0.14852865 -0.095604025 -0.0035317703
-0.065958634 -0.12627928 -0.0033533426 0.23752424 -0.07557106 -0.14419287 0.050655387 0.11960181
-0.034760766 0.033304065 -0.077218145 0.09090486 -0.09460174 0.19120176 0.04556239 0.12694378
0.122084156 0.20788856 -0.21126477 -0.07491676 0.12725338 0.016204212 0.19853237 -0.11480747
0.08061012 -0.10932732 0.039792407 -0.14715295 -0.29743114 -0.03364184 0.10956392 -0.17937817
-0.19615318 0.20625779 -0.006515195 -0.05260504 0.07152141 -0.16494931 0.12061204 0.12866555
-0.03398912 -0.24877092 0.005972956 0.14740333 0.15337317 -0.2717889 -0.3242513 0.11632556
-0.28830457 0.045540802 -0.2066849 0.08255377 -0.12598385 -0.1319338 0.24418345 0.20560648
0.047460448 -0.21991856 -0.21460575 -0.15002134 0.14178431 -0.035665818 0.1910438 -0.070359826
0.13579807 -0.060191646 0.15241665 0.13502756 0.0116101 0.026385425 -0.25114924 0.013320308
-0.27850866 -0.24209572 0.13426499 0.067149505 -0.16648525 0.081596926 0.15948293 -0.2532055
-0.15081622 -0.09575471 0.21489283 0.32890835 -0.15528041 0.20322058 0.006277458 -0.11110817
0.09349529 -0.12300437 -0.124811985 -0.063054636 0.3033216 -0.07318618 0.17031232 0.0514999
0.060032316 -0.09163562 -0.2083187 0.20041324 0.07643402 -0.06679382 0.037072226 0.1556763
-0.017581953 -0.12479043 0.067504704 0.068021506 -0.24582206 -0.08963968 -0.09592172 0.17113554
0.12797199 -0.0019038996 -0.29667383 0.10086902 0.1550368 -0.102163665 -0.16564307 0.12967154
0.11926036 0.0738396 -0.1312291 -0.15715133 0.11495711 0.07441698 -0.015031273 0.040763132
-0.19390604 0.03561141 -0.15826423 0.05379732 -0.0062868446 0.17876263 0.016760465 -0.09378108
-0.0076475632 -0.18552043 0.007915442 0.0024365599 -0.1370022 0.16061975 -0.09763446 0.1222673
0.084256895 -0.14306612 0.22947024 -0.0071064844 -0.047789697 0.06698807 0.15768592 0.12013213

fc_layers.2.weight f4 [512, 256]
00000000: b22c 573d e295 d63d 48a9 c4bd 6ad2 d33c
00000010: 3ad1 153d b89b c83c 0fc9 de3d efde 4c3d
00000020: 8065 213c 7700 4dbd 4b65 923d 7044 c5bc
00000030: 1677 8abc 49fc 7a3d f537 c03b bbed 273d
00000040: 12f5 ff3c eb50 333d d4c9 fabc c133 ea3d
00000050: d043 113c 5753 dd3c 7445 85ba 236e a63c
00000060: 2b61 87bd 9d39 2a3d 87b9 223d 7a27 1e3d
00000070: ca1d 783d 3f72 dfbd 6af1 61bd ca68 1cbc
00000080: 930b b5bd cb96 01bd 6e01 f53d 9b37 d1bd
00000090: bf2a 403c 4c17 dfbc ef92 d7bd ec08 2dbd
000000a0: e6e8 963d 12af 893c 8063 e8b9 b27a 0a3e
000000b0: 546c 803d 877b 29bb a443 f93d 5df5 5bbd
000000c0: 9226 8fbc 04d6 043d 8af1 883d 470a 15bd
000000d0: fca4 153c 15d8 483d f391 e4bc 7790 9f3d
000000e0: d2ae 013e f760 14bd a5b1 4fbb 44e1 c13d
000000f0: f3b4 c0bd d9e6 ad3d 8a48 d63c d975 16bc
00000100: 581e fc3d e583 4ebd 0ebd 50bc 34e6 c43c
00000110: 7ba1 1ebd dc91 d6bc daca 6d3d 7ccd 09bd
00000120: 4ebf 883d 9981 b53d 6c5c 40bd ff05 79bd
00000130: 5a40 fa3b 18bc 19bc f589 77bd 0b52 a43d
00000140: 1e54 e73d 4a38 6dbd d46a 89bd 645a 9c3d
00000150: 1df8 9c3d 1f62 c63c db7f 88bc 7378 f03c
00000160: 0f25 aa3c 8a5a e53d 6149 013d 8e6d 9dbd
00000170: 1f75 b8bc d374 d83d eb21 1a3d b855 bd3c
00000180: d33b d93c be28 3ebd 16b5 80bd 8005 85bd
00000190: 0c7a 32bd 6547 df3c e43d 843a 448f dd3b
000001a0: a3b9 2ebd eee5 a7bd 87b4 79bd 76d8 083e
000001b0: 164b 133c a40d 803d 7c37 e6bb 0025 7d3c
000001c0: 3e65 dc3d f2c4 af3d 10f3 c4bd 3fc2 bc3d
000001d0: c2c4 94bd 3698 ae3d 6a46 78bb d747 0abb
000001e0: 1a02 c63b b6e6 55bd 6015 ca3d 5bee 97bc
000001f0: ef6d fa3c 3320 9dbd 70b3 ba3d b8ce 06bc
00000200: de5c 31bc 8ca3 4a3d b740 7dbd af2b 6d3d
00000210: e7a2 4dbd 4804 413b d5c8 c13d cb4d 343d
00000220: 3374 ccbc 7604 a83c 8f1d 863d 281b 5fbd
00000230: 09f7 f7bc 7aa0 d4bd 96c2 993d 642a 62bd
00000240: ea6a 7abb c646 17be b233 e93d ff67 8abd
00000250: c172 57bd c725 5f3d 0089 a4bd 124f 78bd
00000260: f4dc 44be 32f4 cd3d c8b3 4ebe acc3 9dbd
00000270: b6a5 14bd fb07 ae3d 90c7 ac3d 5488 fcba
00000280: c673 b43d b9e1 89bd 5d11 debc 3a1f 8dbd
00000290: 80d0 cb3d b14c c7bd 2d97 6abd 77b6 1b3d
000002a0: 8f8a 25bc 3528 5cbd 44ae 893c 8cb8 993c
000002b0: 7d58 e9bb c176 743c 7a72 bd3c d724 053e
000002c0: 0108 723d c993 fabc c15a d03c 341b 1c3d
000002d0: c088 a93d 8b4d 5abd c251 2cbd 18ec e1bd
000002e0: 113f adbd 4700 7abd edd3 153e 1180 963d
000002f0: 477a 5fbd 7552 c43d 6d28 843d c6c8 febc
00000300: ec73 c03d 9f24 a6bd 56ea 7ebc b83e e13d
00000310: 8741 c23d 71bc 7bbd b698 f43d c50b 27bd
00000320: 8d2a 59bc 52b7 ce3d 17e1 de3d c355 ff3d
00000330: e164 1b3d cdb2 babd a3a1 d23c 6da9 7bbd
00000340: bd67 b43c 3b1c 933d 0dbd 803d e531 92bd
00000350: 2b50 a83d a875 df3d 9157 b43d 0f96 dd3d
00000360: cc18 5abd b097 67bd 7ffd 8bbd 926c 22bc
00000370: 2e75 e73c 1984 adbd ed50 713d b441 64bc
00000380: 1752 433d bc46 da3d f077 9cbd 607b 89bd
00000390: b1c3 89bc cf57 ce3c 129e 793d 7373 79bd
000003a0: bacf 7abd 692d bdbc f819 9dbd b58d cc3d
000003b0: 3542 5cbd 0f3d 0d3c a794 863b a5d0 893d
000003c0: b357 a8bd b4f3 0d3e c282 853d 8b86 1d3c
000003d0: 9fa2 7ebc 5fdf e4bc e7c2 0b3e fe95 97bd
000003e0: 9455 91bc 0c90 11bc b09b cdbb 4bb9 aa3d
000003f0: 8902 84be c1b7 c0bb 71ee f83d af67 7ebd
0.05253286 0.10477807 -0.096026 0.02585717 0.036576487 0.024488315 0.10878193 0.050017294
0.00985086 -0.05004927 0.07148226 -0.024080485 -0.016902488 0.061275754 0.0058660456 0.0409982
0.031244788 0.04377834 -0.030613817 0.114356525 0.008866265 0.027017279 -0.0010167793 0.02031619
-0.0661033 0.04155885 0.039727714 0.038611867 0.060575284 -0.109104626 -0.05516187 -0.009546468
-0.08840098 -0.031637948 0.11963163 -0.10215684 0.011728941 -0.027232789 -0.10526072 -0.042244837
0.073686406 0.016807113 -0.00044324622 0.13523367 0.06270662 -0.0025860982 0.121711046 -0.053700794
-0.017474446 0.032430664 0.06686695 -0.036386754 0.009133574 0.049034197 -0.027901625 0.07791226
0.12664345 -0.036225285 -0.0031691578 0.09466794 -0.09409513 0.08491296 0.026157636 -0.0091833705
0.12310475 -0.050418753 -0.012740387 0.02403555 -0.03872822 -0.026192598 0.058054782 -0.03364323
0.066771135 0.088626094 -0.04696314 -0.060796734 0.007637066 -0.009383224 -0.0604343 0.08023461
0.11295341 -0.05791501 -0.06709829 0.07634428 0.07664511 0.02421671 -0.016662529 0.02935431
0.020769624 0.111989096 0.03156412 -0.076869115 -0.022516785 0.105691575 0.037630003 0.023112163
0.026517784 -0.046425574 -0.062845394 -0.0649519 -0.043573424 0.027255723 0.0010089246 0.0067614634
-0.042657506 -0.081981525 -0.06096318 0.13363823 0.00899007 0.06252602 -0.007025657 0.015450716
0.10761498 0.08582486 -0.09616673 0.09216737 -0.07264091 0.08525126 -0.0037883767 -0.0021099949
0.006042731 -0.052221976 0.09867358 -0.018546274 0.030569999 -0.07672157 0.09116256 -0.0082279965
-0.010825364 0.049472377 -0.061829295 0.057902988 -0.050204184 0.0029452015 0.09462134 0.0440195
-0.024957752 0.02050994 0.065486066 -0.054469258 -0.030269163 -0.10382171 0.075078174 -0.055216208
-0.0038210698 -0.14773092 0.11386813 -0.06758117 -0.052599672 0.054479387 -0.08033943 -0.060622282
-0.19224912 0.10056342 -0.20185769 -0.07703337 -0.036290847 0.08497616 0.08436501 -0.0019266703
0.088111445 -0.06732506 -0.027107889 -0.068907216 0.099518776 -0.097314246 -0.05727308 0.03801581
-0.010103836 -0.053749282 0.01680673 0.018764757 -0.0071211443 0.014920891 0.023125876 0.13002335
0.059089664 -0.030588048 0.0254339 0.03811188 0.08278036 -0.053296607 -0.042070158 -0.110313594
-0.084592946 -0.06103542 0.14631625 0.073486455 -0.054559972 0.0958604 0.06453023 -0.031101596
0.0939711 -0.08112454 -0.0155588 0.10998291 0.094851546 -0.06145901 0.1194319 -0.04078271
-0.013254774 0.10093559 0.10882776 0.124675296 0.037938002 -0.09116135 0.02571184 -0.061440874
0.022022123 0.07183119 0.062860586 -0.07138423 0.08218416 0.10911113 0.088057645 0.10819637
-0.053246304 -0.056541145 -0.0683546 -0.0099135805 0.028254118 -0.08472461 0.058915067 -0.0139316805
0.04768571 0.10658023 -0.07640064 -0.06712985 -0.016816946 0.025188355 0.060941763 -0.060901117
-0.06123326 -0.023092942 -0.07670969 0.09987966 -0.053774077 0.008620515 0.004107076 0.06729249
-0.08219852 0.13862497 0.06519081 0.009614597 -0.015541702 -0.027938543 0.13648568 -0.074016556
-0.017741002 -0.008884441 -0.006274663 0.08336123 -0.25783184 -0.00588128 0.12154854 -0.0621106

fc_layers.2.bias f4 [512]
00000000: e592 3d3e 22a8 09bd cc85 d6bd 8b7d 1bbe
00000010: 53f1 58be f37d 46bd 21c6 b5bd 121f 86bd
00000020: f0ad 5e3d 7369 00be 69b6 14bb e94d 36be
00000030: fef9 94bd fcc7 d8bd 25bf 3a3c bc21 6a3d
00000040: 9fb5 90bd c570 173e e4e2 98be 433a 803e
00000050: 1337 35bc 6148 533e c900 3bbe 23ff d13e
00000060: f6d4 fc3e ee24 613d a314 0ebe e5a0 ac3d
00000070: ff57 12be d3c7 aabd 71ab 04be f4d4 b63e
00000080: 7bf0 d2bc 2304 d63d 286d d1bd 91b2 02bd
00000090: 4268 39be 38fa 96bd 8be1 b9be a3f9 e2bd
000000a0: b128 503d 4c06 473e e957 a5bd bed4 c53c
000000b0: df3b 1e3e 9621 2bbd 055d 3c3d 9849 af3e
000000c0: cd37 79be 287c acbb 0141 1cbd 003a 273a
000000d0: 3f60 b8bc 42ee 0cbd c6ff 403e ed46 c43d
000000e0: db68 abbd 6b2b 0f3e 2231 40bc bd94 fbbc
000000f0: a68a 71be 39b5 a1bd 8f14 663d fdd1 613d
00000100: d81f 01bd b572 babd 4751 45bd e449 76bd
00000110: c35c 0f3e 65dc 98bc 026d d93e 399c f93c
00000120: 300d 9c3e cebb 573c d839 31be ec48 27be
00000130: 9393 df3d cb77 4e3e 30e5 bb3d dcf3 eb3e
00000140: cb2f 38be 4686 593d 36b8 07be 3f32 523d
00000150: e1ac 9d3e 2c76 483e 9b63 db3c 650d 18bc
00000160: d8ee 0fbe 3765 3e3e e27c 34be ed97 f83d
00000170: 6b14 12be bb2f 1dbd 20e7 c8bd b4ae e33e
00000180: 9960 f8bd 26b1 42bd 0228 87bd e8bd 88be
00000190: 8838 92be 370e 55be 410c 01be f4eb 11be
000001a0: bd54 1cbe e892 0b3e ba81 e9bd 574e bf3d
000001b0: 37b7 40be b0a1 06bd 6fe2 4cbe 5492 28be
000001c0: 77ed 45be 64c6 99bd d5a6 dabe 383d 69bd
000001d0: ae8f 0a3c 13e0 46be d8bb 4cbe a9c9 dcbd
000001e0: 1139 4fbe 4c0d 603c 8bb3 8f3e 7f49 263d
000001f0: d0d3 b5bd 3644 363e 9cd6 8dbd a748 2abe
00000200: 0f02 63bd 9500 51bd b1af 813d 0e97 e43d
00000210: 5fa2 b63e 9ec9 35be ea32 b4bc 96c4 d6bc
00000220: 64f5 cd3d 5c76 64bd 64e4 7dbe fe7d 01be
00000230: bb95 f43e 2973 d23e ebec 3fbe 7d77 5ebc
00000240: 9686 863d edfa fe3d 3bdb 0abe 482a 57be
00000250: 99be a73d 4550 213c c4d7 18be c7be 493d
00000260: 47eb b53d 37a3 30be 3260 12bd 7d9a 7ebe
00000270: 472f a43d d512 d4bd bde7 c03d 3e98 ce3e
00000280: a452 e7bd 794a 6dbc 36c1 23be beaf 7bbd
00000290: eea4 403e 0b78 333e b619 95bd e34c c93e
000002a0: 331a 963e f014 c3bc 1256 ce3e bab2 563c
000002b0: 9501 203e a9d2 0dbe 3d05 38be e526 823e
000002c0: ed16 e23d 80d0 8c3e 9883 aebe 3edd db3e
000002d0: 613d 91bd 058d 393b 99cd e73d 6c4a e6bd
000002e0: ff9d 1cbc ef44 28be 6ac9 0fbe 8baa b2bc
000002f0: 7183 c43e db6e 1d3d 8e3c 1dbe d626 93bd
00000300: 786b 793e 9f22 8fbd b06d 12be 9e6a bcbd
00000310: 6ab2 1f3d c397 20be c126 0dbe 6a56 81be
00000320: 2081 2c3e 159d 743d 008f 56be 3965 dbbd
00000330: fc55 eb3e 3405 41be 4a09 cbbd d949 1c3e
00000340: 7b34 f1bd aabf 563e 19c7 fe3c 3880 8abd
00000350: 45b3 d73e d697 e2bc b309 80bc 7273 b53e
00000360: 6cbd 51bd 81cb 3fbe 2d97 09be e7e9 1dbe
00000370: f60a cdbd 7aba d43d 4f4c 973e 015f 1e3e
00000380: ed21 6f3d b545 c53e ea19 98bd 88bc 35bd
00000390: 93fd 21be 28d6 943d ab66 1ebe d921 4b3d
000003a0: 6289 2dbe 7143 71be a780 7f3e 7bb2 73bd
000003b0: 0f79 023e 9664 b33e 59d7 413e 12a3 c43d
000003c0: effe f83d 3765 533d 0c54 33be 7b54 49bd
000003d0: 0adc 9ebd e6bd 5ebe c127 d1bd 1f8e fa3d
000003e0: 8df4 7bbe 87ce c53d 47cb 9dbe 9c59 7cbe
000003f0: 6ce3 76bd 5d61 08be 11ed 36be b604 55bd
0.18513067 -0.03360761 -0.104747385 -0.1518461 -0.21185808 -0.04845996 -0.08875681 -0.06548895
0.0543651 -0.12540226 -0.0022691733 -0.17803158 -0.07274245 -0.10585019 0.0113981115 0.057161078
-0.070658915 0.14789112 -0.29860604 0.2504445 -0.011060494 0.20633079 -0.18262018 0.41014966
0.49381226 0.05496686 -0.1387506 0.08429126 -0.1429138 -0.08338895 -0.12956025 0.35709345
-0.025749436 0.10450008 -0.10225898 -0.031908575 -0.18106177 -0.07371944 -0.36304888 -0.11082771
0.050820056 0.19435996 -0.08073408 0.024149295 0.15452527 -0.041780077 0.045987148 0.34235835
-0.24337693 -0.005263824 -0.03814793 0.0006379187 -0.022506831 -0.034406908 0.1884757 0.095838405
-0.08369609 0.13981406 -0.011730464 -0.030710572 -0.23588046 -0.078958936 0.05617195 0.0551319
-0.03152451 -0.0910391 -0.048173215 -0.06012906 0.1400023 -0.01865978 0.4246598 0.03047
0.3047881 0.013167335 -0.17307222 -0.16336411 0.109168194 0.20162885 0.091745734 0.46084487
-0.17986982 0.05310657 -0.13253865 0.05131745 0.3079596 0.19576329 0.026780894 -0.009280537
-0.14055955 0.18593298 -0.17625764 0.121383525 -0.14265601 -0.038375597 -0.098097086 0.44469225
-0.121277995 -0.047532223 -0.06599428 -0.26707387 -0.28558755 -0.20806204 -0.1260233 -0.14250165
-0.152667 0.13630259 -0.114016965 0.09341114 -0.18819891 -0.03286904 -0.20008253 -0.1646207
-0.19328867 -0.07508543 -0.42705408 -0.05694315 0.0084571075 -0.19421415 -0.19993532 -0.10780651
-0.20236613 0.013675045 0.28066668 0.040597435 -0.08878291 0.17799458 -0.06925699 -0.16629277
-0.055421885 -0.051025946 0.063323386 0.11161624 0.35670754 -0.17752692 -0.021996934 -0.026216786
0.1005657 -0.05577694 -0.24794155 -0.12645718 0.47770485 0.41103485 -0.18742721 -0.013578293
0.06568639 0.12450204 -0.13560192 -0.21012223 0.081906505 0.009845798 -0.14926058 0.049254205
0.08882766 -0.17249762 -0.03573627 -0.2486362 0.0801683 -0.103551544 0.094192006 0.40350527
-0.11295059 -0.014483088 -0.15991673 -0.061446898 0.18812916 0.17526262 -0.072802946 0.39316472
0.29316863 -0.023813695 0.4030004 0.013104135 0.15625603 -0.13849892 -0.17970748 0.254203
0.11039529 0.27502823 -0.34084773 0.42942232 -0.07091785 0.0028312814 0.113185115 -0.112446636
-0.009559154 -0.16432546 -0.14041677 -0.021809837 0.38381532 0.0384358 -0.15355131 -0.07185142
0.24357402 -0.06989025 -0.14299655 -0.09200023 0.03898851 -0.15682893 -0.13784315 -0.2526124
0.16846132 0.059720118 -0.20952988 -0.10712666 0.45964038 -0.18849641 -0.09913881 0.15262546
-0.11777588 0.20971552 0.031100797 -0.06762737 0.4212896 -0.027660292 -0.015629625 0.3543964
-0.051206037 -0.18729974 -0.13436575 -0.15421258 -0.10011856 0.1038713 0.29550406 0.15465929
0.058381964 0.38529745 -0.07426818 -0.04436925 -0.15819387 0.072674096 -0.15468852 0.049592827
-0.16946939 -0.23560883 0.2495142 -0.059496384 0.12741493 0.35037678 0.18929805 0.09601416
0.12158 0.051610198 -0.1751253 -0.049152832 -0.07756813 -0.21752128 -0.102126606 0.12234139
-0.24605007 0.096585326 -0.3081915 -0.24643558 -0.06027548 -0.13318391 -0.17863871 -0.052006446

fc_layers.4.weight f4 [128, 512]
00000000: ad34 02be 38db f3bd 154d 84bd 99dc a7bb
00000010: ae5c 0bbd bdfd bf3c 5783 25bd 9480 83bd
00000020: 9177 04be c8f8 adbc 9f41 5c3d 69ea 26bd
00000030: 502b fbbd 1cca b73c 5b2c 70bd 7ad0 19be
00000040: 33b9 173d 1d41 14bd 0f11 e13c 3466 83bd
00000050: a882 17be fcdc 163d 845e ddbc 6081 753c
00000060: 969b 7cbd 5140 303d 70c1 b7bd ab82 0d3d
00000070: 5aad 0abd 8f4c 923d 5397 a5bd f9d8 8bbd
00000080: acea 543d b267 35bd c217 ea3b 1fe7 803d
00000090: 9ae8 02bc 1af0 963d 8ed9 0b3d f976 ee3c
000000a0: bef8 8ebd 4251 cbbd a70c 69bd e0f0 143d
000000b0: 1f22 4e3d 3fbe 73bd 7fb5 27be 1938 8ebc
000000c0: f3c0 3d3d bfa8 273d 36ba 8ebd 793f f2bc
000000d0: 496c 86bd 3e91 57bd b78f 033d 9c80 a63d
000000e0: d3db 09bd 8632 773d cbe9 1cbd 67af 503d
000000f0: 3dca b0bc 7071 873d 3bd8 eebd faa7 bebd
00000100: c64f 193d d589 493b 7143 dabc db2f 873d
00000110: 43c1 ed3c 0829 6e3d 520e 97bd 506f 60bd
00000120: d155 80bd 1990 18be ed2e 913c a608 153c
00000130: 5271 3ebd 94df 02bd 2698 b5bc 18b6 e63b
00000140: cea0 563b e18b c8bd 3185 223d 3d44 ae3d
00000150: c37f 32bd 33f1 803d 91c1 8c3d fa5e 803d
00000160: c637 3dbd a381 853d 9e20 823b 6510 14be
00000170: cab0 b83c 6632 d23d 3a38 64bd 4e0f 81bc
00000180: f18e 003d 6c88 b7bd 1c1b 853d 387c 0cbc
00000190: 28df 023d 0aba 023d 04d0 223d 9dc4 f23c
000001a0: 23ce 4cbd 78e3 04be 2307 9f3d 6c61 90bc
000001b0: b07e 0e3b 41b3 4bbd 120d 58bd 2c52 203d
000001c0: 4bf9 97bc 5316 a7bd 20a2 c53c 6c07 8bbd
000001d0: 56e3 f9bd 81a3 893d 93e3 5e3c 9f45 1dbd
000001e0: 2c8b ecba 3cd4 cbbd 0f19 0fbd 26ae f4bb
000001f0: 246a 0bbd 4367 debd 802b 12bd e597 efbc
00000200: 6b4b 93bc 289f 533c 1724 cebd 1a26 22be
00000210: 634a 58bc 390b 4dba 1c55 463d 6550 5d3d
00000220: 517d 513d a256 f63c da2d 03bd 6209 a2bc
00000230: 75a9 04bc 1a9d 9cbd 778b 463d 09d3 18be
00000240: 1aa9 54be 9cac a9bd 4029 cdbc e261 b03c
00000250: 240c ce3d 566a 83bd 46c4 353d a6e2 c53c
00000260: efb2 7abd 6306 dbbc 5160 443d 132e 853d
00000270: 36a2 58be a96b 8dbd 14e0 c4bc 484e b6bc
00000280: 2312 023c 92dc 0ebd 283f 9dbd 07cb 2dbd
00000290: 87d7 a03d cc38 673d f12a 573d f404 aabc
000002a0: f63b 72bd 138d 19bd 0c88 05bd c9cd 1abe
000002b0: 7c13 50bd c9b7 39bd 6c98 0c3d ca84 31bd
000002c0: 05b3 523c 1037 853c f610 c2bc dca1 c7bc
000002d0: 4719 b73d dfec e0bd 656c f1bd d0e8 843d
000002e0: cda3 0fbe dfdd 923d 24c6 e2bc 12f5 9fbd
000002f0: dcf8 71bc df12 f73c 3867 6c3d 3c11 803d
00000300: 67ca 95bd 60c1 24bb f370 d83b fddd 263b
00000310: 85e7 8f3d 8a79 5bbd aa20 013d 8971 b73b
00000320: 19d2 933d 5f12 cebc 5222 2ebc abad 1f3d
00000330: ce45 65bd 5d4a 2ebd 557b 4fbd a889 393c
00000340: a2ba 32bc 999d 2f3d 5f6e 22be 6b71 ba3d
00000350: 52af 0ebd c608 653d c25d 683d 79a8 8abd
00000360: ca95 c23b 4cee 073d 9000 83bd 1a0f ec3c
00000370: c192 543c a518 32be d80d 98bd 403f 23bd
00000380: 0d0c 4e3d 28a1 003b ab55 82bd 1777 6abd
00000390: 384a 21bd fbfd 23be 30e6 95bc 53f0 b8bd
000003a0: 1533 7d3d 829a a93c 93d3 333c 80f2 db3d
000003b0: 9754 83bd 09f5 50bc 24d0 4cbd 9f92 923d
000003c0: fe48 a13d f0db 15be 6f90 393d 867b 75bd
000003d0: 5383 d83b da8c 32bd 2131 0a3d d005 08be
000003e0: d25d 0f3b 9cfb f4bc 2888 473d d3f3 d53c
000003f0: 43bb 853d 74fb 7b3d 18b8 8dbd 4a78 dfbd
-0.12715407 -0.11907047 -0.06460015 -0.005122733 -0.034023933 0.023436422 -0.04040846 -0.06421009
-0.12936236 -0.021236792 0.05377352 -0.040750895 -0.122641206 0.02243524 -0.05863605 -0.15020934
0.037041854 -0.03619491 0.027473954 -0.06415978 -0.14795935 0.03683184 -0.027022608 0.014984459
-0.061671816 0.043030087 -0.08972442 0.034548443 -0.033856727 0.07143509 -0.080855034 -0.068284936
0.051981613 -0.044288345 0.0071439454 0.06294083 -0.007990027 0.073700145 0.034143023 0.029109465
-0.069810376 -0.09927608 -0.05689683 0.03636253 0.05032551 -0.059507605 -0.16377829 -0.017360734
0.04632659 0.040932413 -0.06969111 -0.029571282 -0.065636225 -0.052628748 0.03211948 0.08129999
-0.033656906 0.060350917 -0.0383089 0.050948527 -0.02158081 0.06613433 -0.116623364 -0.09309383
0.037429594 0.003075232 -0.026643487 0.066009246 0.029022818 0.0581446 -0.07375778 -0.054793656
-0.06266368 -0.14898719 0.017722571 0.0090963 -0.04649479 -0.031951502 -0.022167277 0.0070407502
0.0032749656 -0.09792305 0.039677802 0.08509109 -0.043578874 0.06296005 0.06872857 0.06268115
-0.046195768 0.06518867 0.0039711734 -0.14459379 0.022545237 0.10263519 -0.055717684 -0.015754368
0.03138632 -0.08961567 0.06499311 -0.008574538 0.0319511 0.031915702 0.03974916 0.029634768
-0.050001275 -0.12977397 0.07765033 -0.01762458 0.0021742992 -0.049731497 -0.05274684 0.039140865
-0.01855149 -0.08158555 0.024125159 -0.06788525 -0.12201564 0.06720639 0.013604063 -0.038396474
-0.0018046848 -0.0995259 -0.034936007 -0.007467049 -0.03403677 -0.10859539 -0.035686016 -0.029247234
-0.017980298 0.012916364 -0.10065477 -0.15834847 -0.013201329 -0.00078218017 0.04842101 0.05403175
0.0511449 0.030070607 -0.03202615 -0.019779865 -0.008097042 -0.07647152 0.048472848 -0.14924254
-0.20767632 -0.08284876 -0.025044084 0.02153105 0.100609094 -0.06416766 0.044376634 0.024155926
-0.0612058 -0.026736444 0.047943417 0.065029286 -0.21155629 -0.069053 -0.02403263 -0.022254124
0.007938894 -0.03487832 -0.07678062 -0.04242995 0.078536086 0.05645065 0.052531186 -0.020754315
-0.059139214 -0.037488054 -0.032600448 -0.15117563 -0.05079983 -0.045341287 0.03432505 -0.04333953
0.012860064 0.016261607 -0.023689728 -0.024369173 0.08940368 -0.109826796 -0.11788253 0.06489718
-0.14027329 0.07171225 -0.027682371 -0.07810415 -0.014768805 0.030160366 0.057715625 0.06253287
-0.07313996 -0.0025139675 0.0066052615 0.0025461905 0.07026581 -0.053582706 0.03152529 0.0055982512
0.07217807 -0.025155244 -0.0106283 0.038983982 -0.055974774 -0.042551387 -0.050654728 0.011324324
-0.010908755 0.042874906 -0.15862416 0.09103664 -0.034835167 0.05591657 0.05673004 -0.06770415
0.0059382664 0.033186242 -0.06396592 0.028815795 0.012974442 -0.17392214 -0.074245155 -0.03985524
0.05030446 0.0019627307 -0.06363996 -0.05724248 -0.03937742 -0.16014855 -0.018298239 -0.09030213
0.061816294 0.020703558 0.010975736 0.107396126 -0.064126186 -0.012753733 -0.050003186 0.07156872
0.0787525 -0.14634681 0.04530376 -0.059932254 0.006607452 -0.043591358 0.03373826 -0.13283467
0.002187599 -0.029905133 0.048713833 0.026117241 0.06529858 0.0615191 -0.06919879 -0.10911615

fc_layers.4.bias f4 [128]
00000000: 1459 0c3d ef41 6abe 17c2 c43c 5c49 d1bd
00000010: 9a24 8bbd fd03 f7bc 4c9c 1abd 987e adbd
00000020: 34ea 8dbd 6002 04bd 2ebd 92bd 5d67 4cbe
00000030: 313a 62be 4ed3 cbbd 7b14 76bc d89e a4bd
00000040: 0d4d 9aba 2c13 ce3c 1bd2 64be 63d5 04bd
00000050: 9838 c7bc a612 c7bb 7a15 2ebe 2e3e ab3d
00000060: aa00 a4bd 3dd6 4fbd 7497 0cbd 6702 3fbe
00000070: f5ed 033d 0624 673d 8a97 04be e2c2 543c
00000080: 25ed dfbd fd1e 2bbd 23d8 f03c f0fc 7abc
00000090: 01ee 05bd 5ada 83bc 91ae 73bd 18a5 87bd
000000a0: 0db5 bcbd d6a4 bf3c 3ac9 b33c 40fc c6bd
000000b0: e3a6 06be 8cfe d2bc fcf5 adbd b25e b53b
000000c0: 1abb 59bd f270 9abd dab7 563c a4b1 973a
000000d0: b0b0 80bd 15a4 f5bd 46d1 223d a379 dabc
000000e0: 5acf 95bd 5888 36be 1cf2 dd3c 2917 3dbd
000000f0: 9f04 04be 6694 46bd fe39 c8bd d89c 88be
00000100: ab85 91bd fa07 a43c a25b 8fbc 063f 3abd
00000110: 8b9f 46be 2102 1bbe 3b74 993c 9475 153d
00000120: 09f8 683c 4ec0 80bd 662c 49be 2fc4 b8bd
00000130: 8542 57be b058 a93b edc2 903b 5ba5 8dba
00000140: cb34 91bd bbf0 75bd cd6c d8bd f5ea 45be
00000150: 98e9 003d 7901 3ebe 3699 723c b15f 4dbe
00000160: 0a79 b93c d82a 62be 41e7 6abc 6859 2abd
00000170: 428a 19bd 8581 843c b6c7 f3bc 4707 abbd
00000180: b911 e0bc dde0 0cbe a7ae 5fbc 0420 cebc
00000190: 3fd7 39be d0d1 c2bc 0eef 5f3d 1b51 4fbe
000001a0: 686e e03c 37e8 33be a1ce 49ba 4188 ad3d
000001b0: 06d2 c2bd ff0c d2bd ec34 823c f1bb 72be
000001c0: 2412 72be 464c 9dbb 30f2 09bd 3a49 a4bd
000001d0: 92f3 a53d 12b5 56be b9cd 8cbd ace9 62be
000001e0: c2d4 51be af8d 953c f222 6c3d 82ed f1bd
000001f0: cabc 593d 1251 33bc cb96 c4bc c647 d9bd
0.03426464 -0.22876714 0.02401833 -0.1021907 -0.067940906 -0.030153269 -0.037746713 -0.084714115
-0.06929436 -0.032228827 -0.071649894 -0.19961305 -0.22092511 -0.099524125 -0.015019531 -0.080381095
-0.001177223 0.025155626 -0.22345774 -0.032430064 -0.024318978 -0.006075221 -0.1700038 0.08361469
-0.08007939 -0.050741423 -0.034324124 -0.1865326 0.032209355 0.05643084 -0.12948433 0.012985917
-0.109339036 -0.0417776 0.029399937 -0.015319094 -0.03269768 -0.01609533 -0.05949265 -0.06623286
-0.0921422 0.02339403 0.021946538 -0.097160816 -0.131496 -0.025756143 -0.084941834 0.00553497
-0.05315695 -0.07541074 0.013105357 0.0011573327 -0.062837005 -0.11994187 0.03975036 -0.026669329
-0.0731494 -0.17825449 0.027092986 -0.046164665 -0.12892388 -0.048481368 -0.09776686 -0.26682162
-0.07105573 0.020023335 -0.017499749 -0.04547026 -0.19396798 -0.15137531 0.01873218 0.036489084
0.014219292 -0.06286679 -0.19645843 -0.09021794 -0.21021469 0.005168043 0.004417768 -0.0010806726
-0.070901476 -0.06004403 -0.10567627 -0.1932791 0.031472772 -0.1855525 0.014807036 -0.20056035
0.022640724 -0.22086656 -0.014337362 -0.04158917 -0.03748537 0.016175041 -0.029758316 -0.083509974
-0.0273522 -0.13757654 -0.01365248 -0.02516175 -0.18148516 -0.023781687 0.05467134 -0.20245783
0.027396396 -0.17569052 -0.00076983316 0.08473254 -0.09512715 -0.10256385 0.015894376 -0.23704506
-0.23639733 -0.0048003523 -0.033678234 -0.08021779 0.08103098 -0.2096751 -0.06875176 -0.22159451
-0.20491317 0.018256037 0.057650514 -0.11812879 0.05315856 -0.010944622 -0.023997685 -0.10609393

classification_layer.weight f4 [1, 128]
00000000: 6b3b 9a3f 18ee c7be aa72 9fbf 40a7 eb3d
00000010: b8ee f4bd 1f8d 77bf e5f5 5fbf 946a 2f3e
00000020: 401d a3bd d873 5cbf 8d03 55bf 660d aabe
00000030: e25c e23e 8430 5e3f fb4b 9a3f e32d f73d
00000040: e9bf 8cbf 2850 a3be 03c8 a5be d089 f9bd
00000050: 8e43 8c3f 548a 59bf 4a66 a9be 7525 afbf
00000060: aa9e 09be c3ee 9d3f e42e 9b3e 5368 2dbf
00000070: c791 acbf f607 a1bf 17c2 0b3e 8d33 a13f
00000080: 94d6 bebe 502a 963f 5a47 9bbe 9e67 b2bd
00000090: d4d9 953f af77 833f 7838 003e 7185 a13f
000000a0: ec99 04bf 0068 983f 34ac 8dbf f293 2e3e
000000b0: c118 1ebf 4484 9ebf 9a88 9fbd 4494 9b3f
000000c0: 2aee 963e 6068 863f e5f4 9c3f 08d1 67bf
000000d0: 70ea cdbd 9352 2d3e e853 99bf 8139 c1bd
000000e0: d6b3 de3d 778c cd3e 00e5 993f 2971 ae3d
000000f0: accb 7fbe 84f7 08be f392 6d3f 45ce 0f3f
00000100: 88c8 923f 432c 953f 22c8 89be 246f 8b3f
00000110: 187d b6be fdbe ed3e 4ca2 913f 660d 67bf
00000120: 0190 a6bf de46 883e 75f1 8cbe 36a9 023e
00000130: 5119 b83e bd47 84bf 45ac 933f de10 973f
00000140: 584c 3dbf fea3 a3bd 6078 07be 8adf a53e
00000150: 1c80 913f d544 c93e bae2 903f a0b1 91be
00000160: 2682 91bf 5e9c 9bbe 57b2 673f 9fa8 d3bd
00000170: d66a 983f bb7a 9fbf 83d1 913f 7059 bd3d
00000180: 7f8a 943f 4291 553e a70f a1bf dd36 933f
00000190: 08ad 533f c6ce 9a3f 62ab 8abf cf48 9dbe
000001a0: a33c 963f 9e67 2abf 7129 913f 37d9 82bf
000001b0: dabd 2abf db76 ecbd b488 963f 9283 c5be
000001c0: 841d dd3e c0d4 78bf 6928 793e a697 9fbd
000001d0: b184 87bf 9143 fb3e 6f89 1e3e bebe f83e
000001e0: 937e a6be c08d 7ebf cb01 a9bf ce9b f33d
000001f0: f343 adbf efda 9ebd d88d 873f 1061 343e
1.2049383 -0.3904884 -1.2456868 0.1150651 -0.119595945 -0.9669971 -0.8748458 0.171305
-0.07964563 -0.86114264 -0.83208543 -0.33213347 0.4421149 0.8679278 1.2054437 0.12069299
-1.0996066 -0.31897092 -0.3237916 -0.12184489 1.0958116 -0.84976697 -0.33085853 -1.3683306
-0.13439432 1.2338489 0.30309212 -0.6773731 -1.3481988 -1.2580554 0.13648258 1.2593857
-0.37273085 1.1731663 -0.30327874 -0.0871117 1.1707101 1.02709 0.12521541 1.2618848
-0.51797366 1.1906738 -1.1068177 0.17048624 -0.6175652 -1.2384114 -0.077897266 1.2154622
0.2947858 1.0500603 1.2262236 -0.9055333 -0.10054481 0.16926031 -1.1978731 -0.09434796
0.10874145 0.4014623 1.202301 0.08517677 -0.24980038 -0.1337567 0.9280235 0.5617412
1.1467447 1.1654133 -0.26910502 1.0893292 -0.35642314 0.46434775 1.1377654 -0.9025482
-1.3012697 0.26616567 -0.27527967 0.12759861 0.35956815 -1.0334393 1.1536947 1.1802022
-0.73944616 -0.079902634 -0.13229513 0.3239711 1.1367221 0.39310327 1.1319191 -0.2845583
-1.1367843 -0.30392736 0.905065 -0.10334896 1.1907604 -1.2459329 1.1392063 0.092455745
1.1604766 0.20856193 -1.2582902 1.1501118 0.826859 1.2094352 -1.0833552 -0.3071961
1.1737255 -0.6656436 1.1340772 -1.0222539 -0.6669594 -0.115461074 1.1760468 -0.38576943
0.4318658 -0.9719963 0.24331822 -0.077925965 -1.0587369 0.49074987 0.15482114 0.48583025
-0.32518443 -0.99435043 -1.3203672 0.11894952 -1.3536361 -0.07756602 1.0590162 0.17615151
