weights/one_piece_22_10_200.pth (torch, 930200 bytes, 7 tensors)

fc_layers.0.weight f4 [256, 133]
0.07018256 -0.0077563515 -0.07365185 -0.041725446 0.02452171 -0.016683314 -0.05892675 0.038252514
0.006863476 -0.043281812 0.082296245 -0.06992149 0.06205191 -0.11650089 -0.026619295 0.033066176
0.04825798 -0.012356189 -0.0029886789 -0.08352842 0.05071282 -0.12289254 0.072745524 -0.06010081
-0.06538954 -0.00086685386 0.025236946 0.0033111025 -0.02656571 -0.03793211 0.05529234 -0.119108744
0.032075483 -0.10350386 -0.035701457 0.017724272 0.0310168 -0.052068137 -0.02256118 -0.05115902
-0.023453778 -0.0842607 -0.045903064 -0.09132716 0.040110014 0.027114727 0.06708334 -0.09339992
-0.003698452 -0.07796709 -0.031402063 0.0022794125 -0.0039644316 -0.05210989 0.018850995 -0.08495326
0.040179662 -0.06423435 0.0028292078 -0.008830912 0.07709313 -0.09532416 0.038103793 -0.08876143
0.0057785152 -0.08890218 -0.019776627 -0.04769076 0.026372164 -0.11628599 -0.010344619 0.034848593
0.014984184 -0.07820364 0.07496424 -0.03754478 -0.022064023 -0.035169307 -0.051606752 0.0355609
-0.035820853 -0.026754811 0.08306921 -0.017264979 -0.010809606 0.014977204 0.062394135 -0.12112534
0.024143904 0.018062158 -0.074398525 0.017837865 0.03125796 -0.09923257 0.06814892 -0.00963859
-0.044084597 -0.035018813 0.07655909 -0.0754208 -0.013635548 0.0019387539 0.07374528 -0.066214204
0.046241965 -0.07897877 0.027824303 -0.031499162 0.02128816 -0.004462639 -0.016664889 -0.033818003
0.064129755 -0.13030195 0.084298074 -0.11599338 0.03150915 -0.054184083 0.01961173 -0.038313717
-0.026591793 -0.054422792 -0.020793673 -0.011181583 -0.03190383 -0.05929642 -0.043234784 -0.06862146
0.008453257 0.05679576 0.060562167 0.006233067 -0.0641632 -0.01956728 -0.011196021 0.05816654
-0.06513213 -0.044750776 0.032787118 0.059114367 -0.05095879 0.03114118 -0.09347675 0.0649465
-0.034643874 0.0042933715 -0.106582925 -0.04163495 -0.03061608 -0.007950308 0.028885966 0.056058817
-0.078926474 -0.043188006 -0.013014361 -0.019128853 0.008604676 -0.028420318 -0.032066595 -0.08049052
-0.025985768 0.023067662 -0.004860357 0.06043461 -0.08635042 -0.01782651 -0.05277708 -0.012523059
0.0007217327 0.06726594 -0.113235325 0.05535718 -0.017245913 0.02882873 -0.056775577 0.014547259
0.012496383 0.06121538 0.0075188163 -0.05535324 -0.098670125 -0.044285163 0.017019866 0.071315095
-0.05310703 0.040204473 -0.13184911 0.022236578 -0.10742435 0.061214887 -0.11525357 -0.02834876
0.021474542 0.06210126 -0.027186401 -0.023743935 -0.06865238 0.09097227 -0.10690482 -0.04505236
0.00029560397 -0.05742426 -0.11340675 -0.020307323 0.042018674 0.03524233 -0.09568151 0.08035643
-0.07887794 0.056530833 0.0018469614 -0.026256753 -0.058007367 -0.085497834 0.07470775 -0.011572973
-0.08360702 0.06379748 -0.03122514 0.085775904 -0.0789159 -0.024814984 0.03199316 0.028489849
-0.1303196 0.017864563 0.025900302 0.04982712 -0.04391121 0.042249136 -0.07014771 -0.024901316
-0.052373935 -0.015796093 -0.044384573 0.0030174619 0.018642174 0.02937427 -0.021976603 0.029429559
-0.078171395 0.046916842 0.012746679 0.059869647 -0.062034056 -0.052349497 0.008394208 -0.03055192
-0.038689733 0.06181299 -0.033253122 0.0025721353 -0.047803197 0.026786909 -0.13142355 0.017268408
00000000: e0bb 8f3d fe28 febb c8d6 96bd 4de8 2abd
00000010: c1e1 c83c 72ab 88bc 2d5d 71bd abae 1c3d
00000020: 02e7 e03b 4548 31bd ef8a a83d 0033 8fbd
00000030: 252a 7e3d 0598 eebd b510 dabc 6670 073d
00000040: 29aa 453d 9d71 4abc b6dd 43bb f310 abbd
00000050: 3fb8 4f3d 16af fbbd 9bfb 943d 442c 76bd
00000060: f3ea 85bd 943d 63ba b6bd ce3c 15ff 583b
00000070: 55a0 d9bc b35e 1bbd 397a 623d 49ef f3bd
00000080: 9561 033d d5f9 d3bd b13b 12bd 7e32 913c
00000090: f216 fe3c 6645 55bd 39d2 b8bc 1f8c 51bd
000000a0: 2322 c0bc e090 acbd da04 3cbd bc09 bbbd
000000b0: 664a 243d b41f de3c fd62 893d 7548 bfbd
000000c0: ba61 72bb 36ad 9fbd 739f 00bd 3262 153b
000000d0: 10e8 81bb 2e71 55bd 676d 9a3c fafb adbd
000000e0: 6e93 243d 4d8d 83bd 3b6a 393b 88af 10bc
000000f0: 01e3 9d3d 5039 c3bd b912 1c3d 8dc8 b5bd
00000100: b359 bd3b 5912 b6bd 9802 a2bc 6357 43bd
00000110: 700a d83c 5927 eebd 7a7c 29bc 66bd 0e3d
00000120: 3980 753c 3b29 a0bd da86 993d 8ec8 19bd
00000130: 9cbf b4bc b10d 10bd 9a61 53bd 4ea8 113d
00000140: e3b8 12bd e82c dbbc 3120 aa3d 496f 8dbc
00000150: c61a 31bc f262 753c fe90 7f3d 9010 f8bd
00000160: 70c9 c53c 17f7 933c 415e 98bd b720 923c
00000170: 5908 003d 723a cbbd a991 8b3d 2deb 1dbc
00000180: 0d92 34bd e36f 0fbd 03cb 9c3d 3876 9abd
00000190: a267 5fbc c91d fe3a c407 973d 509b 87bd
000001a0: 3768 3d3d 9fbf a1bd cbef e33c 4405 01bd
000001b0: 8264 ae3c 543b 92bb ce84 88bc bf84 0abd
000001c0: 7656 833d e06d 05be 78a4 ac3d f08d edbd
000001d0: bd0f 013d 21f0 5dbd c7a8 a03c d8ee 1cbd
000001e0: 08d7 d9bc 6fea 5ebd 7e57 aabc f532 37bc
000001f0: 97ad 02bd cee0 72bd f516 31bd 6889 8cbd
00000200: 887f 0a3c aca2 683d 0910 783d c13e cc3b
00000210: ff67 83bd 8f4b a0bc 846f 37bc 0a40 6e3d
00000220: ff63 85bd 974c 37bd c94b 063d e821 723d
00000230: 2aba 50bd ca1b ff3c bd70 bfbd ac02 853d
00000240: bce6 0dbd 69af 8c3b 2648 dabd 6989 2abd
00000250: 93ce fabc 0242 02bc 43a2 ec3c ee9d 653d
00000260: 34a4 a1bd e8e5 30bd 303a 55bc 1db4 9cbc
00000270: a1fa 0c3c bad1 e8bc 4358 03bd 37d8 a4bd
00000280: 1be0 d4bc 65f8 bc3c a143 9fbb 488a 773d
00000290: 7dd8 b0bd e708 92bc c82c 58bd 842d 4dbc
000002a0: a932 3d3a bac2 893d ece7 e7bd 36be 623d
000002b0: 4d47 8dbc 3b2a ec3c 828d 68bd a057 6e3c
000002c0: a1bd 4c3c fabc 7a3d 6760 f63b 14ba 62bd
000002d0: 9013 cabd 5c64 35bd 3f6d 8b3c a60d 923d
000002e0: c286 59bd 72ad 243d 7403 07be 7c29 b63c
000002f0: 4c01 dcbd 76bc 7a3d 100a ecbd a93b e8bc
00000300: 61eb af3c e45d 7e3d 04b6 debc a482 c2bc
00000310: 9e99 8cbd ab4f ba3d eaf0 dabd d388 38bd
00000320: 4bfb 9a39 b335 6bbd cc41 e8bd 8b5b a6bc
00000330: c61b 2c3d 435a 103d abf4 c3bd e991 a43d
00000340: c28a a1bd e08c 673d be15 f23a 6718 d7bc
00000350: 2299 6dbd 7d19 afbd 6000 993d 919c 3dbc
00000360: 283a abbd 41a8 823d ddcb ffbc 47ab af3d
00000370: a99e a1bd cb48 cbbc 420b 033d 8b63 e93c
00000380: 8072 05be b458 923c df2c d43c 8617 4c3d
00000390: 3edc 33bd 6e0d 2d3d 9aa9 8fbd d8fd cbbc
000003a0: 0d86 56bd cf66 81bc 99cc 35bd 9cc0 453b
000003b0: 79b7 983c 4fa2 f03c 4708 b4bc 4216 f13c
000003c0: 5318 a0bd e02b 403d 72d7 503c e039 753d
000003d0: 6c17 7ebd 6d6c 56bd dc87 093c 0548 fabc
000003e0: 2079 1ebd 9e2f 7d3d 6d34 08bd 4591 283b
000003f0: 49cd 43bd 3870 db3c e593 06be 7a76 8d3c

fc_layers.0.bias f4 [256]
-0.016155776 0.12309726 -0.18320099 0.059862927 0.19663043 -0.1485909 -0.0013112033 -0.09578452
0.17463489 0.09302271 -0.042686675 -0.14348315 0.09251359 0.11048903 0.053475473 -0.15058002
0.022593334 0.020666987 -0.1390465 0.031338636 0.107578255 0.0799525 -0.12745556 -0.0071802377
-0.10691972 0.19310161 0.044631768 -0.09100046 -0.19830428 -0.17731573 0.08009081 0.08072717
-0.004033457 0.06514873 0.10184892 -0.14171 0.18152505 0.010596734 -0.33821985 0.069001034
-0.19922464 -0.039500147 0.098763056 0.11050703 -0.06668439 0.13745539 0.14771967 0.15077747
-0.050395675 0.14505275 0.12646441 -0.18979137 -0.09594904 -0.055186395 0.028598016 -0.09218146
0.16881713 -0.18578671 0.15092501 0.053156935 -0.035467867 0.1708977 -0.18694523 0.008061082
-0.026922898 -0.13875674 0.046856884 -0.070548765 0.028010497 -0.013740536 -0.109767556 -0.037536014
0.2594966 -0.07773131 -0.13897984 -0.12031924 -0.06838937 0.007606803 0.03956823 -0.16336606
0.008056773 -0.027970871 -0.03823488 0.1365883 0.07832009 -0.0749212 -0.080688246 -0.020707836
0.22558355 0.019015936 -0.033034675 -0.18021518 -0.12864926 -0.19416772 -0.04564074 -0.086790934
0.09371064 0.21041332 0.0008068064 -0.11372208 -0.024170946 -0.11630175 -0.057988577 0.014324574
-0.014173515 -0.09634404 0.040091168 0.24987754 -0.0035982593 -0.110763565 0.083871566 0.16266932
-0.010476569 0.0595332 -0.03940509 0.104534894 -0.061730966 0.20655726 0.05926241 0.1527928
0.15557513 0.22942664 -0.18049818 -0.011497465 0.14518225 0.05522163 0.21210593 -0.055166755
0.09523652 -0.087304465 0.07198663 -0.11885373 -0.17829253 0.010393882 0.13150233 -0.12462825
-0.27420536 0.21041285 0.015956087 -0.007452062 0.093040965 -0.1008742 0.1290155 0.16473068
-0.0005902453 -0.24253847 0.013248355 0.18357532 0.18535805 -0.19363837 -0.2113143 0.14950468
-0.30005154 0.07620464 -0.30253047 0.12571764 -0.08886639 -0.13446485 0.24877809 0.22689565
0.07247766 -0.121369734 -0.19457987 -0.10382714 0.15734798 0.0090693915 0.21886897 -0.06812537
0.1578626 -0.028600557 0.18318158 0.16534497 0.06401265 0.058035325 -0.30562475 0.03700924
-0.31329483 -0.13163713 0.16613562 0.08035654 -0.12968495 0.105734594 0.19608894 -0.14492233
-0.104457095 -0.046238143 0.22377524 0.2408549 -0.10497422 0.20141797 0.027969927 -0.06958387
0.096926436 -0.07562854 -0.07030349 -0.043496404 0.27335358 -0.031544775 0.18397427 0.09181815
0.09588017 -0.091699414 -0.17588733 0.21678765 0.0972651 -0.025559247 0.06996745 0.18661048
0.010745449 -0.13831104 0.08917197 0.10915944 -0.30667287 -0.09541133 -0.06887173 0.17632729
0.12754385 0.041600075 -0.2198237 0.12695904 0.16375758 -0.064004526 -0.23287779 0.1585048
0.14394337 0.091895275 -0.07820709 -0.10946494 0.13733473 0.10580733 -0.0012138224 0.074318305
-0.107670784 0.06804134 -0.11067125 0.07910619 0.0314065 0.19648567 0.055027522 -0.07965056
0.021864038 -0.1578692 0.03525787 0.050343927 -0.12974307 0.19543862 -0.076861955 0.15613768
0.12726884 -0.09950417 0.24481222 0.021131298 -0.14032848 0.11202266 0.17982492 0.16219327
00000000: 1e59 84bc 6b1a fc3d 0a99 3bbe d432 753d
00000010: 7d59 493e 3628 18be afdc abba ad2a c4bd
00000020: 7dd3 323e b182 be3d 39d8 2ebd 3fed 12be
00000030: c477 bd3d 1348 e23d 1909 5b3d a631 1abe
00000040: a815 b93c d04d a93c 3562 0ebe f15c 003d
00000050: fd51 dc3d 23be a33d b683 02be 3348 ebbb
00000060: baf8 dabd 6ebc 453e cdcf 363d 735e babd
00000070: 4710 4bbe 4192 35be a706 a43d 4954 a53d
00000080: 172b 84bb b36c 853d 2b96 d03d 6d1c 11be
00000090: b4e1 393e ec9d 2d3c 272b adbe 6a50 8d3d
000000a0: 8b01 4cbe e8ca 21bd 4944 ca3d 8251 e23d
000000b0: d391 88bd 1bc1 0c3e d343 173e 6965 1a3e
000000c0: b26b 4ebd b588 143e e37f 013e ab58 42be
000000d0: ee80 c4bd 210b 62bd 6346 ea3c a2c9 bcbd
000000e0: 66de 2c3e df3e 3ebe 168c 1a3e 16bb 593d
000000f0: c146 11bd cfff 2e3e 926e 3fbe a112 043c
00000100: 698d dcbc 3f16 0ebe 01ed 3f3d df7b 90bd
00000110: 4576 e53c fc1f 61bc d0cd e0bd 5dbf 19bd
00000120: bddc 843e 9831 9fbd bb50 0ebe ef69 f6bd
00000130: ba0f 8cbd 7d42 f93b 4c12 223d 6f49 27be
00000140: 8e00 043c 2b23 e5bc 2d9c 1cbd cedd 0b3e
00000150: 4966 a03d 4970 99bd e13f a5bd 7ba3 a9bc
00000160: 60ff 663e 4fc7 9b3c 5e4f 07bd 548a 38be
00000170: a2bc 03be e7d3 46be c9f1 3abd 72bf b1bd
00000180: 5deb bf3d 9776 573e dc7f 533a 1fe7 e8bd
00000190: 2602 c6bc 9d2f eebd 6e85 6dbd 9eb1 6a3c
000001a0: 0838 68bc 0650 c5bd a336 243d e6df 7f3e
000001b0: c6d0 6bbb 02d8 e2bd dbc4 ab3d c992 263e
000001c0: eaa5 2bbc 16d9 733d 3b67 21bd 6416 d63d
000001d0: 9cd9 7cbd bf83 533e 24bd 723d b775 1c3e
000001e0: 164f 1f3e d1ee 6a3e 84d4 38be dd5f 3cbc
000001f0: a8aa 143e 1330 623d 4c32 593e 89f6 61bd
00000200: 5d0b c33d afcc b2bd ba6d 933d 9669 f3bd
00000210: 5192 36be 1a4b 2a3c 8ca8 063e 193d ffbd
00000220: a564 8cbe 7776 573e 57b6 823c 6d30 f4bb
00000230: 438c be3d 2297 cebd a41c 043e 29af 283e
00000240: b1ba 1aba 015c 78be a10f 593c 2bfb 3b3e
00000250: 80ce 3d3e 2349 46be c762 58be c117 193e
00000260: 5ba0 99be 2e11 9c3d 46e5 9abe 20bc 003e
00000270: 95ff b5bd 27b1 09be afbf 7e3e 5557 683e
00000280: 2b6f 943d b290 f8bd f23f 47be 53a3 d4bd
00000290: d41f 213e c997 143c 301f 603e 5085 8bbd
000002a0: bca6 213e b74b eabc f493 3b3e 3150 293e
000002b0: 1019 833d 73b6 6d3d d97a 9cbe 0097 173d
000002c0: 2e68 a0be e2cb 06be 751f 2a3e f891 a43d
000002d0: 22cc 04be 618b d83d 8acb 483e 8566 14be
000002e0: 9aed d5bd 3564 3dbd 5625 653e aba2 763e
000002f0: b9fc d6bd 8340 4e3e 3021 e53c fd81 8ebd
00000300: 5e81 c63d 23e3 9abd 47fb 8fbd 4929 32bd
00000310: 00f5 8b3e 1835 01bd c063 3c3e 270b bc3d
00000320: d35c c43d e7cc bbbd cf1b 34be 95fd 5d3e
00000330: ed32 c73d a061 d1bc 184b 8f3d d116 3f3e
00000340: ae0d 303c 69a1 0dbe cb9f b63d fc8e df3d
00000350: 3a04 9dbe 0467 c3bd 9f0c 8dbd 248f 343e
00000360: db9a 023e d764 2a3d 7719 61be 8d01 023e
00000370: 11b0 273e ce14 83bd 8477 6ebe 154f 223e
00000380: e465 133e 9733 bc3d 0a2b a0bd 282f e0bd
00000390: 7aa1 0c3e 83b1 d83d 1f19 9fba 3234 983d
000003a0: 8082 dcbd 4259 8b3d 9ca7 e2bd 6d02 a23d
000003b0: 1aa4 003d 8a33 493e 8a64 613d d51f a3bd
000003c0: 361c b33c 77a8 21be 8e6a 103d 6f35 4e3d
000003d0: 5edb 04be 1021 483e cd69 9dbd 8ee2 1f3e
000003e0: c352 023e d8c8 cbbd 0eb0 7a3e 8b1b ad3c
000003f0: 45b2 0fbe 236c e53d 0624 383e fe15 263e

fc_layers.2.weight f4 [512, 256]
0.021146491 0.06274634 -0.07892207 0.06457918 0.06332398 -0.013815064 0.061513096 0.009735127
0.037594687 -0.00980829 0.03354237 0.022297686 -0.031513866 0.028346747 -0.011857847 -0.01928633
-0.0045436583 0.07847139 -0.0300389 0.06857496 0.051390223 -0.007456462 -0.02994909 0.010317231
-0.050083607 0.053967796 -0.00019987505 0.0024176687 0.04490267 -0.07378424 -0.03582445 0.033626303
-0.045328744 0.0010674989 0.07630259 -0.048070103 -0.013949936 0.012540363 -0.050589126 0.0002467631
0.0148645975 0.053696994 -0.040243056 0.108227246 0.0022244847 0.033912603 0.07855239 -0.009144651
0.006551854 0.056275014 0.037139155 -0.024705997 -0.010618743 0.030248843 -0.008625989 0.058764394
0.09310261 -0.021250417 0.019309951 0.046530876 -0.03807662 0.055841934 0.039870005 0.019737111
0.08505809 -0.00663865 0.028282316 -0.0010448649 -0.001222871 0.005985831 0.0031532024 0.0071104323
0.07720529 0.074701145 -0.030376913 -0.028571313 -0.009963778 0.037346985 -0.048261058 0.019432465
0.061127502 -0.011591911 -0.06529362 0.052351747 0.048627257 -0.022647688 0.023393722 0.052553248
-0.0046366933 0.077517346 -0.019485988 -0.06480863 -0.0065033706 0.045292977 -0.017799133 -0.025900478
0.05886583 -0.015758121 -0.033146482 -0.04583099 -0.009429246 -0.0007845636 0.040234398 -0.03680586
-0.02792386 -0.035936642 -0.023370188 0.1079942 0.015285467 0.036452215 0.030197479 0.033117075
0.068459146 0.059834424 -0.063817404 0.045452107 -0.028031493 0.04689432 -0.008073231 0.009603546
0.039505072 -0.036874723 0.053043496 -0.018496228 -0.00017022307 -0.04252601 0.054404866 0.00464797
0.020284522 0.00071719126 -0.021094372 0.027467739 -0.04065745 0.03105788 0.05983157 0.04729213
-0.08839635 0.036317296 0.018668974 -0.026189862 -0.048766747 -0.09590788 0.03917902 -0.026551552
-0.040158812 -0.09305494 0.0855964 -0.047075283 -0.021258228 0.05555559 -0.07104463 -0.044748746
-0.12847957 0.08455873 -0.14363457 -0.05921098 -0.0063616955 0.026121741 0.06310294 0.020186676
0.08149096 -0.054064773 -0.02067961 -0.04007685 0.07151322 -0.064225435 -0.043672066 0.0041563027
-0.036443677 -0.0049826438 0.05895082 -0.0033561457 0.027243411 -0.0037287818 -0.029486572 0.08655908
-0.00020226432 -0.021423306 0.047815003 -0.005864197 0.07030373 -0.023639848 -0.025772301 -0.10123575
-0.056570917 -0.041119386 0.101808265 0.07179643 -0.031856507 0.07053599 0.041979823 0.015301598
0.054173294 -0.058417328 0.0005231873 0.060213536 0.08846249 -0.017092112 0.09230764 -0.00602045
0.015588198 0.055654503 0.06958913 0.081648454 -0.010540648 -0.056010157 -0.0065754447 -0.027126607
0.07200108 0.021866985 0.029525133 -0.044141922 0.026061904 0.06209964 0.04987982 0.07775519
-0.022595052 -0.02507945 -0.055878025 0.009261582 0.011891779 -0.03852083 0.017061533 -0.023806965
0.026322175 0.07002566 -0.05755406 -0.033880353 0.0033066038 0.06998942 0.01267437 -0.029421799
-0.042188156 0.016564168 -0.053261604 0.06254984 0.00065501814 0.042525284 0.024683569 0.014536036
-0.04070082 0.08017907 0.028505558 0.042521726 -0.056954287 -0.014968101 0.09215921 -0.034322962
0.015065286 -0.031618085 0.009613328 0.04918708 -0.17951371 0.029136898 0.07804845 -0.035465173
00000000: 683b ad3c 2781 803d e5a1 a1bd 1742 843d
00000010: 01b0 813d 9458 62bc 28f5 7b3d 1580 1f3c
00000020: e3fc 193d f3b2 20bc b963 093d a3a9 b63c
00000030: af14 01bd 7037 e83c 6a47 42bc 5efe 9dbc
00000040: f8e2 94bb 9cb5 a03d 2414 f6bc 0771 8c3d
00000050: 8e7e 523d 5655 f4bb cb57 f5bc 9a09 293c
00000060: 7824 4dbd 560d 5d3d 8d95 51b9 c071 1e3b
00000070: ddeb 373d 311c 97bd a9bc 12bd bcbb 093d
00000080: a2aa 39bd 52eb 8b3a 8844 9c3d 28e5 44bd
00000090: 468e 64bc 1876 4d3c 8b36 4fbd fc5f 8139
000000a0: a48a 733c 61f1 5b3d e7d5 24bd 3fa6 dd3d
000000b0: a9c8 113b f1e7 0a3d 13e0 a03d 72d3 15bc
000000c0: efb0 d63b a180 663d 3a1f 183d 3b64 cabc
000000d0: 3cfa 2dbc 6ccc f73c 0554 0dbc efb2 703d
000000e0: 95ac be3d 5b15 aebc e72f 9e3c 2997 3e3d
000000f0: 3bf6 1bbd 83ba 643d bb4e 233d b9af a13c
00000100: f032 ae3d 0889 d9bb 51b0 e73c d9f3 88ba
00000110: be48 a0ba ca24 c43b f5a5 4e3b a1fe e83b
00000120: cf1d 9e3d eafc 983d 01d9 f8bc 630e eabc
00000130: 1d3f 23bc 27f9 183d 63ad 45bd d530 9f3c
00000140: d560 7a3d 00ec 3dbc a9b8 85bd c96e 563d
00000150: 602d 473d a587 b9bc 31a4 bf3c 1342 573d
00000160: 67ef 97bb 6ac1 9e3d 14a1 9fbc 63ba 84bd
00000170: 3a1a d5bb 2185 393d 7dcf 91bc 3d2d d4bc
00000180: 4c1d 713d 2d17 81bc 9bc4 07bd 47b9 3bbd
00000190: 207d 1abc 2cab 4dba d3cc 243d bec1 16bd
000001a0: 94c0 e4bc 4d32 13bd d672 bfbc 102c dd3d
000001b0: e56f 7a3c eb4e 153d b460 f73c c5a5 073d
000001c0: 4f34 8c3d f114 753d b3b2 82bd fd2b 3a3d
000001d0: 4da2 e5bc 4214 403d 9645 04bc 3158 1d3c
000001e0: 12d0 213d f309 17bd 2344 593d 6785 97bc
000001f0: e87d 32b9 c12f 2ebd a3d7 5e3d 004e 983b
00000200: ba2b a63c e401 3c3a 1bce acbc 0604 e13c
00000210: 6d88 26bd 186d fe3c f311 753d 64b5 413d
00000220: 2509 b5bd 72c1 143d adef 983c 1f8c d6bc
00000230: a4bf 47bd 5a6b c4bd 2e7a 203d a482 d9bc
00000240: 917d 24bd 9793 bebd 2a4d af3d 03d2 40bd
00000250: bc25 aebc 428e 633d d97f 91bd 764a 37bd
00000260: 2690 03be 212d ad3d f114 13be 3687 72bd
00000270: c575 d0bb 43fd d53c 1d3c 813d 875e a53c
00000280: bce4 a63d 0673 5dbd 4968 a9bc a027 24bd
00000290: 8675 923d a088 83bd 7be1 32bd 9831 883b
000002a0: f745 15bd 7245 a3bb 6a76 713d c8f2 5bbb
000002b0: 932d df3c 945e 74bb d38d f1bc e345 b13d
000002c0: ea16 54b9 ee7f afbc aad9 433d 7328 c0bb
000002d0: 67fb 8f3d 5ba8 c1bc 6f20 d3bc b054 cfbd
000002e0: e8b6 67bd cd6c 28bd da80 d03d 020a 933d
000002f0: f87b 02bd 2c75 903d 09f3 2b3d 8eb3 7a3c
00000300: d1e4 5d3d 0247 6fbd 8126 093a 78a2 763d
00000310: d22b b53d c204 8cbc ca0b bd3d 3247 c5bb
00000320: a465 7f3c faf5 633d bf84 8e3d 4e37 a73d
00000330: afb2 2cbc e86a 65bd d476 d7bb 9e38 debc
00000340: 4d75 933d 6422 b33c b1de f13c 29ce 34bd
00000350: c67f d53c 315c 7e3d c84e 4c3d 1d3e 9f3d
00000360: 4219 b9bc 6b73 cdbc 5be0 64bd e4bd 173c
00000370: bcd5 423c 05c8 1dbd a1c4 8b3c d306 c3bc
00000380: 9aa1 d73c 9d69 8f3d cebd 6bbd 20c6 0abd
00000390: 9bb3 583b 9d56 8f3d 29a8 4f3c fc05 f1bc
000003a0: 7dcd 2cbd 94b1 873c d728 5abd 211a 803d
000003b0: 86b5 2b3a fe2e 2e3d 3235 ca3c 8e28 6e3c
000003c0: e7b5 26bd ed34 a43d 7d84 e93c 432b 2e3d
000003d0: e648 69bd c43c 75bc f8bd bc3d 3c96 0cbd
000003e0: 64d4 763c f781 01bd 3881 1d3c 6478 493d
000003f0: 71d2 37be 81b0 ee3c ded7 9f3d ee43 11bd

fc_layers.2.bias f4 [512]
0.15189575 -0.034994863 -0.0996028 -0.14914696 -0.16685712 -0.030424407 -0.08654188 -0.053291693
0.020090954 -0.0797592 0.01578811 -0.16258898 -0.008074141 -0.08860772 0.022246398 0.031468
-0.04489198 0.10439514 -0.26026127 0.20429416 -0.017970815 0.18506671 -0.12952192 0.324323
0.4133004 0.055669025 -0.12494745 0.077005796 -0.06931601 -0.05363925 -0.12612537 0.31551328
-0.0025345145 -0.0091859745 -0.08307042 -0.025255634 -0.13265644 -0.059502948 -0.2402799 -0.08562491
0.037054963 0.15813337 -0.08867101 0.025613196 0.1506145 -0.035224307 0.04704206 0.25643635
-0.22257936 0.0026166243 -0.014757536 -0.06290793 -0.02117483 -0.024171824 0.16309854 0.08125095
-0.07957487 0.13388792 -0.11706717 -0.021029206 -0.21129282 -0.06418788 0.043955594 -0.10097709
-0.02213125 -0.071936846 -0.049608056 -0.043577824 0.12085117 -0.0036511468 0.36734778 0.02980247
0.26511222 0.004091707 -0.16904177 -0.13911925 0.07774317 0.11311084 0.013260036 0.3655489
-0.10245893 0.029126165 -0.10726969 0.047412597 0.2664997 0.17227459 0.02759911 0.0033323693
-0.121567756 0.17449561 -0.13436747 0.10013976 -0.11972243 -0.032314695 -0.07634811 0.29348904
-0.11158706 -0.054136254 -0.047488566 -0.20445502 -0.1913986 -0.18945673 -0.08124908 -0.10272103
-0.13444129 0.119627476 -0.092045985 0.016584666 -0.15849546 -0.022298561 -0.12540427 -0.1285264
-0.0986391 -0.059934683 -0.2888631 -0.011273932 0.011602157 -0.16228683 -0.14693129 -0.07809558
-0.13600126 -0.010085921 0.19218762 0.035534948 -0.09137485 0.15828224 -0.06619988 -0.1501116
-0.058888663 -0.11744003 -0.04260985 0.08321461 0.2866204 -0.11051778 -0.00029793972 -0.009842048
0.097921975 -0.028220464 -0.17883913 -0.12397632 0.39301977 0.33510056 -0.1531141 -0.024407513
0.05307096 0.10724806 -0.11884922 -0.1783954 0.075676285 0.011814059 -0.116107024 0.054785736
0.015633212 -0.15293466 -0.024878625 -0.22245432 0.07323903 -0.10280788 0.018857267 0.32790005
-0.083846 -0.017108923 -0.11054453 -0.015311223 0.1652678 0.15541583 -0.044778656 0.30552277
0.26501006 -0.033136602 0.32191357 0.032474935 0.07077579 -0.13379115 -0.13587561 0.2162621
0.09846161 0.23984043 -0.1815791 0.30747008 -0.05533237 -0.013856667 0.086388305 -0.093964756
-0.016231215 -0.13743973 -0.1027914 -0.018433183 0.2968476 0.046399273 -0.12655686 -0.06568487
0.20160559 -0.012856774 -0.12291036 -0.070569836 0.04613847 -0.08067381 -0.08763282 -0.18512799
0.15218839 -0.04640645 -0.13216798 -0.07388735 0.3926469 -0.13015439 -0.03819488 0.14098251
-0.089560464 0.18793917 0.02524888 -0.058542043 0.32958737 -0.017457532 -0.0021561652 0.3104942
-0.021223875 -0.15527214 -0.10563018 -0.12407458 -0.082081474 0.08376413 0.25657973 0.1198528
0.0619872 0.30878198 -0.062363956 -0.058635596 -0.15017414 0.06264122 -0.13460933 0.038900446
-0.14975084 -0.18182498 0.19502692 -0.054304566 0.036487 0.31117442 0.15184018 0.09696998
0.11479734 0.04099519 -0.15772259 -0.05517384 0.0060408376 -0.12584455 -0.06924737 0.095951945
-0.20133795 -0.0010379411 -0.25828278 -0.22153166 -0.048039794 -0.08821767 -0.13368152 -0.05101743
00000000: 8f8a 1b3e c656 0fbd 8efc cbbd fbb9 18be
00000010: 98dc 2abe 9b3c f9bc df3c b1bd 6448 5abd
00000020: c995 a43c cb58 a3bd 1156 813c ba7d 26be
00000030: 6749 04bc f777 b5bd 143e b63c 97e4 003d
00000040: a7e0 37bd 1fcd d53d f740 85be 7d32 513e
00000050: 8837 93bc 2182 3d3e 65a1 04be aa0d a63e
00000060: 1c9c d33e 3405 643d 73e4 ffbd 37b5 9d3d
00000070: 8df5 8dbd d5b4 5bbd 0227 01be f58a a13e
00000080: 191a 26bb c580 16bc d320 aabd e7e4 cebc
00000090: 17d7 07be 5db9 73bd ef0b 76be 1d5c afbd
000000a0: f2c6 173d b7ed 213e 2699 b5bd c4d2 d13c
000000b0: b03a 1a3e 5d47 10bd 2daf 403d a04b 833e
000000c0: d8eb 63be ac7b 2b3b 98c9 71bc dfd5 80bd
000000d0: d676 adbc fd03 c6bc 4e03 273e e666 a63d
000000e0: 26f8 a2bd ea19 093e eac0 efbd 7145 acbc
000000f0: 255d 58be ef74 83bd c80a 343d 14cd cebd
00000100: 984c b5bc a053 93bd d131 4bbd a97e 32bd
00000110: d180 f73d 1448 6fbb 0215 bc3e 4f24 f43c
00000120: cabc 873e ba13 863b 4919 2dbe 4775 0ebe
00000130: d037 9f3d a8a6 e73d 9f40 593c 3a29 bb3e
00000140: fdd5 d1bd ff99 ee3c 36b0 dbbd b633 423d
00000150: a672 883e c068 303e 8717 e23c e163 5a3b
00000160: 84f8 f8bd faae 323e a097 09be 1316 cd3d
00000170: 0931 f5bd 6a5c 04bd 665c 9cbd 3244 963e
00000180: c287 e4bd fabd 5dbd 5f83 42bd a85c 51be
00000190: fffd 43be f200 42be eb65 a6bd 675f d2bd
000001a0: faaa 09be 40ff f43d 9b82 bcbd 91dc 873c
000001b0: a24c 22be 79ab b6bc fa69 00be 6d9c 03be
000001c0: 4c03 cabd 127e 75bd dde5 93be 4cb6 38bc
000001d0: f916 3e3c 852e 26be 2875 16be 93f0 9fbd
000001e0: ea43 0bbe 6b3f 25bc d5cc 443e 188d 113d
000001f0: bd22 bbbd bd14 223e cd93 87bd dbb6 19be
00000200: 3d35 71bd 6684 f0bd ab87 2ebd 6c6c aa3d
00000210: e9bf 923e 2557 e2bd cb34 9cb9 8b40 21bc
00000220: 518b c83d 9a2e e7bc 9b21 37be 4ce7 fdbd
00000230: e339 c93e 4d92 ab3e f1c9 1cbe 44f2 c7bc
00000240: ef60 593d dfa4 db3d 3867 f3bd 49ad 36be
00000250: 2bfc 9a3d c18f 413c 85c9 edbd 0267 603d
00000260: 3911 803c e79a 1cbe 42ce cbbc 11cb 63be
00000270: 58fe 953d f08c d2bd 8e7a 9a3c 84e2 a73e
00000280: 74b7 abbd 0328 8cbc 2c65 e2bd eddb 7abc
00000290: f63b 293e 5425 1f3e d369 37bd 7b6d 9c3e
000002a0: 66af 873e 3fba 07bd dbd1 a43e 7004 053d
000002b0: e6f2 903d 8c00 09be fa22 0bbe d073 5d3e
000002c0: 3ea6 c93d bb98 753e dfef 39be b86c 9d3e
000002d0: 32a4 62bd 1307 63bc 5aec b03d 9870 c0bd
000002e0: 53f7 84bc 00bd 0cbe 4c84 d2bd 3001 97bc
000002f0: 69fc 973e 2a0d 3e3d 1f98 01be ca85 86bd
00000300: b271 4e3e 38a5 52bc 6db8 fbbd eb86 90bd
00000310: b1fb 3c3d 4f38 a5bd d678 b3bd 3192 3dbe
00000320: 46d7 1b3e b114 3ebd 0b57 07be 4052 97bd
00000330: 0409 c93e 3147 05be 3c72 1cbd b85d 103e
00000340: 7a6b b7bd 2073 403e bdd6 ce3c c8c9 6fbd
00000350: adbf a83e 1903 8fbc 734e 0dbb 19f9 9e3e
00000360: b1dd adbc a9ff 1ebe a354 d8bd d01a febd
00000370: 551a a8bd 878c ab3d 6b5e 833e 6375 f53d
00000380: 4ae6 7d3d ac18 9e3e 5971 7fbd e12b 70bd
00000390: 40c7 19be 0a4a 803d 07d7 09be 1356 1f3d
000003a0: 4958 19be 5430 3abe 23b5 473e 776e 5ebd
000003b0: 6473 153d 4152 9f3e fe7b 1b3e 3298 c63d
000003c0: de1a eb3d 93ea 273d 0882 21be f7fd 61bd
000003d0: 38f2 c53b 65dd 00be 91d1 8dbd 7482 c43d
000003e0: 892b 4ebe 860b 88ba a43d 84be 32d9 62be
000003f0: 60c5 44bd 77ab b4bd cfe3 08be a7f7 50bd

fc_layers.4.weight f4 [128, 512]
-0.028460063 -0.074389525 -0.053425882 0.008602826 -0.003555699 -0.007854198 0.0016084107 -0.010177476
-0.065641075 0.026761997 0.022720885 -0.022627912 -0.055193953 -0.0012252157 -0.024896655 -0.072633
0.02207769 -0.016093131 0.011059577 -0.055982046 -0.06755901 0.023033759 -0.024564818 0.003636882
-0.07649907 0.036075465 -0.045672376 0.002195475 -0.0321261 0.062779084 -0.047681432 -0.052951936
0.039132558 0.061165825 0.018272875 0.05824317 -0.0076265647 0.058390256 0.060688004 0.0064739212
-0.021440445 -0.051686924 -0.03405146 0.01406987 0.0046734754 -0.020332512 -0.07998664 -0.004115422
0.057535756 0.017548956 -0.02011127 0.06820001 -0.048675753 -0.02947203 -0.00434087 0.048197772
-0.014149569 0.020846987 0.05267905 0.031079233 -0.0033865212 0.060543016 -0.029816989 0.03201431
0.024287669 -0.014349572 -0.0072342083 0.03298467 -0.012265237 0.035488557 -0.0781589 0.0062106745
-0.054693505 -0.065341234 0.029402403 0.021315837 0.0057535945 0.068626635 0.08482011 -0.013072307
0.010478234 -0.02371459 0.026324611 0.045956876 -0.015745137 0.015315649 0.029495783 0.036626443
-0.0019150078 0.010043518 0.03755606 -0.03900637 0.01986059 0.07489345 -0.047723312 -0.029752187
0.01251231 -0.02294193 0.03255903 0.0084507875 0.030495828 0.03471905 0.05187334 0.018568877
-0.027573237 -0.073656075 0.06987477 0.09087912 -0.0016580868 0.0018977657 -0.011787443 0.0356921
0.009832555 -0.052074943 0.054146465 -0.02053681 -0.060533885 0.06784634 0.030518122 0.019007104
-0.010756225 -0.042889096 -0.012158423 0.025799125 -0.0035370893 -0.027799867 -0.0033087914 -0.006756158
-0.0010073283 0.104278274 0.0030128106 -0.019315666 -0.030333392 0.01721463 0.025604332 0.051286664
0.021771772 0.033485714 -0.015304904 0.0022693188 -0.01714068 -0.090024024 0.039536968 0.006037348
-0.0027441962 -0.014750528 0.0026272144 0.0025043588 0.055530384 -0.006563821 0.042757697 -0.016438209
0.045264643 -0.01581398 0.0105856275 0.052664474 -0.050489537 -0.022780139 0.069254205 -0.052229602
-0.0041654683 -0.0011598727 -0.051986005 -0.0236499 0.021503914 0.028039316 0.039542947 -0.06809581
-0.04487301 -0.018090319 -0.031711932 -0.06688895 0.05983704 -0.03874658 0.044965614 -0.028132128
-0.026802883 -0.024340456 -0.00062077056 -0.048642978 0.05705846 -0.0621976 -0.02096267 0.04588937
-0.06747608 0.08537767 0.0044673784 -0.05193679 -0.010773924 0.007819547 0.05369726 0.04937069
-0.044025805 0.04342973 -0.009428966 -0.008949059 0.04033206 0.0004713216 0.031693265 0.0011687729
0.021898422 0.089745976 0.04287413 0.03969519 -0.06945142 -0.02513016 -0.0477986 -0.038786307
-0.014403759 0.0074733673 -0.063853055 0.074809276 -0.0510492 0.034764793 0.029939214 -0.062290955
-0.0062574595 0.03929119 -0.004695997 0.035536457 0.0028558576 -0.03857203 -0.064350106 0.014239494
0.025587803 0.0022674773 -0.014526546 -0.042600777 -0.0053519136 0.0107760215 0.0028832848 -0.03869737
0.056480084 0.014136442 -0.019868813 0.0619002 0.035138812 -0.016535236 -0.010824516 0.04177458
0.03479237 -0.03771608 0.032166943 -0.013287042 0.033535466 -0.012463822 0.029290201 -0.019541
-0.0043197265 0.07525919 0.036401793 0.044553578 0.042200692 0.066344105 -0.029617522 -0.064663425
00000000: 1425 e9bc 8959 98bd 19d5 5abd def2 0c3c
00000010: bb06 69bb e5ae 00bc 4fd1 d23a 6ebf 26bc
00000020: d46e 86bd fa3b db3c 2621 ba3c 2c5e b9bc
00000030: 0e13 62bd 6b97 a0ba 12f4 cbbc 9cc0 94bd
00000040: 46dc b43c bed5 83bc 3a33 353c 6e4d 65bd
00000050: 615c 8abd 4bb1 bc3c 283c c9bc c158 6e3b
00000060: 8bab 9cbd dec3 133d f512 3bbd f5e1 0f3b
00000070: a896 03bd 5292 803d 9b4d 43bd 21e4 58bd
00000080: 7649 203d 0489 7a3d ffb0 953c 6490 6e3d
00000090: 43e8 f9bb 9f2a 6f3d fc93 783d 3023 d43b
000000a0: dfa3 afbc abb5 53bd 8b79 0bbd 5085 663c
000000b0: f423 993b 5e90 a6bc 09d0 a3bd a9da 86bb
000000c0: 9daa 6b3d d4c2 8f3c 64c0 a4bc 72ac 8b3d
000000d0: 3a60 47bd 546f f1bc db3d 8ebb 076b 453d
000000e0: 98d3 67bc 4dc7 aa3c fdc5 573d e099 fe3c
000000f0: 66f0 5dbb f4fb 773d c242 f4bc 7021 033d
00000100: eff6 c63c 781a 6bbc f00c edbb ef1a 073d
00000110: 22f4 48bc 735c 113d c611 a0bd ea82 cb3b
00000120: 4c06 60bd a0d1 85bd 4fdd f03c 8d9e ae3c
00000130: a688 bc3b 1f8c 8c3d 2ab6 ad3d 3b2d 56bc
00000140: e6ac 2b3c 1a45 c2bc b6a6 d73c 473d 3c3d
00000150: f2fb 80bc 7dee 7a3c 24a1 f13c 9c05 163d
00000160: 0001 fbba 918d 243c 62d4 193d 25c5 1fbd
00000170: adb2 a23c bd61 993d 8579 43bd dcba f3bc
00000180: 6f00 4d3c b7f0 bbbc 9e5c 053d 2c75 0a3c
00000190: 63d2 f93c 9035 0e3d 2479 543d c21d 983c
000001a0: 45e1 e1bc ffd8 96bd 811a 8f3d d51e ba3d
000001b0: 2954 d9ba 73be f83a 1f20 41bc e131 123d
000001c0: ba18 213c 894c 55bd afc8 5d3d d03c a8bc
000001d0: 61f2 77bd 06f3 8a3d 2401 fa3c c9b4 9b3c
000001e0: e13a 30bc 7aac 2fbd 1f34 47bc b058 d33c
000001f0: 83ce 67bb 8cbc e3bc 4fd8 58bb c362 ddbb
00000200: 5408 84ba d98f d53d 9372 453b e33b 9ebc
00000210: bc7d f8bc b205 8d3c 2dc0 d13c f711 523d
00000220: b75a b23c 5128 093d 6cc1 7abc dab8 143b
00000230: 9d6a 8cbc 845e b8bd 84f1 213d f2d4 c53b
00000240: f9d7 33bb 33ac 71bc 582d 2c3b 2b20 243b
00000250: d473 633d 5215 d7bb b222 2f3d 6ca9 86bc
00000260: 6b67 393d 528c 81bc 576f 2d3c b4b6 573d
00000270: 1ece 4ebd 6a9d babc 26d5 8d3d b5ee 55bd
00000280: 7b7e 88bb df06 98ba 47ef 54bd 6fbd c1bc
00000290: fa28 b03c b5b2 e53c c9f7 213d d175 8bbd
000002a0: c3cc 37bd 2632 94bc 5fe4 01bd 13fd 88bd
000002b0: af17 753d bcb4 1ebd dd2d 383d 5975 e6bc
000002c0: b891 dbbc a365 c7bc 35bb 22ba dc3d 47bd
000002d0: 22b6 693d e9c2 7ebd e8b9 abbc 7ef6 3b3d
000002e0: e630 8abd 7dda ae3d 1663 923b acbb 54bd
000002f0: 1d85 30bc 8f1d 003c a8f1 5b3d ec38 4a3d
00000300: 6754 34bd 5fe3 313d f37b 1abc 139f 12bc
00000310: 3b33 253d b71b f739 ccd0 013d 8331 993a
00000320: 5264 b33c bdcc b73d c99c 2f3d 6c97 223d
00000330: 8c3c 8ebd c4dd cdbc 77c8 43bd 64de 1ebd
00000340: befd 6bbc 26e3 f43b 64c5 82bd 9b35 993d
00000350: f718 51bd 8765 0e3d 1543 f53c cd24 7fbd
00000360: 600b cdbb cdef 203d e1e0 99bb ad8e 113d
00000370: 5729 3b3b b4fd 1dbd fdc9 83bd c44c 693c
00000380: 839d d13c f599 143b c000 6ebc 277e 2ebd
00000390: 1b5f afbb e98d 303c 7ef5 3c3b 2281 1ebd
000003a0: a957 673d 899c 673c ecc3 a2bc 108b 7d3d
000003b0: b7ed 0f3d e774 87bc 5059 31bc d21b 2b3d
000003c0: 7282 0e3d 2d7c 1abd 7cc1 033d e5b1 59bc
000003d0: 7c5c 093d 0f35 4cbc 01f2 ef3c 7214 a0bc
000003e0: 7e8c 8dbb 7d21 9a3d 0c1a 153d d07d 363d
000003f0: a2da 2c3d 6bdf 873d 72a0 f2bc 426e 84bd

fc_layers.4.bias f4 [128]
-0.01279923 -0.20806812 -0.09720439 -0.098038375 -0.07196395 -0.15992776 -0.16002607 -0.035562795
-0.071624346 -0.14097051 -0.17190072 -0.1814853 -0.19947349 -0.116185576 -0.08983745 -0.076797806
-0.13070764 -0.022574272 -0.21560116 -0.03488697 -0.11933917 -0.11936887 -0.1493637 -0.0064026183
-0.0816027 -0.12434036 -0.047101237 -0.1874685 -0.059093654 -0.062604405 -0.12541422 -0.057820722
-0.13601944 -0.12572768 -0.016778462 -0.018662231 -0.11575131 -0.06600955 -0.054826967 -0.13492735
-0.107787974 -0.02095338 -0.10681323 -0.09222799 -0.12879817 -0.14355002 -0.08845613 -0.054252584
-0.06259358 -0.17230244 -0.061167736 -0.12087264 -0.065046996 -0.11489145 -0.08292931 -0.029459713
-0.06913163 -0.15842938 -0.014871524 -0.042508468 -0.10353363 -0.050235886 -0.11040325 -0.24402131
-0.15717809 -0.02336306 -0.061560784 -0.1395649 -0.1851195 -0.1468878 -0.017510833 -0.09418343
-0.06223271 -0.07068078 -0.19029257 -0.0872262 -0.18709582 -0.0806611 -0.03909892 -0.075913735
-0.14996658 -0.063345194 -0.10759919 -0.17442673 -0.019922862 -0.1618543 -0.01308424 -0.19548582
-0.10394424 -0.20421007 -0.06939837 -0.044783596 -0.06657404 -0.10083356 -0.0604394 -0.065125205
-0.054951396 -0.07418902 -0.13086075 -0.11041667 -0.17780691 -0.094016835 -0.033933338 -0.19498082
-0.003164371 -0.17224568 -0.06198882 -0.0025226222 -0.16436692 -0.10518001 -0.06132335 -0.21498848
-0.21852185 -0.1317883 -0.057030786 -0.08317419 -0.0033482623 -0.20864664 -0.06526369 -0.21378995
-0.18501562 -0.10979291 -0.05893073 -0.11337764 -0.029606335 -0.0148214605 -0.119670406 -0.07688961
00000000: ddb3 51bc cf0f 55be 1813 c7bd 58c8 c8bd
00000010: d661 93bd 1ac4 23be e0dd 23be 4baa 11bd
00000020: c9af 92bd 935a 10be be06 30be 48d7 39be
00000030: c742 4cbe b4f2 edbd b2fc b7bd 2b48 9dbd
00000040: 39d8 05be aeed b8bc 8dc6 5cbe a4e5 0ebd
00000050: 1868 f4bd ab77 f4bd ccf2 18be 0ecd d1bb
00000060: 511f a7bd 29a6 febd 3aed 40bd bef7 3fbe
00000070: 300c 72bd bd36 80bd 966c 00be 6cd5 6cbd
00000080: ae48 0bbe c2be 00be fc72 89bc 89e1 98bc
00000090: 060f edbd 0430 87bd 3e92 60bd 652a 0abe
000000a0: f1bf dcbd 6ca6 abbc e5c0 dabd 07e2 bcbd
000000b0: abe3 03be c7fe 12be 7d28 b5bd f537 5ebd
000000c0: 1031 80bd 0d70 30be 058b 7abd 138c f7bd
000000d0: 5c37 85bd 354c ebbd d8d6 a9bd 7f55 f1bc
000000e0: e294 8dbd 503b 22be b1a7 73bc 5c1d 2ebd
000000f0: 7109 d4bd 25c4 4dbd 191b e2bd b9e0 79be
00000100: 4bf3 20be e363 bfbc 2927 7cbd 1aea 0ebe
00000110: f78f 3dbe c169 16be e172 8fbc 3ee3 c0bd
00000120: bae7 7ebd 16c1 90bd 0edc 42be a6a3 b2bd
00000130: 0c96 3fbe a631 a5bd 3026 20bd a978 9bbd
00000140: d790 19be 20bb 81bd f75c dcbd ec9c 32be
00000150: 4535 a3bc 22bd 25be 485f 56bc 6f2d 48be
00000160: b8e0 d4bd 721c 51be bc20 8ebd 016f 37bd
00000170: f857 88bd d381 cebd 4e8f 77bd 5d60 85bd
00000180: b714 61bd 6af0 97bd 5c00 06be 2322 e2bd
00000190: 0413 36be e68b c0bd affd 0abd 0da9 47be
000001a0: 5661 4fbb 2c61 30be fde7 7dbd 9452 25bb
000001b0: cd4f 28be 9e68 d7bd 312e 7bbd f125 5cbe
000001c0: 31c4 5fbe 83f3 06be 1d99 69bd 3b57 aabd
000001d0: 856e 5bbb 77a7 55be f8a8 85bd c1eb 5abe
000001e0: bc74 3dbe 1bdb e0bd 5961 71bd 8932 e8bd
000001f0: fc88 f2bc b6d5 72bc c215 f5bd 4d78 9dbd

classification_layer.weight f4 [1, 128]
0.12611581 -0.36179978 -0.15613626 0.13102679 -0.14292611 -0.1887965 -0.18241078 0.1280999
-0.09755269 -0.24559008 -0.2577943 -0.31772113 0.4511902 0.20670272 0.14639036 0.13491943
-0.23746707 -0.1326838 -0.32900923 -0.13650876 0.2367932 -0.22612464 -0.31112167 -0.111646086
-0.15027915 0.13810065 0.15555936 -0.2563062 -0.090782136 -0.19470625 0.14795019 0.16296303
-0.18595076 0.17218743 -0.10332155 -0.10667561 0.17310978 0.12888406 0.13664685 0.18402028
-0.17851438 0.12858367 -0.20250735 0.1791731 -0.20687883 -0.14010127 -0.09778659 0.14211343
0.112493634 0.22764078 0.16928379 -0.22183971 -0.11835416 0.1792883 -0.18179353 -0.11009009
0.12295629 0.34440476 0.14269081 0.09821911 -0.15900083 -0.14886987 0.2782575 0.5503593
0.15997297 0.08171586 -0.08571045 0.23664795 -0.30152127 0.19202419 0.07894628 -0.14142945
-0.057953868 0.08975483 -0.27955157 0.14081497 0.3627199 -0.12576672 0.07719987 0.12884988
-0.25017583 -0.09575918 -0.14739954 0.2572942 0.08057276 0.39398536 0.119292185 -0.28892156
-0.18079539 -0.2940589 0.110200174 -0.12264243 0.15486024 -0.14133507 0.107024536 0.08940032
0.13176532 0.113945305 -0.118906125 0.15221357 0.31427503 0.14058481 -0.056974657 -0.3102912
0.13901427 -0.28060007 0.098794244 -0.067007504 -0.23934375 -0.13097106 0.1424095 -0.3543026
0.3736249 -0.23826042 0.12747394 -0.093520865 -0.095846325 0.24236949 0.1673384 0.31608886
-0.30464008 -0.19313827 -0.18944344 0.12996875 -0.06996933 -0.09710813 0.24754597 0.1114682
00000000: 8124 013e d23d b9be 2fe2 1fbe e32b 063e
00000010: 395b 12be df53 41be e4c9 3abe 9f2c 033e
00000020: b4c9 c7bd f77b 7bbe 9dfd 83be 58ac a2be
00000030: 6702 e73e e1a9 533e 5be7 153e 5228 0a3e
00000040: 912a 73be 43de 07be e673 a8be f4c8 0bbe
00000050: eb79 723e 388d 67be 574b 9fbe b4a6 e4bd
00000060: c7e2 19be 426a 0d3e f44a 1f3e 913a 83be
00000070: fceb b9bd 1361 47be 4180 173e c8df 263e
00000080: e069 3ebe e751 303e 409a d3bd be78 dabd
00000090: b143 313e 2ffa 033e 27ed 0b3e d06f 3c3e
000000a0: 79cc 36be 70ab 033e 165e 4fbe 2779 373e
000000b0: 0bd8 53be b576 0fbe 5644 c8bd 2f86 113e
000000c0: 1063 e63d aa1a 693e bb58 2d3e f329 63be
000000d0: aa63 f2bd 5a97 373e 1528 3abe ea76 e1bd
000000e0: 82d0 fb3d d255 b03e 8a1d 123e 1a27 c93d
000000f0: 1dd1 22be 5871 18be c477 8e3e 59e4 0c3f
00000100: f4cf 233e a55a a73d f688 afbd d753 723e
00000110: ff60 9abe fda1 443e 96ae a13d e2d2 10be
00000120: 0961 6dbd 61d1 b73d 6221 8fbe cd31 103e
00000130: 6cb6 b93e fec8 00be f71a 9e3d 39f1 033e
00000140: 0c17 80be 641d c4bd e8ef 16be 11bc 833e
00000150: 5503 a53d 73b8 c93e 764f f43d 87ed 93be
00000160: 6d22 39be e38e 96be a1b0 e13d f42b fbbd
00000170: af93 1e3e 24ba 10be ae2f db3d 8417 b73d
00000180: 7ded 063e 285c e93d 0e85 f3bd e0dd 1b3e
00000190: a8e8 a03e 77f5 0f3e 425e 69bd 7dde 9ebe
000001a0: c259 0e3e d0aa 8fbe a354 ca3d 3b3b 89bd
000001b0: 8716 75be 471d 06be ccd3 113e 2667 b5be
000001c0: c34b bf3e 8afa 73be 8788 023e de87 bfbd
000001d0: 144b c4bd b52f 783e c25a 2b3e 66d6 a13e
000001e0: c9f9 9bbe 0ac6 45be 76fd 41be 8716 053e
000001f0: 154c 8fbd a1e0 c6bd b17c 7d3e 7149 e43d
