weights/two_piece_22_10_400.pth (torch, 930200 bytes, 7 tensors)

fc_layers.0.weight f4 [256, 133]
0	0x3d682ad0	0.056681454
1	0xbd0204dd	-0.03174292
2	0xbdbf6b81	-0.093466766
3	0x3e4abcf8	0.19798648
4	0xba0eeebb	-0.0005452444
5	0x3d144c63	0.03620566
6	0xbddf5650	-0.10905135
7	0x3e8b876a	0.2725175
8	0x3c96f439	0.018427001
9	0xbc8c77ab	-0.017146906
10	0x3d8c4687	0.068493895
11	0xbdeade4a	-0.114681795
12	0x3d89622a	0.067081764
13	0xbe17fa3e	-0.14841554
14	0xbd3e807d	-0.046509255
15	0x3df0238e	0.117255315
16	0x3ce7209a	0.028213788
17	0xbd0161d3	-0.031587433
18	0xbc9c5a81	-0.019086124
19	0x3c38dfd0	0.01128383
20	0x3d5a34b0	0.053272903
21	0xbde70d2f	-0.112818114
22	0x3d846648	0.06464821
23	0xbdcf7bdf	-0.101310484
24	0xbda92049	-0.08258111
25	0x3e1944f8	0.14967716
26	0x3c94bc67	0.018156243
27	0x3c9c9a04	0.01911641
28	0xbd05cc76	-0.032665692
29	0x3d35f754	0.044425324
30	0x3d5a6edc	0.05332838
31	0xbde32107	-0.11090284
32	0x3d44fc05	0.048091907
33	0xbde284c2	-0.11060478
34	0xbda676df	-0.081281416
35	0x3e386bf2	0.18009928
36	0x3c762ab8	0.015024833
37	0xbd0981e6	-0.033571146
38	0xbd15d4e7	-0.036579993
39	0x3d77a8ee	0.06046384
40	0xbce23b55	-0.027616182
41	0x3cccbe48	0.024993077
42	0xbd2a8bb7	-0.04163715
43	0x3d2bb987	0.04192498
44	0x3c9d49f5	0.019200305
45	0x3cdf8a66	0.027287673
46	0x3d6fa923	0.05851091
47	0xbdb23920	-0.08702302
48	0x3c975a41	0.018475654
49	0xbd336b7d	-0.04380368
50	0xbd6bc4ee	-0.057560854
51	0x3e1aecf8	0.15129459
52	0x3ac76d3b	0.0015215048
53	0xbc016256	-0.00789698
54	0x3cf1566c	0.029460154
55	0xbd7d439b	-0.06183205
56	0x399039a4	0.00027508766
57	0x3cbf36d8	0.023341581
58	0xbc037739	-0.00802403
59	0x3be72dfd	0.007055043
60	0x3db0cda5	0.086329736
61	0xbe115d1d	-0.14195676
62	0x3cc775a4	0.024348088
63	0xbd8f5547	-0.06998687
64	0x3c850dc4	0.016241916
65	0xbd5f8b04	-0.054575935
66	0xbc1c642f	-0.00954537
67	0xbb93fb4e	-0.004516042
68	0x3d113853	0.035454106
69	0xbdd23047	-0.102631144
70	0xbce5fa84	-0.028073557
71	0x3dda816a	0.10669215
72	0x3bddf649	0.0067737442
73	0xbd2b7201	-0.04185677
74	0x3d8b0d59	0.06789655
75	0xbd8dadc5	-0.069179095
76	0xbd28c844	-0.041206613
77	0x3da9d919	0.08293361
78	0xbd8ee1a6	-0.06976633
79	0x3e32af47	0.17449676
80	0xbd5e35aa	-0.054250397
81	0x3dfe8a57	0.1242873
82	0x3d9d3fd8	0.07678193
83	0xbd1cdc99	-0.038296316
84	0xbd1db6de	-0.038504474
85	0x3dbf74b4	0.09348431
86	0x3da0e22d	0.078556396
87	0xbe282b6d	-0.16422816
88	0xbb2ae305	-0.0026075256
89	0x3d87cda4	0.0663102
90	0xbddb4922	-0.10707308
91	0x3e403325	0.1876951
92	0x3d5b51be	0.053544752
93	0xbdde3a0f	-0.108509175
94	0x3d59593b	0.053063612
95	0xbd2c10c9	-0.042008195
96	0xbd698eae	-0.057020836
97	0x3dc7ce6b	0.09756168
98	0x3d640e40	0.055677652
99	0xbd939622	-0.0720637
100	0xbc919b23	-0.01777417
101	0x3d35ab83	0.04435302
102	0x3da50fba	0.0805964
103	0xbe051b08	-0.12998593
104	0x3ce0820d	0.027405763
105	0xbd47db35	-0.048793036
106	0x3c7d8800	0.015474319
107	0x3aa750d1	0.0012765174
108	0x3c2568bc	0.010095771
109	0x3c6399e8	0.013891675
110	0xbc948a62	-0.018132392
111	0x3cf2cb8d	0.029638076
112	0x3d5b6f81	0.053573135
113	0xbde9c70b	-0.114149176
114	0x3dbc5485	0.09195808
115	0xbe245383	-0.16047482
116	0x3d4c3169	0.04985181
117	0xbd687957	-0.056756344
118	0x3cf01e58	0.029311344
119	0xbd1d7eed	-0.038451124
120	0xbc35772c	-0.011075776
121	0xbc570ad4	-0.01312514
122	0xbcbffb7f	-0.023435352
123	0x3d1e69c8	0.0386751
124	0xbcf7eebd	-0.030265206
125	0x3d454d5e	0.048169486
126	0xbd810a97	-0.06300848
127	0x3da7a572	0.08185853
128	0x3c9071e8	0.01763244
129	0x3ccea915	0.025227109
130	0x3cfe8f30	0.031074136
131	0xbc501c57	-0.012702069
132	0xbd8bb391	-0.06821359
133	0xbd4d9109	-0.050187144
134	0x3dc5a6d8	0.096509635
135	0x3d84c8ed	0.06483636
136	0xbdb26bee	-0.08711992
137	0xbd9b9669	-0.07597048
138	0x3e0ac312	0.13550976
139	0x3d7f832c	0.062380955
140	0xbd8d8511	-0.06910146
141	0x3cd8346b	0.026392182
142	0xbd938cdc	-0.07204601
143	0x3d7d2ba4	0.061809197
144	0xbd79487e	-0.06086015
145	0x3c11d25f	0.008900254
146	0xbd790530	-0.060795963
147	0xbd8a8dd8	-0.06765336
148	0x3deb8e31	0.1150173
149	0xbcc96797	-0.024585528
150	0x3db08ec1	0.08620978
151	0x3d676fd0	0.056503117
152	0xbdac41a0	-0.084109545
153	0xbd7af68b	-0.061270278
154	0x3dfff6c1	0.124982364
155	0xbcbbe2d2	-0.022935305
156	0x3d86e5e6	0.065868184
157	0xbcf48bb3	-0.02985177
158	0x3d61482d	0.055000473
159	0xbdce68cf	-0.100785844
160	0x3e14d047	0.14532577
161	0x3c3445b6	0.0110029485
162	0x3d3900d3	0.0451668
163	0x3d89a5a8	0.067210495
164	0xbdee2865	-0.116287984
165	0xbd11ec3b	-0.035625678
166	0x3d43a010	0.04776007
167	0xbc680d1b	-0.014163281
168	0x3d857819	0.065170474
169	0x3d985121	0.07437349
170	0xbde75043	-0.112946056
171	0x3d7cdde0	0.061735034
172	0xbd5b61cb	-0.05356006
173	0x3d1b0841	0.03784967
174	0xbd84e4de	-0.064889655
175	0x3c070f70	0.008243427
176	0xba974159	-0.0011539861
177	0x3d3a2d58	0.0454534
178	0xbadccf9d	-0.0016846542
179	0xbd694bca	-0.056957044
180	0x3d818e2a	0.06325944
181	0xbd9570f5	-0.072969355
182	0x3e0fc779	0.14040937
183	0x3d78402d	0.060608078
184	0xbd7feb85	-0.06248047
185	0x3d2d01d6	0.04223808
186	0xbdcd4c41	-0.1002431
187	0x3cc85bbb	0.024457803
188	0xbdb984f6	-0.090585634
189	0x3d70aab2	0.058756538
190	0xbdcf4b88	-0.10121828
191	0xbd4e94ed	-0.050434995
192	0x3df4a7ab	0.119460426
193	0x3d873a62	0.066029325
194	0xbd75689f	-0.059914228
195	0xbcd3bbdf	-0.02584642
196	0x3d3c2d17	0.04594144
197	0x3d9e64eb	0.07734092
198	0xbdf70ca2	-0.120629564
199	0xbdaf3979	-0.08555884
200	0x3e22bc3b	0.15892117
201	0xbd06db9f	-0.03292429
202	0xbbe5eb1b	-0.007016552
203	0xbd52a3db	-0.051425796
204	0x3df9fc20	0.12206292
205	0x3d502be4	0.050823107
206	0xbdd6abbb	-0.10481974
207	0x3daa6823	0.08320644
208	0xbe045c4d	-0.12925835
209	0x3d2a8968	0.041634947
210	0xbc1ba514	-0.009499807
211	0xbc108209	-0.008820065
212	0xbb966039	-0.0045891074
213	0xbe0d455c	-0.1379599
214	0x3e9e91a9	0.30970505
215	0x3a4fff28	0.00079344446
216	0xbd2c53bf	-0.042072054
217	0x3d57a291	0.05264527
218	0xbd37b858	-0.04485354
219	0x3d94a686	0.07258324
220	0xbdd85556	-0.105631515
221	0xbd389d36	-0.045071803
222	0x3e17edbd	0.14836784
223	0x3d031fbc	0.032012686
224	0xbdab5708	-0.08366209
225	0xbbf0f70c	-0.007353669
226	0x3d9d095a	0.07667799
227	0x3d572838	0.05252859
228	0xbd35ad48	-0.044354707
229	0x3d035073	0.032059144
230	0xbd432a3a	-0.047647692
231	0xbd19e69d	-0.037573446
232	0x3d384bad	0.044994045
233	0xbc57f34b	-0.013180564
234	0x3cce37f1	0.02517316
235	0xbc2b7ddf	-0.010467022
236	0x3d0e3eb7	0.03472778
237	0x3d201809	0.03908542
238	0xbd83c55c	-0.06434128
239	0x3ceead7e	0.029135462
240	0xbd7bf70c	-0.0615149
241	0x3d3cb5f5	0.046071965
242	0xbcdbfaf3	-0.02685306
243	0x3d6dfb47	0.058100965
244	0xbd97b3e8	-0.07407361
245	0xbd9a1b0e	-0.075246915
246	0x3e1c2724	0.15249306
247	0xbd67b698	-0.05657062
248	0x3db05c7a	0.086113885
249	0x3d58ef07	0.05296233
250	0xbcdd7d8b	-0.027037403
251	0x3c3bab21	0.0114543745
252	0xbc589438	-0.013218932
253	0x3cb9dbee	0.022687878
254	0xbde4f6fc	-0.11179921
255	0xbb84b889	-0.0040503186

fc_layers.0.bias f4 [256]
0	0xbd0878c2	-0.03331829
1	0x3de70f97	0.112822704
2	0xbe5d77a5	-0.21627672
3	0x3cedd890	0.02903393
4	0x3e315439	0.17317285
5	0xbe2aad41	-0.16667654
6	0xbcbc814a	-0.023010869
7	0xbdae311e	-0.08505462
8	0x3e14bfee	0.1452634
9	0x3d72cf5c	0.059279785
10	0xbd0f8f78	-0.03504893
11	0xbe3058cd	-0.17221375
12	0x3daadb83	0.0834265
13	0x3db587ff	0.0886383
14	0x3d288404	0.041141525
15	0xbe248ae7	-0.16068612
16	0x3b489450	0.003060598
17	0xbaa72e27	-0.0012754843
18	0xbe2c6358	-0.16834772
19	0x3c1de647	0.009637422
20	0x3d975519	0.07389278
21	0x3d79ce07	0.0609875
22	0xbe181d51	-0.14854933
23	0xbccbabfd	-0.024862284
24	0xbe0f18b1	-0.13974263
25	0x3e33ee65	0.17571409
26	0x3cf64432	0.030061815
27	0xbde6286d	-0.11238179
28	0xbe641f87	-0.22277652
29	0xbe548c4d	-0.20756646
30	0x3d5b8f65	0.05360355
31	0x3d44f914	0.048089102
32	0xbcf0623e	-0.02934372
33	0x3d03f04f	0.032211598
34	0x3dc5acf0	0.09652126
35	0xbe23552e	-0.15950462
36	0x3e2d777d	0.16940112
37	0xbcb76823	-0.022388523
38	0xbe9ef75e	-0.310481
39	0x3d113db2	0.035459228
40	0xbe5053d3	-0.20344476
41	0xbd9ce71d	-0.07661269
42	0x3db96e5e	0.09054254
43	0x3dbf0dee	0.09328829
44	0xbd8a896e	-0.06764494
45	0x3dd9f3a6	0.106421754
46	0x3e09d270	0.13459182
47	0x3e01bb73	0.12669162
48	0xbda9d389	-0.082923
49	0x3df2a623	0.11848094
50	0x3df3a12e	0.11895977
51	0xbe6a8dd1	-0.22905661
52	0xbded0ce3	-0.115747236
53	0xbd942be9	-0.07234938
54	0xbc4b8d4e	-0.012423826
55	0xbde9c9b1	-0.11415423
56	0x3e21e3a6	0.15809497
57	0xbe59f615	-0.21285279
58	0x3df5e3d8	0.12006348
59	0x3d228346	0.039675973
60	0xbd7657a0	-0.06014216
61	0x3e2f75e5	0.17134817
62	0xbe60c2a2	-0.21949247
63	0xbceab731	-0.028651806
64	0xbd36c36f	-0.044619974
65	0xbe317a17	-0.1733173
66	0x3c937056	0.017997902
67	0xbdada3e3	-0.084785245
68	0xbc15cf2b	-0.009143631
69	0xbd1ee3b9	-0.038791392
70	0xbde91020	-0.11380029
71	0xbd947c1a	-0.07250233
72	0x3e7be90b	0.24600618
73	0xbdce70e0	-0.10080123
74	0xbe2769fb	-0.16349022
75	0xbe1bc112	-0.15210369
76	0xbdc4834a	-0.09595354
77	0xbcdc5ca0	-0.026899636
78	0x3bddab24	0.0067647863
79	0xbe32edc5	-0.17473514
80	0xbb1541c9	-0.0022774807
81	0xbd3c3b5b	-0.045955043
82	0xbd9f590f	-0.077806585
83	0x3dfca980	0.12337017
84	0x3d6e6b58	0.05820784
85	0xbdb842a3	-0.08997085
86	0xbdf257e4	-0.1183317
87	0xbd5cc03f	-0.053894278
88	0x3e88e127	0.26734278
89	0xbb2af977	-0.0026088634
90	0xbd113a2d	-0.03545587
91	0xbe5324c1	-0.20619489
92	0xbe25873f	-0.16164874
93	0xbe46d7fe	-0.19418332
94	0xbd638b8d	-0.055553008
95	0xbdc1e1a5	-0.094668664
96	0x3d829ac3	0.06377175
97	0x3e3f5586	0.18684968
98	0xbd0fcaa0	-0.035105348
99	0xbe14d513	-0.14534406
100	0xbd6f0035	-0.058349807
101	0xbe0dff14	-0.13866836
102	0xbdbd10cc	-0.092317194
103	0x3b9769aa	0.0046207504
104	0xbd50f8e9	-0.05101863
105	0xbdfd7557	-0.123758964
106	0x3ba8aab3	0.005147302
107	0x3e796ede	0.24358699
108	0xbc85bf27	-0.0163265
109	0xbe04de67	-0.12975465
110	0x3d6aad63	0.05729426
111	0x3e0501b2	0.12988928
112	0xbcdf88cd	-0.027286911
113	0x3d3fcb75	0.04682489
114	0xbd9a8ba0	-0.075461626
115	0x3dc228ec	0.094804615
116	0xbdbe1d5c	-0.092829436
117	0x3e4ee4f8	0.20204532
118	0x3d88afe4	0.066741735
119	0x3e0df401	0.13862611
120	0x3e028e17	0.12749515
121	0x3e5ac2d4	0.21363384
122	0xbe4edaaa	-0.20200601
123	0xbcfa3ff4	-0.030548073
124	0x3e0ac203	0.13550572
125	0x3ca4e6a5	0.020129511
126	0x3e53ee93	0.20696478
127	0xbdb021d1	-0.086002
128	0x3d9ba4df	0.07599806
129	0xbdd2a374	-0.102850825
130	0x3d2939df	0.041314956
131	0xbe0d6bc1	-0.13810636
132	0xbe62736f	-0.22114347
133	0xbc8b31a8	-0.016991451
134	0x3df2f370	0.11862838
135	0xbe15a2d5	-0.14612897
136	0xbe5eefb9	-0.21771134
137	0x3e500479	0.20314206
138	0xbac55ef7	-0.0015058209
139	0xbd3cfed5	-0.046141464
140	0x3da5f3af	0.081031196
141	0xbe0d1fc2	-0.13781646
142	0x3e01a93c	0.12662214
143	0x3e0b6797	0.13613735
144	0xbcc32bf7	-0.023824675
145	0xbe81f360	-0.25380993
146	0x3c19b79a	0.009382153
147	0x3e1e7263	0.15473323
148	0x3e1f7310	0.15571237
149	0xbe680064	-0.22656399
150	0xbe807f7e	-0.2509727
151	0x3df73d45	0.12072233
152	0xbe98a651	-0.2981439
153	0x3d84582d	0.06462131
154	0xbe8658e4	-0.26239693
155	0x3dc0d49c	0.09415552
156	0xbde88f13	-0.11355414
157	0xbe097d38	-0.13426673
158	0x3e805829	0.2506726
159	0x3e55a69b	0.20864336
160	0x3d8e032c	0.06934199
161	0xbe18b0ed	-0.14911242
162	0xbe4d935f	-0.20075749
163	0xbe0da72c	-0.13833302
164	0x3e1a3393	0.15058737
165	0xbcf3697a	-0.029713381
166	0x3e4990cb	0.1968414
167	0xbd8c13c5	-0.06839708
168	0x3e14971c	0.14510769
169	0xbd7534dd	-0.059864867
170	0x3e22af58	0.15887201
171	0x3e148403	0.14503483
172	0x3cbb10b1	0.022835108
173	0x3d256c5d	0.040386546
174	0xbe856b48	-0.26058412
175	0x3c8c724d	0.017144347
176	0xbe90cdae	-0.2828192
177	0xbe2df376	-0.16987404
178	0x3e14f37b	0.14546005
179	0x3d8fb537	0.07016986
180	0xbe1cb9dd	-0.15305276
181	0x3da92799	0.08259506
182	0x3e2c17a3	0.16805892
183	0xbe3df3cc	-0.18550032
184	0xbe10318d	-0.14081402
185	0xbd9d1741	-0.07670451
186	0x3e640dab	0.22270839
187	0x3e8b6518	0.27225566
188	0xbe10c2cb	-0.14136808
189	0x3e542894	0.20718604
190	0x3c4d2ebe	0.012523351
191	0xbdd5c0d9	-0.104371734
192	0x3dbecdfa	0.09316631
193	0xbde532d1	-0.11191333
194	0xbdcf2db2	-0.101161376
195	0xbd736d60	-0.05943048
196	0x3e927a89	0.28609112
197	0xbd8c0c71	-0.068383105
198	0x3e3391af	0.17536043
199	0x3d76ea67	0.060282137
200	0x3d894e4e	0.067043886
201	0xbdbdc80e	-0.09266673
202	0xbe4714c2	-0.19441512
203	0x3e561378	0.20905864
204	0x3da6b8ac	0.08140692
205	0xbd78ad0f	-0.060711917
206	0x3d4925e7	0.049108412
207	0x3e26b15e	0.16278598
208	0xbc9cc11a	-0.019135047
209	0xbe019d4d	-0.12657662
210	0x3d9c6200	0.076358795
211	0x3d9c8b1d	0.07643721
212	0xbe80d019	-0.25158766
213	0xbdb9d147	-0.090731196
214	0xbdb12dd1	-0.08651317
215	0x3e310881	0.172884
216	0x3dfbedf6	0.12301247
217	0x3baf0686	0.005341354
218	0xbe7e9f0f	-0.24865364
219	0x3dd4c185	0.103884734
220	0x3e2b27a5	0.16714342
221	0xbdc6bd4a	-0.09704073
222	0xbe2d2d7b	-0.1691188
223	0x3e1340d5	0.143802
224	0x3e05fa74	0.13083822
225	0x3d9fb6d7	0.07798546
226	0xbddac9aa	-0.106829956
227	0xbe12de23	-0.14342551
228	0x3dec203c	0.11529586
229	0x3da2771c	0.079328746
230	0xbc61ee89	-0.013789781
231	0x3d39d0c1	0.0453651
232	0xbe0c4ba7	-0.13700734
233	0x3d20cb88	0.039256603
234	0xbe1383ae	-0.144057
235	0x3d7a73c0	0.061145544
236	0x39918cca	0.0002776145
237	0x3e38f0c4	0.18060595
238	0x3cc0edd2	0.023550902
239	0xbdbda9bf	-0.09260892
240	0xbba6214c	-0.0050698873
241	0xbe338607	-0.17531596
242	0x3c8cac61	0.01717204
243	0x3c7abccd	0.015303803
244	0xbe0b981f	-0.13632248
245	0x3e2c3ea4	0.1682077
246	0xbdb675fb	-0.08909222
247	0x3e00a7f0	0.12564063
248	0x3dbfa387	0.09357362
249	0xbdfe3b7b	-0.12413689
250	0x3e6b45d1	0.22975852
251	0x3ae1434c	0.0017186194
252	0xbdc533b1	-0.09629
253	0x3d9be36a	0.07611735
254	0x3e2c9af4	0.16855985
255	0x3e04d76d	0.12972803

fc_layers.2.weight f4 [512, 256]
0	0x3d50fe4b	0.051023763
1	0x3dc42d9a	0.0957901
2	0xbdbb6230	-0.09149587
3	0x3d1dbf63	0.0385126
4	0x3d29f12c	0.041489765
5	0x3cc423de	0.023942884
6	0x3dc1f114	0.0946981
7	0x3d81af66	0.06332283
8	0x3c89a45b	0.016802004
9	0xbd14c1d1	-0.03631765
10	0x3d9f28b8	0.07771438
11	0xbc8b7a45	-0.017026076
12	0xbc94d71a	-0.018168975
13	0x3d61cd56	0.055127464
14	0x3b8e8cc3	0.004350276
15	0x3cdf0741	0.027225139
16	0x3cac87e9	0.0210609
17	0x3d838850	0.06422484
18	0xbcfecd71	-0.031103821
19	0x3dce5a78	0.10075849
20	0x3c95813f	0.018250106
21	0x3ce2404c	0.02761855
22	0xbbaa9458	-0.0052056722
23	0x3cdacc0f	0.02670863
24	0xbd50b50a	-0.050953902
25	0x3d44d03f	0.04805016
26	0x3d0cdbc9	0.03438929
27	0x3cfcbd23	0.030851906
28	0x3d7e7a0a	0.062128104
29	0xbdd6b810	-0.10484326
30	0xbd737391	-0.059436385
31	0xbb812bea	-0.0039420025
32	0xbdc0b20e	-0.09408961
33	0xbcc484b9	-0.023989068
34	0x3de8669e	0.11347698
35	0xbdd5be88	-0.104367316
36	0x3bc9c43a	0.006157425
37	0xbcd20f56	-0.025642078
38	0xbdd1d7e8	-0.10246259
39	0xbcea3f20	-0.028594553
40	0x3d8de7d0	0.0692898
41	0x3d118bb4	0.035533622
42	0xbbeea9e0	-0.0072834343
43	0x3e0452d4	0.12922221
44	0x3d6a96f5	0.05727287
45	0x3b923663	0.00446205
46	0x3de97680	0.11399555
47	0xbd390ea8	-0.045179993
48	0xbaf5fadf	-0.0018766782
49	0x3d0961cb	0.03354053
50	0x3d5ab2af	0.053393062
51	0xbcc002c4	-0.023438819
52	0x3c5b0e91	0.013370172
53	0x3d515309	0.05110458
54	0xbc2965c8	-0.010339208
55	0x3da1f999	0.07908935
56	0x3dee23bb	0.11627909
57	0xbcd202ee	-0.025636163
58	0x3bb3945b	0.005480332
59	0x3da933d9	0.08261842
60	0xbdad1f09	-0.08453185
61	0x3daf1422	0.08548762
62	0x3d110a55	0.035410244
63	0x3a58e554	0.00082739186
64	0x3df7118c	0.12063894
65	0xbd25288e	-0.04032188
66	0xbc4aabbe	-0.012370048
67	0x3d021cef	0.031765874
68	0xbcf0911b	-0.029366067
69	0xbcd40a68	-0.025883868
70	0x3d658295	0.056032736
71	0xbc7f7088	-0.015590794
72	0x3d880c2c	0.066429466
73	0x3db73652	0.08945908
74	0xbd1b9f76	-0.03799387
75	0xbd51fe4b	-0.051267903
76	0x3bb09c12	0.005389699
77	0xb9ae99c3	-0.00033302428
78	0xbd62efd4	-0.0554045
79	0x3d88c15e	0.06677507
80	0x3dd3b5de	0.10337423
81	0xbd84ab8f	-0.06478035
82	0xbd5412e9	-0.051775847
83	0x3d96a3ec	0.07355484
84	0x3d90ac36	0.07064097
85	0x3cbe23cb	0.023210427
86	0x3a8e06af	0.0010835732
87	0x3d5c524f	0.053789433
88	0xbb4a03d0	-0.0030825026
89	0x3dde7a8a	0.10863216
90	0x3d00f515	0.03148373
91	0xbd9b33bd	-0.07578228
92	0xbc08c317	-0.008347294
93	0x3dce3b6f	0.1006993
94	0x3cd9a194	0.026566304
95	0x3c81c0dc	0.015839033
96	0x3d0a1b1d	0.033717263
97	0xbd23f30c	-0.04002671
98	0xbd6804d5	-0.056645233
99	0xbd2de450	-0.042454064
100	0xbd0b6fc6	-0.034042142
101	0x3ccf7551	0.025324496
102	0x3c5d7e43	0.013518873
103	0x3a8ce9b6	0.0010750804
104	0xbcf3a515	-0.029741803
105	0xbda0ca2c	-0.07851061
106	0xbd4e9f54	-0.050444916
107	0x3e09543e	0.13411042
108	0x3c22b7b6	0.009931495
109	0x3d78e15e	0.060761802
110	0x3b6eb994	0.003642653
111	0x3cc0fe0d	0.02355864
112	0x3dc92177	0.09820836
113	0x3da974b3	0.08274212
114	0xbdbb378f	-0.09141456
115	0x3da3374c	0.079695314
116	0xbd6c161c	-0.057638273
117	0x3d88971f	0.06669449
118	0xbc7d61cf	-0.015465214
119	0x3c225c77	0.009909741
120	0x3c3b56cc	0.011434268
121	0xbd68a799	-0.05680046
122	0x3db1f779	0.0868978
123	0xbcc741b2	-0.024323318
124	0x3cc219ce	0.023693945
125	0xbd8c0bf5	-0.06838218
126	0x3da11c6e	0.07866751
127	0x3b6e7440	0.0036385208
128	0xbc96d0ba	-0.018410075
129	0x3d37f82d	0.044914413
130	0xbd675033	-0.05647297
131	0x3d687bf5	0.05675884
132	0xbd2d49b2	-0.04230661
133	0x3c75bd3f	0.014998733
134	0x3dba31ca	0.09091528
135	0x3d50bd2b	0.050961655
136	0xbd507422	-0.050892003
137	0x3cf5eaa6	0.030019116
138	0x3d8426f4	0.06452742
139	0xbd450c25	-0.048107285
140	0xbce03b49	-0.02737202
141	0xbdb3c79e	-0.08778308
142	0x3d8ae0d5	0.067811646
143	0xbd77c461	-0.060490016
144	0xbbf11bad	-0.0073580355
145	0xbe1bdebc	-0.15221685
146	0x3df3fc20	0.119133234
147	0xbd72dcda	-0.05929265
148	0xbd5a3e47	-0.05328205
149	0x3d732e9b	0.05937062
150	0xbd89fdfa	-0.06737895
151	0xbd730b41	-0.059336904
152	0xbe3aaf13	-0.18230848
153	0x3dcf660e	0.10126887
154	0xbe40e45f	-0.18837117
155	0xbd97a374	-0.07404223
156	0xbc676ca5	-0.014125024
157	0x3d98afeb	0.07455429
158	0x3db3d003	0.087799095
159	0x3af689cb	0.0018809376
160	0x3db116fa	0.086469606
161	0xbd822c10	-0.063560605
162	0xbd13647b	-0.035984498
163	0xbd60893a	-0.05481837
164	0x3dc3a23b	0.095524274
165	0xbdad5e7c	-0.08465287
166	0xbd60782a	-0.054802097
167	0x3d30c49b	0.043156248
168	0xbc7811ce	-0.015140964
169	0xbd3e21f4	-0.0464191
170	0x3cc0f7c2	0.02355564
171	0x3c9206f3	0.01782558
172	0x3bae827e	0.0053256145
173	0x3c909bc0	0.017652392
174	0x3bbadb82	0.005702437
175	0x3df7deb5	0.12103025
176	0x3d7317a5	0.05934872
177	0xbc6f5b5a	-0.014609182
178	0x3d0fbe73	0.035093736
179	0x3d081a23	0.03322805
180	0x3db5d46e	0.08878408
181	0xbd656fb5	-0.056014735
182	0xbd0a98c7	-0.033837106
183	0xbdd5b545	-0.10434965
184	0xbda3dbe0	-0.08000922
185	0xbd4f0122	-0.05053819
186	0x3e0bf78a	0.13668647
187	0x3da2df7d	0.07952783
188	0xbd1c4087	-0.038147476
189	0x3dc98e81	0.098416336
190	0x3d8f1a62	0.06987454
191	0xbca62373	-0.020280575
192	0x3dbcc574	0.09217349
193	0xbd8cd430	-0.06876409
194	0xbc02ec86	-0.007990962
195	0x3dd12f0f	0.10214054
196	0x3da51b5c	0.08061859
197	0xbd819405	-0.063270606
198	0x3def58ed	0.11686883
199	0xbcf52b0b	-0.029927751
200	0xbc7e8f4b	-0.015537093
201	0x3dc5c713	0.09657111
202	0x3dd5f21b	0.104465686
203	0x3de5df00	0.112241745
204	0x3cf02019	0.02931218
205	0xbda0780b	-0.078353964
206	0x3c20833f	0.0097969165
207	0xbd6fe879	-0.058571313
208	0x3d042526	0.03226199
209	0x3d94d280	0.07266712
210	0x3d6e03d3	0.058109116
211	0xbd906b60	-0.0705173
212	0x3d9fc482	0.07801153
213	0x3de1156b	0.10990413
214	0x3daeaffb	0.08529659
215	0x3dccb09e	0.099946246
216	0xbd934a48	-0.071919024
217	0xbd517b16	-0.051142775
218	0xbd59e81f	-0.053199884
219	0xbc301393	-0.010746854
220	0x3cdf641d	0.027269417
221	0xbd9756b9	-0.07389588
222	0x3d700bd1	0.05860502
223	0xbb97cfa7	-0.0046329084
224	0x3d336007	0.04379275
225	0x3dd48ba8	0.103782
226	0xbd920c44	-0.07131246
227	0xbd6cf8da	-0.05785451
228	0xbcbbd61b	-0.022929242
229	0x3d0c4d34	0.034253314
230	0x3d80b530	0.06284559
231	0xbd5827cb	-0.052772325
232	0xbd490f5c	-0.049086913
233	0xbcc5c450	-0.02414146
234	0xbd82d9de	-0.06389211
235	0x3dc24592	0.09485926
236	0xbd082e45	-0.03324725
237	0x3bd66196	0.006542395
238	0x3ba048f0	0.0048915073
239	0x3d80f572	0.06296815
240	0xbda81d16	-0.08208673
241	0x3e03d17a	0.12872878
242	0x3d5cc71b	0.05390082
243	0x3ca8fbe6	0.020627927
244	0xbc8191a2	-0.015816513
245	0xbce62a1c	-0.028096251
246	0x3e09bff2	0.13452128
247	0xbd83537c	-0.06412408
248	0xbc06bf82	-0.00822437
249	0xbc4e9fa6	-0.012611305
250	0xbb4c35c6	-0.003115998
251	0x3d98e96b	0.07466396
252	0xbe783ccc	-0.24241942
253	0x3bb49104	0.0055104513
254	0x3dd805bd	0.105479695
255	0xbd65b888	-0.056084186

fc_layers.2.bias f4 [512]
0	0x3e3917b4	0.18075448
1	0xbccf29d6	-0.025288504
2	0xbdd28650	-0.10279524
3	0xbe1af6bd	-0.15133186
4	0xbe3f86df	-0.18703793
5	0xbd193ac6	-0.037409566
6	0xbda11018	-0.07864398
7	0xbd4e8b24	-0.050425664
8	0x3d4f630f	0.05063158
9	0xbdc210fb	-0.09475895
10	0x3c21a2bd	0.00986546
11	0xbe32aebd	-0.1744947
12	0xbcaac4ce	-0.020845797
13	0xbdce9e95	-0.10088841
14	0x3cf90cd7	0.03040163
15	0x3d83eb57	0.06441372
16	0xbd6a3540	-0.05717969
17	0x3e0d498f	0.13797592
18	0xbe9309b8	-0.28718352
19	0x3e77c67b	0.24196808
20	0xbb2318e3	-0.002488666
21	0x3e4afc69	0.1982285
22	0xbe2b6b70	-0.16740203
23	0x3ebc85ed	0.36820927
24	0x3ef25535	0.47330633
25	0x3d7ba9d3	0.061441254
26	0xbe007fc7	-0.12548743
27	0x3da7d803	0.08195498
28	0xbdc254ff	-0.09488868
29	0xbd91dda7	-0.07122355
30	0xbdfcf4c4	-0.12351373
31	0x3eb2ac43	0.3489705
32	0xbc3e4918	-0.011614107
33	0x3d2493db	0.04018007
34	0xbdbd3757	-0.09239071
35	0xbcf668b1	-0.030079218
36	0xbe20e144	-0.15710932
37	0xbd948cb4	-0.072533995
38	0xbe99f1c9	-0.3006728
39	0xbdca3d13	-0.0987493
40	0x3d71619f	0.05893099
41	0x3e3f1dfd	0.18663783
42	0xbda2cc05	-0.0794907
43	0x3cd950b6	0.026527744
44	0x3e1e5d47	0.1546527
45	0xbd077864	-0.033073798
46	0x3d89d754	0.06730524
47	0x3ea008cf	0.3125672
48	0xbe72bfc0	-0.2370596
49	0x3a28773f	0.00064264605
50	0x398d0a92	0.0002690149
51	0xbd0e06fc	-0.03467463
52	0xbc68cd2e	-0.014209075
53	0xbcb4e0c3	-0.022079831
54	0x3e375d41	0.17906667
55	0x3dc2333e	0.0948243
56	0xbd9b6716	-0.075880215
57	0x3e0f141f	0.1397252
58	0xbd938d09	-0.07204635
59	0xbcc578d4	-0.024105467
60	0xbe691f7f	-0.22765921
61	0xbd951d59	-0.07280988
62	0x3d86be03	0.065792106
63	0xbce861f6	-0.028367024
64	0xbcf271b2	-0.02959523
65	0xbdacfea7	-0.084470086
66	0xbd309379	-0.04310939
67	0xbd522468	-0.05130425
68	0x3e045cf1	0.1292608
69	0xbc0dce76	-0.008655181
70	0x3ed3803b	0.4130877
71	0x3d2ca629	0.04215065
72	0x3e979780	0.29607773
73	0x3ca6ccf2	0.020361397
74	0xbe2cd16a	-0.1687676
75	0xbe136029	-0.14392151
76	0x3ddbdb05	0.10735134
77	0x3e1dfccb	0.15428464
78	0x3d52bef3	0.051451635
79	0x3ee262c4	0.44215977
80	0xbdfd3cad	-0.123650886
81	0x3d5cece7	0.053936865
82	0xbdf8dd67	-0.12151604
83	0x3d560c68	0.052257925
84	0x3e987801	0.29779056
85	0x3e40d54f	0.18831371
86	0x3ce02e4c	0.027365826
87	0xba96389d	-0.0011460964
88	0xbe032359	-0.12806453
89	0x3e3774b9	0.1791562
90	0xbe18bfae	-0.1491687
91	0x3dfc9653	0.123333596
92	0xbe0a09af	-0.13480256
93	0xbd13c4d8	-0.036076397
94	0xbdb0045a	-0.0859458
95	0x3eb570fe	0.3543777
96	0xbdf430de	-0.11923383
97	0xbd32d24b	-0.043657582
98	0xbd6a5ecb	-0.057219308
99	0xbe6ebaf8	-0.2331351
100	0xbe7bca14	-0.24588805
101	0xbe517b84	-0.20457274
102	0xbdd13517	-0.10215204
103	0xbe009ba0	-0.12559366
104	0xbe0edd7c	-0.13951677
105	0x3e0eae26	0.1393362
106	0xbdd26aab	-0.102742516
107	0x3d54077d	0.051764954
108	0xbe369d92	-0.17833546
109	0xbc826f30	-0.015922159
110	0xbe1e3a28	-0.15451872
111	0xbe184620	-0.148705
112	0xbe13dc5e	-0.14439532
113	0xbd78945d	-0.060688365
114	0xbeb1d144	-0.3472997
115	0xbca7172d	-0.020396793
116	0x3cc03923	0.023464745
117	0xbe413231	-0.18866803
118	0xbe35bee3	-0.17748599
119	0xbdad2c7e	-0.08455752
120	0xbe2ecd08	-0.170704
121	0x3c88cd6a	0.016699512
122	0x3e67f82e	0.22653267
123	0x3d40ac71	0.047039453
124	0xbda302b5	-0.07959501
125	0x3e399f0a	0.18127075
126	0xbd804156	-0.06262462
127	0xbe1d937d	-0.15388294
128	0xbd60a94a	-0.054848947
129	0xbdb8afff	-0.090179436
130	0x3b9661dc	0.0045893025
131	0x3df0d030	0.117584586
132	0x3ead92c1	0.33901027
133	0xbe0b7884	-0.13620192
134	0xbc199df9	-0.0093760425
135	0xbca594c3	-0.020212537
136	0x3dd3449e	0.10315822
137	0xbd338ea6	-0.043837212
138	0xbe596034	-0.21228105
139	0xbdffd24d	-0.124912836
140	0x3eeac997	0.45856926
141	0x3ec678bb	0.38763985
142	0xbe31a243	-0.17347054
143	0xbb0183a8	-0.001976231
144	0x3d9dbec9	0.07702405
145	0x3e02d121	0.12775089
146	0xbdfb8da3	-0.122828744
147	0xbe4fb71f	-0.20284699
148	0x3da6aa07	0.08137899
149	0x3ca9ea78	0.020741686
150	0xbe09bc6a	-0.1345078
151	0x3d608dd9	0.054822776
152	0x3d4efb36	0.050532542
153	0xbe24c8a7	-0.16092168
154	0xbcf3e517	-0.029772324
155	0xbe7c4732	-0.24636534
156	0x3dbe2a20	0.092853785
157	0xbdc5c805	-0.09657291
158	0x3d69a5a1	0.05704272
159	0x3ec16836	0.3777482
160	0xbdcb7d4d	-0.099360086
161	0xbc0da451	-0.008645133
162	0xbe001b92	-0.12510517
163	0xbd337dd8	-0.043821186
164	0x3e37a59a	0.17934266
165	0x3e2a279c	0.16616672
166	0xbd582461	-0.05276907
167	0x3ebdcd7e	0.3707084
168	0x3e92f4f2	0.28702503
169	0xbcb582cd	-0.022157097
170	0x3ebedf97	0.3727996
171	0x3d2ef4c5	0.0427139
172	0x3de15b2c	0.11003718
173	0xbe0b93cf	-0.13630603
174	0xbe22b7bd	-0.15890403
175	0x3e7d1286	0.24714097
176	0x3dd0fc97	0.10204428
177	0x3e8436a6	0.25822943
178	0xbe7b3ec0	-0.24535656
179	0x3ebd19fb	0.36933884
180	0xbd82ee38	-0.06393093
181	0x3be7ca9c	0.0070737135
182	0x3dfa4325	0.12219838
183	0xbddda217	-0.10821932
184	0xba4fb045	-0.00079226895
185	0xbe1f77b5	-0.15573008
186	0xbdd327db	-0.10310336
187	0xbbe81c78	-0.007083472
188	0x3eb62740	0.3557682
189	0x3d2eea53	0.042703938
190	0xbe122a7c	-0.14274019
191	0xbd8bd7fd	-0.06828306
192	0x3e722ac2	0.23649123
193	0xbc8d81c1	-0.017273786
194	0xbe0ebf7c	-0.13940233
195	0xbda470fd	-0.08029363
196	0x3d4b91be	0.049699537
197	0xbde24aea	-0.11049445
198	0xbde18152	-0.11010994
199	0xbe5acfd5	-0.21368344
200	0x3e244984	0.16043669
201	0x3b958c6e	0.0045638597
202	0xbe1ca894	-0.15298682
203	0xbdb9a06a	-0.090638
204	0x3ee13c09	0.43991116
205	0xbe29f6b4	-0.16598016
206	0xbd9e25cc	-0.07722053
207	0x3e199cba	0.15001193
208	0xbdd2ddc1	-0.102962025
209	0x3e4c6401	0.19960023
210	0x3d22b1e2	0.039720424
211	0xbd849762	-0.064741865
212	0x3ec9ab3a	0.39388448
213	0xbcaba5ba	-0.020953048
214	0xbbc53dc9	-0.0060193283
215	0x3eb1d5ec	0.34733522
216	0xbd09390b	-0.033501666
217	0xbe338953	-0.17532854
218	0xbddea41a	-0.10871144
219	0xbe130a78	-0.14359462
220	0xbdbd26f6	-0.09235947
221	0x3de0fdde	0.10985921
222	0x3e931032	0.28723294
223	0x3e1bd0a8	0.15216315
224	0x3d802c7d	0.062584855
225	0x3eb5e1c8	0.3552382
226	0xbd57e074	-0.05270429
227	0xbd33eaf1	-0.04392523
228	0xbe1997a9	-0.1499926
229	0x3da97729	0.08274681
230	0xbe0dc533	-0.13844757
231	0x3d589a14	0.052881315
232	0xbe2bdf78	-0.16784465
233	0xbe603324	-0.21894509
234	0x3e70b2f7	0.2350577
235	0xbd6daa08	-0.058023483
236	0x3d9ff920	0.07811189
237	0x3eaec01f	0.34130952
238	0x3e3bcd59	0.18340053
239	0x3dc8d9de	0.0980718
240	0x3df0dd50	0.11760962
241	0x3d753b34	0.059870914
242	0xbe305fea	-0.17224088
243	0xbd3b764e	-0.04576712
244	0xbd03447c	-0.032047734
245	0xbe3338b7	-0.17502104
246	0xbdb1303f	-0.0865178
247	0x3df91f4f	0.12164175
248	0xbe6d0672	-0.2314699
249	0x3d3e187d	0.046410073
250	0xbe93fd39	-0.2890413
251	0xbe70caca	-0.23514858
252	0xbd602395	-0.054721434
253	0xbdeae8ca	-0.11470182
254	0xbe13a089	-0.14416708
255	0xbd2d98ef	-0.042382177

fc_layers.4.weight f4 [128, 512]
0	0xbd5a771f	-0.05333626
1	0xbdeb3efa	-0.11486621
2	0xbd8aca4a	-0.06776865
3	0xbba5bc74	-0.0050578658
4	0xbcd501f5	-0.02600191
5	0x3cc07f07	0.023498071
6	0xbcfcc49c	-0.03085547
7	0xbd32ea4a	-0.043680467
8	0xbe03ed7c	-0.12883562
9	0x3a92d04e	0.0011200996
10	0x3d336599	0.043798063
11	0xbd31559b	-0.04329453
12	0xbdc0897d	-0.09401224
13	0x3c807273	0.015679574
14	0xbd55628c	-0.052095935
15	0xbe20c9ef	-0.15702032
16	0x3d0b95f1	0.034078542
17	0xbd779f71	-0.06045479
18	0x3c864f83	0.016395336
19	0xbd5f726d	-0.054552484
20	0xbe053315	-0.13007767
21	0x3cfea95f	0.031086622
22	0xbcad423f	-0.021149753
23	0x3cc781de	0.024353918
24	0xbd790f80	-0.060805798
25	0x3d34da8f	0.044153746
26	0xbd984c53	-0.07436433
27	0x3cd0ff26	0.02551229
28	0xbce7c770	-0.028293341
29	0x3d9d8c3e	0.07692765
30	0xbd950227	-0.07275801
31	0xbd725056	-0.059158646
32	0x3d698d7d	0.0570197
33	0x3d6f69cb	0.0584505
34	0x3a6e6124	0.00090934546
35	0x3d84caa2	0.06483962
36	0x3ad03114	0.0015883767
37	0x3d8e0e0b	0.06936272
38	0x3d38e453	0.045139622
39	0x3cb563b6	0.022142272
40	0xbd8d4e7c	-0.06899735
41	0xbdbddf45	-0.09271101
42	0xbd5eec18	-0.054424375
43	0x3d042a67	0.032267
44	0x3d3412b2	0.04396314
45	0xbd4414ac	-0.047871277
46	0xbe2aa844	-0.1666575
47	0xb9acf277	-0.00032987047
48	0x3d3fa279	0.046785805
49	0x3d259ff2	0.04043574
50	0xbd63c721	-0.055609826
51	0x3d8a555c	0.06754562
52	0xbd90ae7f	-0.070645325
53	0xbd536d95	-0.051618177
54	0x3c9f420d	0.019440675
55	0x3da1cd21	0.07900453
56	0xbcda34b3	-0.026636457
57	0x3d5fe0a0	0.05465758
58	0x3d62f7e7	0.0554122
59	0x3d48b4c2	0.04900051
60	0xbcb80490	-0.022463113
61	0x3da1a3a2	0.078925386
62	0xbdff9dc0	-0.1248126
63	0x3cbff787	0.02343346
64	0x3cfa5b75	0.030561188
65	0x3af8e84e	0.0018990131
66	0xbd050fec	-0.032485887
67	0x3d84a9d0	0.06477702
68	0x3cb8b3c4	0.022546656
69	0x3d688b51	0.056773487
70	0xbd856816	-0.065139934
71	0xbd7caec2	-0.0616901
72	0xbd832f55	-0.06405512
73	0xbe0bfe83	-0.13671307
74	0x3c4e9ee6	0.0126111265
75	0x3b86131f	0.004091635
76	0xbd2b1daa	-0.041776337
77	0x3d9901f2	0.07471074
78	0x3da87354	0.08225122
79	0x3b45ea6e	0.0030199545
80	0x3c9bdbba	0.019025672
81	0xbdaae7a8	-0.08344966
82	0x3d2733fb	0.040821057
83	0x3dc17dbb	0.09447809
84	0xbcd08fe3	-0.025459236
85	0x3d58ec8e	0.05295997
86	0x3d9074f6	0.070535585
87	0x3d76a0d3	0.060211968
88	0xbd057c05	-0.032588977
89	0x3d4eb3e6	0.050464533
90	0x3cab221b	0.020890286
91	0xbdf20777	-0.1181783
92	0x3cf130d1	0.029442223
93	0x3dd76290	0.10516846
94	0xbd7b3418	-0.061328977
95	0xbc57f817	-0.013181708
96	0x3d091b8e	0.033473544
97	0xbdafa9ad	-0.08577285
98	0x3d6afc65	0.05736961
99	0xbb884540	-0.004158646
100	0x3ce3c863	0.027805513
101	0x3cd5b5b5	0.026087621
102	0x3d54bb3b	0.05193637
103	0x3cd7babd	0.026334161
104	0xbd2be29f	-0.04196417
105	0xbe04d099	-0.12970199
106	0x3daa9366	0.08328895
107	0x3db61af8	0.08891863
108	0x3b86b75d	0.004111214
109	0xbd11fcae	-0.035641365
110	0xbd03308b	-0.032028716
111	0x3d39d0ad	0.045365024
112	0x3cbc34f7	0.022974474
113	0xbd90e741	-0.07075358
114	0x3d22a232	0.039705463
115	0xbd4186ed	-0.047247816
116	0xbdd64555	-0.10462443
117	0x3d82f732	0.06394805
118	0x3ce8c62f	0.028414814
119	0xbcc2240b	-0.023698827
120	0xba05c3a6	-0.0005102701
121	0xbdcfeba7	-0.10152369
122	0xbcafbdba	-0.021452773
123	0xbccdbd6e	-0.025114741
124	0xbcf5b914	-0.029995479
125	0xbde4461d	-0.111461855
126	0xbd0ce497	-0.034397688
127	0xbcc9e7d8	-0.024646685
128	0xbcbf4dcd	-0.023352528
129	0x3de0e81a	0.1098177
130	0x3c45b7c8	0.012067743
131	0xbe2fa27d	-0.17151828
132	0xbc7ea211	-0.015541569
133	0x3baa6453	0.005199948
134	0x3d475906	0.048668884
135	0x3d73cd95	0.05952223
136	0x3d45bb60	0.048274398
137	0x3d2d49cf	0.042306717
138	0xbcd0e70e	-0.0255008
139	0xbc8c6122	-0.01713616
140	0xbbfed523	-0.0077768727
141	0xbd9760ba	-0.07391496
142	0x3d44d492	0.048054285
143	0xbe09010f	-0.1337931
144	0xbe41ee7e	-0.18938634
145	0xbd91d212	-0.07120146
146	0xbca08c69	-0.019598203
147	0x3c9a2eee	0.018821206
148	0x3dc0beda	0.09411402
149	0xbd6ff9da	-0.058587886
150	0x3d5031ab	0.050828617
151	0x3cb7032f	0.022340385
152	0x3d7937be	0.060844176
153	0xbd0051dd	-0.03132807
154	0x3d133ec1	0.03594852
155	0x3d6eb337	0.05827638
156	0xbe60b8cf	-0.21945499
157	0xbd6ce384	-0.057834163
158	0x3da63754	0.08116022
159	0xbd170d5c	-0.036877975
160	0x3c25fc50	0.010130957
161	0xbcdd079f	-0.026981173
162	0xbd88c780	-0.066786766
163	0xbc3f965f	-0.011693566
164	0x3d87d702	0.06632806
165	0x3d660960	0.056161284
166	0x3d881f5c	0.06646606
167	0xbd4d6630	-0.05014628
168	0xbd21a241	-0.039461378
169	0xbd2f9517	-0.042866793
170	0xbc8e84e0	-0.017397344
171	0xbe05e6b0	-0.13076282
172	0x3d8542f0	0.06506908
173	0xbd4e7fb4	-0.050414756
174	0x3d4f1fff	0.050567623
175	0xbd609175	-0.05482622
176	0x3c1929cf	0.009348347
177	0x3c47bc32	0.012190865
178	0xbc2dc77e	-0.010606645
179	0xbce91329	-0.02845152
180	0x3db2641e	0.08710502
181	0xbdd27ef9	-0.10278124
182	0xbdf215c6	-0.11820559
183	0x3d7a5e33	0.06112499
184	0xbe06a760	-0.13149786
185	0x3da5cb26	0.08095388
186	0xbc3f222c	-0.011665862
187	0xbd928440	-0.07154131
188	0x3b92f145	0.004484328
189	0x3cbbe9ae	0.022938576
190	0x3d794f68	0.060866743
191	0x3d9586c3	0.073010944
192	0xbd81845b	-0.06324073
193	0x3a8b2b66	0.0010617792
194	0x38e9a4b6	0.000111409856
195	0x3c08e8a7	0.00835625
196	0x3d87bbaf	0.06627595
197	0xbccf231a	-0.025285292
198	0x3d34b3f2	0.04411692
199	0xbac66f29	-0.001513933
200	0x3d6bce2e	0.057569675
201	0x3dcd1d72	0.10015382
202	0x3c64db51	0.013968305
203	0x3d404dae	0.04694908
204	0xbd5c942a	-0.053852238
205	0xbd221cc4	-0.039578214
206	0xbd50b24d	-0.05095129
207	0xbbc2a218	-0.0059397332
208	0xbb1dfc5a	-0.0024106712
209	0x3d187e5d	0.037229884
210	0xbe10cb42	-0.14140037
211	0x3dc532a4	0.096287996
212	0xbd00663e	-0.031347506
213	0x3d584b64	0.052806273
214	0x3d57c7b8	0.0526807
215	0xbd66fe0e	-0.05639463
216	0x3a6694b7	0.0008795964
217	0x3d2d4e62	0.04231108
218	0xbd1ce9aa	-0.038308777
219	0x3d207962	0.03917826
220	0x3ca1e2f3	0.019761538
221	0xbe2c60a7	-0.16833745
222	0xbd800fd7	-0.06253021
223	0xbd2daa16	-0.042398535
224	0x3d55fe01	0.05224419
225	0x3bba3336	0.0056823744
226	0xbd554cf1	-0.05207533
227	0xbcbdc0ca	-0.023163218
228	0xbd095902	-0.03353215
229	0xbe082594	-0.13295585
230	0xbc63296c	-0.013864856
231	0xbdb243c4	-0.087043315
232	0x3d770c3d	0.060314406
233	0x3c28724e	0.010281159
234	0x3cce2ffe	0.025169369
235	0x3dc6641c	0.09687063
236	0x3d3811d4	0.044938877
237	0xbc0ca6ae	-0.008584661
238	0xbdbc136e	-0.091833934
239	0x3d8a31c2	0.06747772
240	0x3d927d51	0.071528085
241	0xbe184feb	-0.14874236
242	0x3d2acee0	0.041701198
243	0xbd73da7f	-0.059534546
244	0x3d018e35	0.03162976
245	0xbb93e3c9	-0.004513238
246	0x3d11e45d	0.035618175
247	0xbdea0dfd	-0.11428449
248	0xbb2a0ce0	-0.0025947616
249	0x3dad8ee1	0.084745176
250	0x3d28e719	0.041236017
251	0x3ced2e05	0.028952608
252	0x3d86e720	0.06587052
253	0x3d7fef37	0.062483992
254	0xbd64bf1b	-0.055846315
255	0xbdd3fc91	-0.103509076

fc_layers.4.bias f4 [128]
0	0xbc0a9b84	-0.008459929
1	0xbe60c058	-0.21948373
2	0xbcc8c4d7	-0.024507923
3	0xbdd48491	-0.103768475
4	0xbd8a94df	-0.06766676
5	0xbdb59bf9	-0.0886764
6	0xbdc376b1	-0.09544123
7	0xbcd87818	-0.026424453
8	0xbd8d07fa	-0.06886287
9	0xbda538dd	-0.080674864
10	0xbded9f09	-0.11602599
11	0xbe437987	-0.19089328
12	0xbe5b0895	-0.21389993
13	0xbdd7a932	-0.10530318
14	0xbd6d7ad3	-0.057978462
15	0xbda8319c	-0.08212587
16	0xbd6653ee	-0.056232385
17	0x3c88a347	0.01667942
18	0xbe648bee	-0.22319004
19	0xbd01b44e	-0.031666093
20	0xbd978076	-0.07397549
21	0xbd66a86d	-0.056312967
22	0xbe247b69	-0.16062702
23	0x3d14433f	0.036196943
24	0xbda29501	-0.079385765
25	0xbdbeb524	-0.093118936
26	0xbd2bbdbf	-0.041929003
27	0xbe3f9de3	-0.18712573
28	0xbc798f21	-0.0152318785
29	0x3c174b54	0.009234268
30	0xbe06306a	-0.13104406
31	0xbcf0c328	-0.029389933
32	0xbde444ad	-0.11145911
33	0xbdaf70fc	-0.08566472
34	0x3cb42a68	0.021992877
35	0xbc7091d9	-0.01468321
36	0xbd9cfcab	-0.0766538
37	0xbd773d2f	-0.060361084
38	0xbd791b04	-0.06081678
39	0xbddf7b67	-0.10912209
40	0xbd934dbe	-0.071925625
41	0xbca0b396	-0.019616883
42	0xbd0238a0	-0.031792283
43	0xbdc9c6de	-0.09852384
44	0xbe06611e	-0.13122985
45	0xbd925295	-0.071446575
46	0xbdad365f	-0.08457636
47	0xbd1428d3	-0.036171746
48	0xbd722db3	-0.059125613
49	0xbe026b87	-0.12736331
50	0xbcf24201	-0.029572489
51	0xbd625608	-0.055257827
52	0xbd7f4ca3	-0.062328946
53	0xbdf855c8	-0.121257365
54	0xbc18eac1	-0.009333313
55	0xbcd4da05	-0.025982866
56	0xbd986eb7	-0.07442992
57	0xbe319970	-0.17343688
58	0xbc826ce8	-0.015921071
59	0xbd432f6f	-0.047652658
60	0xbd55e283	-0.05221797
61	0xbd43cb26	-0.04780116
62	0xbdd29739	-0.1028275
63	0xbe84c8cc	-0.25934446
64	0xbdedfdda	-0.11620684
65	0xbcbd3921	-0.02309853
66	0xbcb4616e	-0.022019114
67	0xbdc425f2	-0.0957755
68	0xbe4421c2	-0.19153503
69	0xbe133081	-0.14373972
70	0xbcb897f0	-0.022533387
71	0xbcaf8352	-0.021424923
72	0xbd01f071	-0.031723443
73	0xbd858757	-0.06519955
74	0xbe49f7ef	-0.19723485
75	0xbdbb67a7	-0.091506295
76	0xbe4f4429	-0.20240845
77	0xbd2dc16b	-0.042420786
78	0xbd20357c	-0.039113507
79	0xbd348e4d	-0.04408102
80	0xbde1b82a	-0.11021455
81	0xbd75b77a	-0.05998943
82	0xbdd6fa02	-0.10496904
83	0xbe406a76	-0.18790612
84	0xbc4d8230	-0.012543246
85	0xbe35ecff	-0.17766188
86	0xbce36268	-0.027756885
87	0xbe4dfbb1	-0.20115544
88	0xbcde1bf5	-0.02711294
89	0xbe590d55	-0.21196492
90	0xbd810b5e	-0.06300996
91	0xbd28ba34	-0.041193202
92	0xbda339cd	-0.07970009
93	0xbcf3565e	-0.029704269
94	0xbd92df68	-0.071715176
95	0xbda15c47	-0.07878929
96	0xbd8cb66a	-0.0687073
97	0xbd8061c3	-0.062686466
98	0xbd7b1dda	-0.061307766
99	0xbd8ddbc5	-0.06926683
100	0xbe3baf33	-0.18328552
101	0xbd8695b9	-0.06571526
102	0x3bfe68c0	0.007763952
103	0xbe4eb114	-0.20184737
104	0xbc687184	-0.0141872205
105	0xbe32d84e	-0.17465326
106	0xbd6a928a	-0.057268657
107	0x3d18a3a5	0.03726544
108	0xbe0581e6	-0.13037834
109	0xbdd11510	-0.102090955
110	0xbcdb750e	-0.026789214
111	0xbe67e7e7	-0.22647057
112	0xbe6e0dc0	-0.23247433
113	0xbd8086b9	-0.06275696
114	0xbd2d17de	-0.04225909
115	0xbda420ff	-0.08014106
116	0x3d0d9b52	0.034571953
117	0xbe51e2f4	-0.20496732
118	0xbd907028	-0.07052642
119	0xbe71e1b5	-0.23621257
120	0xbe48f012	-0.1962283
121	0xbd202092	-0.03909356
122	0x3c1e2f83	0.009654882
123	0xbdf51bc5	-0.11968187
124	0x3bce5213	0.006296405
125	0xbc2b33e1	-0.010449381
126	0xbd9acfe4	-0.07559183
127	0xbdc8afe1	-0.09799171

classification_layer.weight f4 [1, 128]
0	0x3f6f4078	0.93457747
1	0xbec6556c	-0.38737047
2	0xbf6614ee	-0.89875686
3	0x3dedd795	0.11613385
4	0xbdf9657a	-0.12177558
5	0xbf31d6a7	-0.6946816
6	0xbf1d8fa2	-0.6154729
7	0x3e095d23	0.13414435
8	0xbda46d27	-0.08028632
9	0xbf224408	-0.6338506
10	0xbf1c42b2	-0.6103927
11	0xbea8cd8d	-0.32969323
12	0x3ee69d19	0.4504173
13	0x3f015f29	0.5053583
14	0x3f71c13a	0.94435465
15	0x3df89a68	0.12138826
16	0xbf5384a8	-0.8262429
17	0xbea62579	-0.32450464
18	0xbea0ba32	-0.31392056
19	0xbdfa1462	-0.12210919
20	0x3f553bed	0.83294564
21	0xbf1f58bc	-0.6224477
22	0xbea81541	-0.32828715
23	0xbf7b1e67	-0.98093265
24	0xbe0a2b72	-0.13493136
25	0x3f70e9f5	0.9410699
26	0x3e9e5654	0.30925238
27	0xbe9f1198	-0.3106811
28	0xbf767ff8	-0.96289015
29	0xbf710de4	-0.9416182
30	0x3e0bd5e1	0.13655807
31	0x3f784589	0.969811
32	0xbebaf3bc	-0.3651408
33	0x3f6815bb	0.9065816
34	0xbe9dfdda	-0.30857736
35	0xbdb5dc68	-0.0887993
36	0x3f6cd11b	0.9250657
37	0x3f47697f	0.7789535
38	0x3dffd187	0.12491136
39	0x3f809c08	1.0047617
40	0xbed77591	-0.42081884
41	0x3f6fd6b2	0.93686974
42	0xbf581bbb	-0.84417313
43	0x3e2d6bb5	0.16935618
44	0xbe77d5f8	-0.24202716
45	0xbf6b56df	-0.9192943
46	0xbda39427	-0.07987242
47	0x3f7758c9	0.9661985
48	0x3e990995	0.29890123
49	0x3f4e74e5	0.80647117
50	0x3f73e326	0.95268476
51	0xbf28aa0c	-0.6588447
52	0xbdd03156	-0.1016566
53	0x3e2cba9d	0.16868062
54	0xbf60bcae	-0.877879
55	0xbdc1e658	-0.09467763
56	0x3ddf5559	0.10904951
57	0x3ede42aa	0.43410236
58	0x3f6e2629	0.9302698
59	0x3daeabb2	0.08528842
60	0xbe4fd816	-0.20297274
61	0xbe096c04	-0.13420111
62	0x3f0ebaf8	0.5575404
63	0x3f116a86	0.56803167
64	0x3f6729b7	0.90298027
65	0x3f67deab	0.9057414
66	0xbe8c9499	-0.2745712
67	0x3f558940	0.8341255
68	0xbe91ed3d	-0.2850131
69	0x3ed76930	0.4207244
70	0x3f5e1d4e	0.86763465
71	0xbf243997	-0.64150375
72	0xbf714e40	-0.94260025
73	0x3e8c4441	0.27395824
74	0xbe858e4b	-0.26085123
75	0x3e032629	0.12807526
76	0x3ebc4412	0.36770684
77	0xbf2b618c	-0.6694572
78	0x3f63e93a	0.8902775
79	0x3f6a614a	0.915547
80	0xbf022de5	-0.5085128
81	0xbda51137	-0.08059924
82	0xbe077731	-0.13229062
83	0x3ebd8b65	0.37020412
84	0x3f627b67	0.8846955
85	0x3ecd2956	0.400706
86	0x3f6762f9	0.90385395
87	0xbe8a0d17	-0.26963112
88	0xbf5a995f	-0.85390276
89	0xbe9b1175	-0.30286756
90	0x3f2bcfbe	0.67113864
91	0xbdd5e4da	-0.104440406
92	0x3f709196	0.93972147
93	0xbf6da2fb	-0.92826813
94	0x3f64f4e8	0.894362
95	0x3db1e8d1	0.08686984
96	0x3f6a0d09	0.9142614
97	0x3e481f31	0.19543149
98	0xbf688414	-0.90826535
99	0x3f643f4f	0.891591
100	0x3ee338d9	0.4437931
101	0x3f726fec	0.9470203
102	0xbf36a249	-0.7134138
103	0xbe953e62	-0.29149157
104	0x3f6b4b56	0.9191183
105	0xbe8d0730	-0.27544546
106	0x3f6cf55c	0.9256189
107	0xbf248451	-0.642644
108	0xbef20f58	-0.4727733
109	0xbdece091	-0.1156627
110	0x3f6c7c52	0.923772
111	0xbec3d7ce	-0.38250583
112	0x3eed10fa	0.46302015
113	0xbf37b4d8	-0.7176032
114	0x3e7eab8a	0.24870124
115	0xbd9fcbf3	-0.07802572
116	0xbf3159f1	-0.69277865
117	0x3ef48356	0.4775645
118	0x3e1edbcd	0.15513535
119	0x3efd640e	0.49490398
120	0xbea5b4a2	-0.32364374
121	0xbf389f62	-0.721182
122	0xbf75ad2b	-0.9596736
123	0x3df33350	0.118750215
124	0xbf792b22	-0.9733144
125	0xbda1e2a3	-0.07904556
126	0x3f4f5395	0.8098691
127	0x3e1a4050	0.15063596
